detection/models/yolov5/Digital_Meter_Seg7/yolov5_tiny_1xb16_300e_coco_int8_sha1_d670a8f8ceb3691beaa89da352c678634a29df73.tflite (tflite, 845120 bytes, 69 tensors)

fuse_attr_148 i1 [80, 3, 3, 80]
0	0xfb	-5
1	0xfa	-6
2	0xf3	-13
3	0xf8	-8
4	0xe4	-28
5	0x0c	12
6	0xfb	-5
7	0xf9	-7
8	0xf5	-11
9	0x01	1
10	0xf6	-10
11	0xf9	-7
12	0xf2	-14
13	0x00	0
14	0xfc	-4
15	0xf2	-14
16	0xfe	-2
17	0x1d	29
18	0x09	9
19	0xf3	-13
20	0x09	9
21	0xfc	-4
22	0x16	22
23	0xed	-19
24	0xf7	-9
25	0xf0	-16
26	0x02	2
27	0xf6	-10
28	0x03	3
29	0xfa	-6
30	0xff	-1
31	0xfb	-5
32	0x04	4
33	0x02	2
34	0x01	1
35	0x00	0
36	0x0d	13
37	0x07	7
38	0xfb	-5
39	0xf6	-10
40	0x01	1
41	0xef	-17
42	0xfc	-4
43	0xf1	-15
44	0xf9	-7
45	0xf2	-14
46	0x02	2
47	0x05	5
48	0xf9	-7
49	0x05	5
50	0xfb	-5
51	0x1e	30
52	0xff	-1
53	0xf1	-15
54	0xef	-17
55	0x01	1
56	0x06	6
57	0x07	7
58	0x03	3
59	0xe1	-31
60	0xf0	-16
61	0xf6	-10
62	0xf6	-10
63	0xfa	-6
64	0xfc	-4
65	0xff	-1
66	0x02	2
67	0xf5	-11
68	0xef	-17
69	0xfa	-6
70	0xed	-19
71	0xf8	-8
72	0xe9	-23
73	0x02	2
74	0xed	-19
75	0x00	0
76	0xf5	-11
77	0xf5	-11
78	0xf6	-10
79	0xf3	-13
80	0x3a	58
81	0xeb	-21
82	0xfe	-2
83	0xeb	-21
84	0xe7	-25
85	0xd0	-48
86	0x00	0
87	0xf2	-14
88	0xe1	-31
89	0xff	-1
90	0xef	-17
91	0x05	5
92	0x00	0
93	0xef	-17
94	0xed	-19
95	0xfa	-6
96	0x10	16
97	0xf0	-16
98	0xff	-1
99	0x30	48
100	0xef	-17
101	0xe5	-27
102	0xeb	-21
103	0xe7	-25
104	0x03	3
105	0xf4	-12
106	0xf4	-12
107	0x7f	127
108	0x05	5
109	0x08	8
110	0x11	17
111	0xfe	-2
112	0xf0	-16
113	0x01	1
114	0x02	2
115	0x35	53
116	0x30	48
117	0xf6	-10
118	0x06	6
119	0xe8	-24
120	0xfb	-5
121	0xff	-1
122	0xf5	-11
123	0xec	-20
124	0xf4	-12
125	0xee	-18
126	0x13	19
127	0xe6	-26
128	0xf9	-7
129	0x0e	14
130	0x16	22
131	0xf1	-15
132	0x00	0
133	0xf1	-15
134	0x0a	10
135	0x0d	13
136	0xeb	-21
137	0x04	4
138	0xe8	-24
139	0xe5	-27
140	0x00	0
141	0x03	3
142	0xf2	-14
143	0xeb	-21
144	0xec	-20
145	0xf3	-13
146	0xf9	-7
147	0xf5	-11
148	0xff	-1
149	0x00	0
150	0x0a	10
151	0x47	71
152	0xe9	-23
153	0x02	2
154	0xdb	-37
155	0x28	40
156	0xe8	-24
157	0xfe	-2
158	0xf6	-10
159	0xf6	-10
160	0xfc	-4
161	0x09	9
162	0x03	3
163	0x08	8
164	0xe3	-29
165	0x08	8
166	0x10	16
167	0xfa	-6
168	0x05	5
169	0xff	-1
170	0xed	-19
171	0x15	21
172	0x04	4
173	0x5f	95
174	0xde	-34
175	0xfd	-3
176	0xf7	-9
177	0x01	1
178	0xfe	-2
179	0x35	53
180	0xfa	-6
181	0x0d	13
182	0xf4	-12
183	0xfc	-4
184	0xf2	-14
185	0xf5	-11
186	0x13	19
187	0xf0	-16
188	0xed	-19
189	0xf0	-16
190	0xe8	-24
191	0x03	3
192	0x0b	11
193	0xf0	-16
194	0xec	-20
195	0x37	55
196	0x03	3
197	0x03	3
198	0x05	5
199	0xe6	-26
200	0xee	-18
201	0xfd	-3
202	0xec	-20
203	0xf7	-9
204	0xf6	-10
205	0xe3	-29
206	0x1d	29
207	0x00	0
208	0x07	7
209	0x08	8
210	0xee	-18
211	0x01	1
212	0xfe	-2
213	0xf7	-9
214	0xfa	-6
215	0x3a	58
216	0x0f	15
217	0x22	34
218	0xfc	-4
219	0x19	25
220	0x0e	14
221	0xdc	-36
222	0x0a	10
223	0x0b	11
224	0x02	2
225	0xef	-17
226	0xf3	-13
227	0x0b	11
228	0x12	18
229	0x03	3
230	0x07	7
231	0xe5	-27
232	0x00	0
233	0x0f	15
234	0x0c	12
235	0x11	17
236	0xfc	-4
237	0xf6	-10
238	0x0f	15
239	0x03	3
240	0xef	-17
241	0xf9	-7
242	0xfe	-2
243	0x11	17
244	0xe7	-25
245	0x03	3
246	0x05	5
247	0xe4	-28
248	0x03	3
249	0x01	1
250	0xfc	-4
251	0xfc	-4
252	0xf9	-7
253	0x10	16
254	0xf1	-15
255	0xf3	-13

fuse_attr_115 i1 [40, 1, 1, 40]
0	0x00	0
1	0x23	35
2	0x06	6
3	0x7f	127
4	0xc9	-55
5	0xed	-19
6	0x3b	59
7	0x17	23
8	0x4f	79
9	0xde	-34
10	0xfc	-4
11	0x10	16
12	0x85	-123
13	0x0c	12
14	0xa4	-92
15	0x0b	11
16	0xfc	-4
17	0xdc	-36
18	0x2a	42
19	0xe9	-23
20	0x7a	122
21	0xfe	-2
22	0x57	87
23	0xf3	-13
24	0xe7	-25
25	0xad	-83
26	0x31	49
27	0x2c	44
28	0x1f	31
29	0xa9	-87
30	0x37	55
31	0x47	71
32	0xf9	-7
33	0x19	25
34	0xd2	-46
35	0xbb	-69
36	0xef	-17
37	0x1d	29
38	0xe8	-24
39	0x1e	30
40	0xfd	-3
41	0x7f	127
42	0x2a	42
43	0x09	9
44	0x31	49
45	0xbf	-65
46	0x0c	12
47	0x28	40
48	0x5d	93
49	0x1c	28
50	0xb8	-72
51	0xb9	-71
52	0xfe	-2
53	0xea	-22
54	0x06	6
55	0xaa	-86
56	0xeb	-21
57	0xd0	-48
58	0xd7	-41
59	0x3f	63
60	0xc0	-64
61	0x95	-107
62	0xc3	-61
63	0xbc	-68
64	0x0c	12
65	0x51	81
66	0xf2	-14
67	0x05	5
68	0xaf	-81
69	0x59	89
70	0x0b	11
71	0xe5	-27
72	0x13	19
73	0x03	3
74	0x0e	14
75	0xe3	-29
76	0x20	32
77	0x81	-127
78	0xd8	-40
79	0x0c	12
80	0xc0	-64
81	0xf1	-15
82	0x31	49
83	0x1c	28
84	0x28	40
85	0xef	-17
86	0x02	2
87	0xbf	-65
88	0xc8	-56
89	0xc3	-61
90	0xe1	-31
91	0x4f	79
92	0xce	-50
93	0x52	82
94	0xe7	-25
95	0x1f	31
96	0xbf	-65
97	0x07	7
98	0xe5	-27
99	0x13	19
100	0xa9	-87
101	0xfc	-4
102	0xf5	-11
103	0x2b	43
104	0x28	40
105	0x1d	29
106	0x37	55
107	0xe6	-26
108	0x1d	29
109	0x2f	47
110	0xcd	-51
111	0x28	40
112	0xdc	-36
113	0xda	-38
114	0x60	96
115	0x35	53
116	0xb1	-79
117	0x33	51
118	0x7f	127
119	0xed	-19
120	0xc1	-63
121	0xde	-34
122	0xb9	-71
123	0x8d	-115
124	0x18	24
125	0xfd	-3
126	0x93	-109
127	0xbd	-67
128	0xa1	-95
129	0xba	-70
130	0x0c	12
131	0x09	9
132	0xa7	-89
133	0x65	101
134	0x80	-128
135	0xf7	-9
136	0xf0	-16
137	0x24	36
138	0x04	4
139	0xac	-84
140	0xf4	-12
141	0xe0	-32
142	0xc6	-58
143	0x22	34
144	0xf2	-14
145	0x14	20
146	0xb6	-74
147	0x96	-106
148	0xe7	-25
149	0xea	-22
150	0xea	-22
151	0xf5	-11
152	0x23	35
153	0xcb	-53
154	0xd7	-41
155	0xad	-83
156	0xd8	-40
157	0x0a	10
158	0x62	98
159	0xe8	-24
160	0x04	4
161	0xc7	-57
162	0x0b	11
163	0xeb	-21
164	0xaa	-86
165	0x94	-108
166	0x46	70
167	0xe1	-31
168	0xf2	-14
169	0x7f	127
170	0x17	23
171	0x1a	26
172	0xea	-22
173	0x24	36
174	0xd7	-41
175	0x08	8
176	0xaf	-81
177	0x46	70
178	0x4d	77
179	0xde	-34
180	0x16	22
181	0xb9	-71
182	0xc2	-62
183	0xc6	-58
184	0xaf	-81
185	0x14	20
186	0x33	51
187	0x23	35
188	0xe8	-24
189	0x3b	59
190	0xe8	-24
191	0x52	82
192	0xe7	-25
193	0x41	65
194	0xe1	-31
195	0xd1	-47
196	0x23	35
197	0x5f	95
198	0xbd	-67
199	0x32	50
200	0xec	-20
201	0x7b	123
202	0x0d	13
203	0x07	7
204	0x50	80
205	0xfb	-5
206	0x32	50
207	0x34	52
208	0x24	36
209	0x4b	75
210	0x9d	-99
211	0xc8	-56
212	0x44	68
213	0xc9	-55
214	0xf9	-7
215	0xb6	-74
216	0x5c	92
217	0xc8	-56
218	0xea	-22
219	0x42	66
220	0xea	-22
221	0x45	69
222	0xbf	-65
223	0xde	-34
224	0xd1	-47
225	0x1d	29
226	0x04	4
227	0x10	16
228	0xf3	-13
229	0x4d	77
230	0x51	81
231	0xe8	-24
232	0x7f	127
233	0xc2	-62
234	0x32	50
235	0xed	-19
236	0xf5	-11
237	0x18	24
238	0xcc	-52
239	0x10	16
240	0x03	3
241	0x1d	29
242	0x2d	45
243	0xb2	-78
244	0xef	-17
245	0x19	25
246	0x80	-128
247	0xe9	-23
248	0xd8	-40
249	0xdf	-33
250	0xdc	-36
251	0x05	5
252	0x33	51
253	0xe2	-30
254	0x11	17
255	0xe8	-24

fuse_attr_98 i1 [12, 3, 3, 12]
0	0xf6	-10
1	0xe5	-27
2	0x00	0
3	0xcb	-53
4	0x1a	26
5	0x02	2
6	0xe3	-29
7	0xfe	-2
8	0xf3	-13
9	0xe0	-32
10	0xfb	-5
11	0x0a	10
12	0x06	6
13	0x03	3
14	0xeb	-21
15	0x1a	26
16	0xdd	-35
17	0xdc	-36
18	0xea	-22
19	0xe6	-26
20	0xf2	-14
21	0x3d	61
22	0x03	3
23	0xfd	-3
24	0xfd	-3
25	0xfe	-2
26	0xe1	-31
27	0xee	-18
28	0x1b	27
29	0x12	18
30	0xfe	-2
31	0x11	17
32	0x08	8
33	0x00	0
34	0xf2	-14
35	0xff	-1
36	0xea	-22
37	0x15	21
38	0x6d	109
39	0xe1	-31
40	0x18	24
41	0x22	34
42	0xe3	-29
43	0x16	22
44	0xec	-20
45	0x80	-128
46	0x08	8
47	0x0f	15
48	0x44	68
49	0xca	-54
50	0x15	21
51	0x31	49
52	0xca	-54
53	0xf2	-14
54	0xec	-20
55	0xc6	-58
56	0x25	37
57	0x63	99
58	0xff	-1
59	0xf8	-8
60	0xe4	-28
61	0x08	8
62	0xe5	-27
63	0x2f	47
64	0x1a	26
65	0x0d	13
66	0xe9	-23
67	0x1a	26
68	0xed	-19
69	0x01	1
70	0xee	-18
71	0xfc	-4
72	0xec	-20
73	0x0f	15
74	0x25	37
75	0xe7	-25
76	0x0c	12
77	0x0e	14
78	0x09	9
79	0xf0	-16
80	0x01	1
81	0xd6	-42
82	0xf3	-13
83	0xfa	-6
84	0x2a	42
85	0xe7	-25
86	0xee	-18
87	0xf3	-13
88	0xe4	-28
89	0x03	3
90	0xdd	-35
91	0xe9	-23
92	0x20	32
93	0x0b	11
94	0xeb	-21
95	0xfe	-2
96	0xe4	-28
97	0xf6	-10
98	0xdd	-35
99	0xe7	-25
100	0x17	23
101	0x04	4
102	0xfe	-2
103	0x15	21
104	0xf3	-13
105	0xe5	-27
106	0xff	-1
107	0x0d	13
108	0xc6	-58
109	0x28	40
110	0xef	-17
111	0xc3	-61
112	0xda	-38
113	0xf7	-9
114	0x08	8
115	0x1f	31
116	0xf9	-7
117	0xbb	-69
118	0xaf	-81
119	0xf8	-8
120	0xc9	-55
121	0x28	40
122	0xcd	-51
123	0xdb	-37
124	0xde	-34
125	0x03	3
126	0xde	-34
127	0x11	17
128	0xe5	-27
129	0xf9	-7
130	0xc1	-63
131	0x23	35
132	0xf4	-12
133	0xef	-17
134	0xe4	-28
135	0xe5	-27
136	0x83	-125
137	0x2b	43
138	0xf3	-13
139	0x80	-128
140	0xd7	-41
141	0x49	73
142	0xe5	-27
143	0x3b	59
144	0xd5	-43
145	0x75	117
146	0x47	71
147	0xcf	-49
148	0x00	0
149	0x10	16
150	0xfa	-6
151	0x5d	93
152	0x03	3
153	0x95	-107
154	0x14	20
155	0x08	8
156	0x29	41
157	0x04	4
158	0xd8	-40
159	0xe4	-28
160	0xf5	-11
161	0xe6	-26
162	0x08	8
163	0x02	2
164	0x01	1
165	0x21	33
166	0xec	-20
167	0x1a	26
168	0x2d	45
169	0xf4	-12
170	0x10	16
171	0x04	4
172	0xb7	-73
173	0xfe	-2
174	0x4c	76
175	0xbe	-66
176	0x36	54
177	0x6d	109
178	0x24	36
179	0x1f	31
180	0xdf	-33
181	0xc6	-58
182	0xf3	-13
183	0xd7	-41
184	0x0e	14
185	0xdb	-37
186	0xec	-20
187	0x22	34
188	0xeb	-21
189	0xdb	-37
190	0xca	-54
191	0xe4	-28
192	0xf5	-11
193	0xc8	-56
194	0xd9	-39
195	0xcf	-49
196	0x10	16
197	0x15	21
198	0xf8	-8
199	0xf7	-9
200	0x01	1
201	0x1c	28
202	0xbe	-66
203	0xf3	-13
204	0x16	22
205	0xbe	-66
206	0x08	8
207	0x09	9
208	0xf0	-16
209	0x01	1
210	0xfd	-3
211	0xe1	-31
212	0x13	19
213	0x46	70
214	0xd0	-48
215	0xd8	-40
216	0x00	0
217	0xdb	-37
218	0xba	-70
219	0xe9	-23
220	0x01	1
221	0x02	2
222	0xc8	-56
223	0xcb	-53
224	0xd3	-45
225	0x0f	15
226	0x0a	10
227	0x22	34
228	0x1b	27
229	0xe6	-26
230	0x25	37
231	0xf4	-12
232	0x0b	11
233	0xf5	-11
234	0x11	17
235	0xcf	-49
236	0x27	39
237	0xed	-19
238	0xed	-19
239	0xee	-18
240	0xdb	-37
241	0x0f	15
242	0xd0	-48
243	0xf2	-14
244	0x0d	13
245	0xe7	-25
246	0xd3	-45
247	0x03	3
248	0xf6	-10
249	0xd2	-46
250	0xdc	-36
251	0x18	24
252	0x29	41
253	0xdd	-35
254	0xdb	-37
255	0x12	18

fuse_attr_112 i1 [40, 3, 3, 40]
0	0xf2	-14
1	0x21	33
2	0xf6	-10
3	0x1f	31
4	0xeb	-21
5	0x02	2
6	0xe3	-29
7	0xea	-22
8	0x04	4
9	0xff	-1
10	0xf5	-11
11	0xd9	-39
12	0x07	7
13	0x06	6
14	0x0d	13
15	0xea	-22
16	0xf5	-11
17	0xd9	-39
18	0x10	16
19	0xef	-17
20	0xf1	-15
21	0xfa	-6
22	0xd7	-41
23	0x16	22
24	0xe0	-32
25	0x03	3
26	0x20	32
27	0x14	20
28	0xf0	-16
29	0x1c	28
30	0x04	4
31	0x2e	46
32	0xe3	-29
33	0xd2	-46
34	0x23	35
35	0xfc	-4
36	0xe9	-23
37	0x0b	11
38	0xcc	-52
39	0xea	-22
40	0xee	-18
41	0x05	5
42	0x2f	47
43	0xfa	-6
44	0xe8	-24
45	0xfe	-2
46	0xb9	-71
47	0xf2	-14
48	0x24	36
49	0x02	2
50	0xff	-1
51	0x03	3
52	0x0d	13
53	0x0d	13
54	0x1a	26
55	0xea	-22
56	0xf1	-15
57	0xe5	-27
58	0x7f	127
59	0x05	5
60	0xed	-19
61	0xe7	-25
62	0xf1	-15
63	0x1d	29
64	0xee	-18
65	0xf4	-12
66	0x02	2
67	0xfc	-4
68	0xfc	-4
69	0xed	-19
70	0x24	36
71	0x00	0
72	0xe1	-31
73	0xce	-50
74	0x5d	93
75	0xf1	-15
76	0xd3	-45
77	0x28	40
78	0x22	34
79	0xd0	-48
80	0x0b	11
81	0x2c	44
82	0x09	9
83	0xfb	-5
84	0xd6	-42
85	0xe6	-26
86	0xb6	-74
87	0xfa	-6
88	0x09	9
89	0xf5	-11
90	0x03	3
91	0x29	41
92	0x10	16
93	0xf2	-14
94	0xf5	-11
95	0xf7	-9
96	0x04	4
97	0xfc	-4
98	0x46	70
99	0x03	3
100	0xdf	-33
101	0xec	-20
102	0xe9	-23
103	0xeb	-21
104	0x0b	11
105	0xe2	-30
106	0xf6	-10
107	0xf4	-12
108	0xec	-20
109	0x06	6
110	0x11	17
111	0xdc	-36
112	0xe2	-30
113	0xf1	-15
114	0x36	54
115	0xf1	-15
116	0xd7	-41
117	0xfc	-4
118	0x11	17
119	0xc9	-55
120	0x03	3
121	0x15	21
122	0xf8	-8
123	0x03	3
124	0x15	21
125	0xf0	-16
126	0x09	9
127	0xc3	-61
128	0x1e	30
129	0x06	6
130	0xeb	-21
131	0x34	52
132	0x04	4
133	0xed	-19
134	0xf2	-14
135	0xfa	-6
136	0xe4	-28
137	0xde	-34
138	0x28	40
139	0x06	6
140	0xe8	-24
141	0x0d	13
142	0xff	-1
143	0x11	17
144	0xdf	-33
145	0xf3	-13
146	0xe2	-30
147	0x0a	10
148	0x2a	42
149	0xe9	-23
150	0xee	-18
151	0xf6	-10
152	0xee	-18
153	0xee	-18
154	0xfe	-2
155	0x10	16
156	0x13	19
157	0x02	2
158	0xbd	-67
159	0xe5	-27
160	0xef	-17
161	0x1a	26
162	0x1f	31
163	0x1b	27
164	0x16	22
165	0xfa	-6
166	0x05	5
167	0xe5	-27
168	0xe1	-31
169	0x01	1
170	0xec	-20
171	0x18	24
172	0xfc	-4
173	0xed	-19
174	0x06	6
175	0xec	-20
176	0xf5	-11
177	0xf0	-16
178	0x28	40
179	0x05	5
180	0xe1	-31
181	0x09	9
182	0x0d	13
183	0xe8	-24
184	0xe9	-23
185	0x0b	11
186	0xfd	-3
187	0xff	-1
188	0x2e	46
189	0x01	1
190	0x0e	14
191	0xf6	-10
192	0xfb	-5
193	0x1e	30
194	0x25	37
195	0x0d	13
196	0x07	7
197	0xf3	-13
198	0xef	-17
199	0xf5	-11
200	0xe5	-27
201	0x03	3
202	0xdb	-37
203	0xfa	-6
204	0x10	16
205	0xc2	-62
206	0x02	2
207	0xdf	-33
208	0x0a	10
209	0x06	6
210	0x14	20
211	0x58	88
212	0xfe	-2
213	0xf6	-10
214	0xfd	-3
215	0xf7	-9
216	0xfd	-3
217	0x03	3
218	0x4b	75
219	0x01	1
220	0x06	6
221	0xf6	-10
222	0xfe	-2
223	0xe5	-27
224	0x0c	12
225	0xec	-20
226	0xfa	-6
227	0xda	-38
228	0x19	25
229	0xf7	-9
230	0xec	-20
231	0xb1	-79
232	0x01	1
233	0x16	22
234	0x14	20
235	0xf9	-7
236	0x07	7
237	0x0d	13
238	0x24	36
239	0xd8	-40
240	0xfd	-3
241	0x01	1
242	0xe7	-25
243	0xf3	-13
244	0x04	4
245	0xfe	-2
246	0x0b	11
247	0xd7	-41
248	0xf1	-15
249	0xe5	-27
250	0xd5	-43
251	0xf0	-16
252	0x0b	11
253	0x07	7
254	0xff	-1
255	0xfb	-5

fuse_attr_139 i1 [40, 1, 1, 80]
0	0xe0	-32
1	0xc0	-64
2	0x44	68
3	0x74	116
4	0x1f	31
5	0x62	98
6	0x20	32
7	0x28	40
8	0x03	3
9	0xff	-1
10	0x02	2
11	0xd7	-41
12	0xe9	-23
13	0xeb	-21
14	0x28	40
15	0x35	53
16	0x26	38
17	0x0f	15
18	0xfe	-2
19	0x5e	94
20	0x25	37
21	0x20	32
22	0x09	9
23	0x01	1
24	0x1a	26
25	0xfa	-6
26	0xf9	-7
27	0xe2	-30
28	0xee	-18
29	0xd8	-40
30	0x07	7
31	0x56	86
32	0x2e	46
33	0xf7	-9
34	0xf4	-12
35	0x18	24
36	0x2a	42
37	0x7f	127
38	0x15	21
39	0xc8	-56
40	0x02	2
41	0xf5	-11
42	0xe5	-27
43	0x1a	26
44	0x3c	60
45	0xf3	-13
46	0x24	36
47	0xf6	-10
48	0xea	-22
49	0xd0	-48
50	0x09	9
51	0x3c	60
52	0xed	-19
53	0xd3	-45
54	0xf6	-10
55	0x2f	47
56	0xc2	-62
57	0xf8	-8
58	0xde	-34
59	0x2d	45
60	0xc4	-60
61	0xf9	-7
62	0xfa	-6
63	0x9f	-97
64	0xf1	-15
65	0xee	-18
66	0x18	24
67	0xf1	-15
68	0x20	32
69	0x34	52
70	0xe0	-32
71	0x0d	13
72	0x1f	31
73	0xe1	-31
74	0xdc	-36
75	0x2f	47
76	0x21	33
77	0xf6	-10
78	0xe8	-24
79	0xee	-18
80	0x3d	61
81	0xe8	-24
82	0x03	3
83	0xdd	-35
84	0x1e	30
85	0x1a	26
86	0xef	-17
87	0xeb	-21
88	0x2a	42
89	0xc8	-56
90	0xf1	-15
91	0x18	24
92	0xea	-22
93	0xc6	-58
94	0xf9	-7
95	0x31	49
96	0xe8	-24
97	0x04	4
98	0xdf	-33
99	0xf1	-15
100	0x14	20
101	0x28	40
102	0xeb	-21
103	0x01	1
104	0x0f	15
105	0x00	0
106	0xe7	-25
107	0x11	17
108	0x1a	26
109	0xef	-17
110	0x0d	13
111	0xd8	-40
112	0x1a	26
113	0xf4	-12
114	0xf8	-8
115	0x0b	11
116	0xe9	-23
117	0xea	-22
118	0xf0	-16
119	0xe8	-24
120	0x1e	30
121	0xf1	-15
122	0x5e	94
123	0xeb	-21
124	0x0d	13
125	0x02	2
126	0x9b	-101
127	0xf1	-15
128	0x0a	10
129	0x17	23
130	0x1c	28
131	0xbd	-67
132	0x11	17
133	0xf8	-8
134	0xe2	-30
135	0x37	55
136	0x07	7
137	0xcc	-52
138	0xc6	-58
139	0xe8	-24
140	0x22	34
141	0x16	22
142	0xe7	-25
143	0x20	32
144	0xf2	-14
145	0xd1	-47
146	0xdb	-37
147	0x1a	26
148	0x03	3
149	0x2c	44
150	0x7f	127
151	0xbd	-67
152	0xb9	-71
153	0x48	72
154	0xf9	-7
155	0xf2	-14
156	0xc3	-61
157	0xd9	-39
158	0xd3	-45
159	0x07	7
160	0xa9	-87
161	0x4b	75
162	0xe7	-25
163	0xb5	-75
164	0x19	25
165	0xea	-22
166	0x11	17
167	0x19	25
168	0xf4	-12
169	0x25	37
170	0xd8	-40
171	0xbb	-69
172	0x01	1
173	0xc5	-59
174	0xe9	-23
175	0x18	24
176	0x31	49
177	0xdb	-37
178	0xfe	-2
179	0x80	-128
180	0xff	-1
181	0x20	32
182	0x26	38
183	0xa7	-89
184	0xf0	-16
185	0x13	19
186	0xc5	-59
187	0x00	0
188	0x1f	31
189	0xfa	-6
190	0x37	55
191	0x17	23
192	0x21	33
193	0xca	-54
194	0x1d	29
195	0x00	0
196	0x02	2
197	0xcf	-49
198	0x03	3
199	0x1f	31
200	0x05	5
201	0xf5	-11
202	0x19	25
203	0x0b	11
204	0xe5	-27
205	0xce	-50
206	0xd2	-46
207	0x0c	12
208	0x20	32
209	0xfe	-2
210	0x3d	61
211	0xfb	-5
212	0x0f	15
213	0xf8	-8
214	0x23	35
215	0xd4	-44
216	0x27	39
217	0x1b	27
218	0x0e	14
219	0x11	17
220	0xef	-17
221	0x15	21
222	0x18	24
223	0x55	85
224	0x19	25
225	0x33	51
226	0xe2	-30
227	0x01	1
228	0x2b	43
229	0xcb	-53
230	0xe9	-23
231	0xff	-1
232	0xd2	-46
233	0x06	6
234	0xfe	-2
235	0xee	-18
236	0xbe	-66
237	0xec	-20
238	0x1d	29
239	0x3d	61
240	0x15	21
241	0xf6	-10
242	0xec	-20
243	0xef	-17
244	0xcb	-53
245	0xf3	-13
246	0x0c	12
247	0x0c	12
248	0x15	21
249	0x31	49
250	0xff	-1
251	0xee	-18
252	0xe6	-26
253	0xee	-18
254	0xb2	-78
255	0x19	25

fuse_attr_117 i1 [80, 1, 1, 80]
0	0x4b	75
1	0xb0	-80
2	0xd9	-39
3	0x0d	13
4	0x0d	13
5	0x1c	28
6	0xc7	-57
7	0x9c	-100
8	0xf6	-10
9	0xb8	-72
10	0xf1	-15
11	0x0c	12
12	0x0b	11
13	0x58	88
14	0xdc	-36
15	0xd5	-43
16	0x80	-128
17	0x21	33
18	0xee	-18
19	0x94	-108
20	0xf1	-15
21	0xff	-1
22	0xf9	-7
23	0x4f	79
24	0x1c	28
25	0x2e	46
26	0x1c	28
27	0x0a	10
28	0xb4	-76
29	0xdf	-33
30	0xcc	-52
31	0x57	87
32	0xd2	-46
33	0xc9	-55
34	0xc0	-64
35	0xec	-20
36	0xcd	-51
37	0xfb	-5
38	0x2a	42
39	0x15	21
40	0x0e	14
41	0x32	50
42	0x2e	46
43	0x2c	44
44	0x06	6
45	0xeb	-21
46	0x10	16
47	0x0b	11
48	0xeb	-21
49	0x22	34
50	0xf7	-9
51	0x10	16
52	0x3b	59
53	0xeb	-21
54	0xe4	-28
55	0x2b	43
56	0xfb	-5
57	0xf6	-10
58	0xe8	-24
59	0x33	51
60	0x34	52
61	0xd4	-44
62	0xe1	-31
63	0x41	65
64	0x08	8
65	0x05	5
66	0x02	2
67	0x00	0
68	0x07	7
69	0xde	-34
70	0x0f	15
71	0x20	32
72	0xe1	-31
73	0x32	50
74	0x01	1
75	0x2a	42
76	0x47	71
77	0xfb	-5
78	0xe7	-25
79	0xf6	-10
80	0xe4	-28
81	0x11	17
82	0xce	-50
83	0xd3	-45
84	0xe1	-31
85	0xfa	-6
86	0xf5	-11
87	0x1c	28
88	0x0a	10
89	0x27	39
90	0x72	114
91	0xca	-54
92	0x2d	45
93	0xea	-22
94	0x05	5
95	0x44	68
96	0x23	35
97	0x5d	93
98	0xcb	-53
99	0xd6	-42
100	0xa7	-89
101	0xc9	-55
102	0xe9	-23
103	0x80	-128
104	0x2a	42
105	0x0b	11
106	0xff	-1
107	0x60	96
108	0xdc	-36
109	0x3d	61
110	0xdb	-37
111	0xbb	-69
112	0xca	-54
113	0x1b	27
114	0xd0	-48
115	0x18	24
116	0x64	100
117	0xba	-70
118	0xa3	-93
119	0xfe	-2
120	0x0b	11
121	0xdf	-33
122	0xec	-20
123	0xe4	-28
124	0xe6	-26
125	0xae	-82
126	0xfe	-2
127	0x05	5
128	0x15	21
129	0xce	-50
130	0xd5	-43
131	0x00	0
132	0x2a	42
133	0xdf	-33
134	0x30	48
135	0xf2	-14
136	0x1a	26
137	0xf3	-13
138	0x02	2
139	0xfa	-6
140	0x20	32
141	0x10	16
142	0xfa	-6
143	0xf3	-13
144	0xfc	-4
145	0xf3	-13
146	0x23	35
147	0x23	35
148	0x17	23
149	0x10	16
150	0xed	-19
151	0xe2	-30
152	0x03	3
153	0x0a	10
154	0x1b	27
155	0x44	68
156	0x30	48
157	0xc8	-56
158	0xa2	-94
159	0x15	21
160	0xd5	-43
161	0xa5	-91
162	0xc5	-59
163	0xe9	-23
164	0xdb	-37
165	0xcb	-53
166	0x04	4
167	0xe1	-31
168	0xde	-34
169	0xff	-1
170	0x09	9
171	0xf0	-16
172	0x23	35
173	0x07	7
174	0xb7	-73
175	0x17	23
176	0xf3	-13
177	0x39	57
178	0xe0	-32
179	0x37	55
180	0x2e	46
181	0xdd	-35
182	0xc0	-64
183	0xe2	-30
184	0xda	-38
185	0xe1	-31
186	0xa8	-88
187	0xf9	-7
188	0xd4	-44
189	0x3a	58
190	0xe4	-28
191	0x48	72
192	0xee	-18
193	0xd8	-40
194	0x07	7
195	0x0c	12
196	0xe2	-30
197	0x3d	61
198	0x2a	42
199	0xbc	-68
200	0x12	18
201	0x02	2
202	0xea	-22
203	0xc6	-58
204	0x45	69
205	0x14	20
206	0xeb	-21
207	0x0d	13
208	0x09	9
209	0x1f	31
210	0xf7	-9
211	0x0a	10
212	0x02	2
213	0x7f	127
214	0xe8	-24
215	0x15	21
216	0x1e	30
217	0x4d	77
218	0xd3	-45
219	0x00	0
220	0xee	-18
221	0xf1	-15
222	0x03	3
223	0xf9	-7
224	0xee	-18
225	0xe8	-24
226	0xfb	-5
227	0xdd	-35
228	0x2c	44
229	0xdd	-35
230	0x08	8
231	0x08	8
232	0xde	-34
233	0xf2	-14
234	0xe8	-24
235	0x30	48
236	0x32	50
237	0xfb	-5
238	0xec	-20
239	0xf4	-12
240	0xc5	-59
241	0xf2	-14
242	0x6d	109
243	0xb6	-74
244	0xf1	-15
245	0x12	18
246	0xd7	-41
247	0xde	-34
248	0x0b	11
249	0x0b	11
250	0xbf	-65
251	0xd9	-39
252	0x9e	-98
253	0x13	19
254	0xfc	-4
255	0x5d	93

1663 i1 [1, 3, 36, 2] scale=2.9359198 zero_point=-128
0	0xa8	117.43679
1	0x9f	91.01351
2	0xa8	117.43679
3	0x9f	91.01351
4	0xa8	117.43679
5	0x9f	91.01351
6	0xa8	117.43679
7	0x9f	91.01351
8	0xa8	117.43679
9	0x9f	91.01351
10	0xa8	117.43679
11	0x9f	91.01351
12	0xa8	117.43679
13	0x9f	91.01351
14	0xa8	117.43679
15	0x9f	91.01351
16	0xa8	117.43679
17	0x9f	91.01351
18	0xa8	117.43679
19	0x9f	91.01351
20	0xa8	117.43679
21	0x9f	91.01351
22	0xa8	117.43679
23	0x9f	91.01351
24	0xa8	117.43679
25	0x9f	91.01351
26	0xa8	117.43679
27	0x9f	91.01351
28	0xa8	117.43679
29	0x9f	91.01351
30	0xa8	117.43679
31	0x9f	91.01351
32	0xa8	117.43679
33	0x9f	91.01351
34	0xa8	117.43679
35	0x9f	91.01351
36	0xa8	117.43679
37	0x9f	91.01351
38	0xa8	117.43679
39	0x9f	91.01351
40	0xa8	117.43679
41	0x9f	91.01351
42	0xa8	117.43679
43	0x9f	91.01351
44	0xa8	117.43679
45	0x9f	91.01351
46	0xa8	117.43679
47	0x9f	91.01351
48	0xa8	117.43679
49	0x9f	91.01351
50	0xa8	117.43679
51	0x9f	91.01351
52	0xa8	117.43679
53	0x9f	91.01351
54	0xa8	117.43679
55	0x9f	91.01351
56	0xa8	117.43679
57	0x9f	91.01351
58	0xa8	117.43679
59	0x9f	91.01351
60	0xa8	117.43679
61	0x9f	91.01351
62	0xa8	117.43679
63	0x9f	91.01351
64	0xa8	117.43679
65	0x9f	91.01351
66	0xa8	117.43679
67	0x9f	91.01351
68	0xa8	117.43679
69	0x9f	91.01351
70	0xa8	117.43679
71	0x9f	91.01351
72	0xb5	155.60374
73	0xc3	196.70662
74	0xb5	155.60374
75	0xc3	196.70662
76	0xb5	155.60374
77	0xc3	196.70662
78	0xb5	155.60374
79	0xc3	196.70662
80	0xb5	155.60374
81	0xc3	196.70662
82	0xb5	155.60374
83	0xc3	196.70662
84	0xb5	155.60374
85	0xc3	196.70662
86	0xb5	155.60374
87	0xc3	196.70662
88	0xb5	155.60374
89	0xc3	196.70662
90	0xb5	155.60374
91	0xc3	196.70662
92	0xb5	155.60374
93	0xc3	196.70662
94	0xb5	155.60374
95	0xc3	196.70662
96	0xb5	155.60374
97	0xc3	196.70662
98	0xb5	155.60374
99	0xc3	196.70662
100	0xb5	155.60374
101	0xc3	196.70662
102	0xb5	155.60374
103	0xc3	196.70662
104	0xb5	155.60374
105	0xc3	196.70662
106	0xb5	155.60374
107	0xc3	196.70662
108	0xb5	155.60374
109	0xc3	196.70662
110	0xb5	155.60374
111	0xc3	196.70662
112	0xb5	155.60374
113	0xc3	196.70662
114	0xb5	155.60374
115	0xc3	196.70662
116	0xb5	155.60374
117	0xc3	196.70662
118	0xb5	155.60374
119	0xc3	196.70662
120	0xb5	155.60374
121	0xc3	196.70662
122	0xb5	155.60374
123	0xc3	196.70662
124	0xb5	155.60374
125	0xc3	196.70662
126	0xb5	155.60374
127	0xc3	196.70662
128	0xb5	155.60374
129	0xc3	196.70662
130	0xb5	155.60374
131	0xc3	196.70662
132	0xb5	155.60374
133	0xc3	196.70662
134	0xb5	155.60374
135	0xc3	196.70662
136	0xb5	155.60374
137	0xc3	196.70662
138	0xb5	155.60374
139	0xc3	196.70662
140	0xb5	155.60374
141	0xc3	196.70662
142	0xb5	155.60374
143	0xc3	196.70662
144	0xff	372.86182
145	0xef	325.8871
146	0xff	372.86182
147	0xef	325.8871
148	0xff	372.86182
149	0xef	325.8871
150	0xff	372.86182
151	0xef	325.8871
152	0xff	372.86182
153	0xef	325.8871
154	0xff	372.86182
155	0xef	325.8871
156	0xff	372.86182
157	0xef	325.8871
158	0xff	372.86182
159	0xef	325.8871
160	0xff	372.86182
161	0xef	325.8871
162	0xff	372.86182
163	0xef	325.8871
164	0xff	372.86182
165	0xef	325.8871
166	0xff	372.86182
167	0xef	325.8871
168	0xff	372.86182
169	0xef	325.8871
170	0xff	372.86182
171	0xef	325.8871
172	0xff	372.86182
173	0xef	325.8871
174	0xff	372.86182
175	0xef	325.8871
176	0xff	372.86182
177	0xef	325.8871
178	0xff	372.86182
179	0xef	325.8871
180	0xff	372.86182
181	0xef	325.8871
182	0xff	372.86182
183	0xef	325.8871
184	0xff	372.86182
185	0xef	325.8871
186	0xff	372.86182
187	0xef	325.8871
188	0xff	372.86182
189	0xef	325.8871
190	0xff	372.86182
191	0xef	325.8871
192	0xff	372.86182
193	0xef	325.8871
194	0xff	372.86182
195	0xef	325.8871
196	0xff	372.86182
197	0xef	325.8871
198	0xff	372.86182
199	0xef	325.8871
200	0xff	372.86182
201	0xef	325.8871
202	0xff	372.86182
203	0xef	325.8871
204	0xff	372.86182
205	0xef	325.8871
206	0xff	372.86182
207	0xef	325.8871
208	0xff	372.86182
209	0xef	325.8871
210	0xff	372.86182
211	0xef	325.8871
212	0xff	372.86182
213	0xef	325.8871
214	0xff	372.86182
215	0xef	325.8871

fuse_attr_121 i1 [80, 1, 1, 80]
0	0xf6	-10
1	0xf0	-16
2	0xf8	-8
3	0xe9	-23
4	0xd0	-48
5	0x1c	28
6	0x21	33
7	0x06	6
8	0xd5	-43
9	0xe1	-31
10	0xbd	-67
11	0xcc	-52
12	0x66	102
13	0xdd	-35
14	0xe4	-28
15	0xba	-70
16	0xf7	-9
17	0x11	17
18	0xcb	-53
19	0xe7	-25
20	0xe5	-27
21	0xbd	-67
22	0xc9	-55
23	0xbe	-66
24	0xbe	-66
25	0xf7	-9
26	0x07	7
27	0x06	6
28	0xa9	-87
29	0x54	84
30	0xca	-54
31	0xf5	-11
32	0x70	112
33	0xe6	-26
34	0xdf	-33
35	0xe9	-23
36	0xc7	-57
37	0xd2	-46
38	0x00	0
39	0x35	53
40	0xdf	-33
41	0xe3	-29
42	0xd4	-44
43	0xab	-85
44	0x3e	62
45	0xb5	-75
46	0xd3	-45
47	0xda	-38
48	0x01	1
49	0xca	-54
50	0xf8	-8
51	0xdc	-36
52	0x1d	29
53	0x20	32
54	0xc0	-64
55	0xcf	-49
56	0x0d	13
57	0x45	69
58	0xf5	-11
59	0xcf	-49
60	0x17	23
61	0xd7	-41
62	0xe8	-24
63	0xdf	-33
64	0xb1	-79
65	0xb1	-79
66	0xcc	-52
67	0xaa	-86
68	0xb3	-77
69	0x3d	61
70	0xd0	-48
71	0xa6	-90
72	0x5d	93
73	0xf9	-7
74	0x80	-128
75	0xef	-17
76	0xce	-50
77	0xc9	-55
78	0xc5	-59
79	0xcf	-49
80	0x03	3
81	0xed	-19
82	0x2b	43
83	0xca	-54
84	0xe0	-32
85	0x4e	78
86	0xec	-20
87	0xbf	-65
88	0xfa	-6
89	0x61	97
90	0x91	-111
91	0xe5	-27
92	0x80	-128
93	0xc8	-56
94	0x41	65
95	0x21	33
96	0x00	0
97	0xe9	-23
98	0xc4	-60
99	0xef	-17
100	0x67	103
101	0xe9	-23
102	0xa9	-87
103	0xc5	-59
104	0xe9	-23
105	0x2e	46
106	0xeb	-21
107	0xe0	-32
108	0x01	1
109	0xcf	-49
110	0x3a	58
111	0xd3	-45
112	0x09	9
113	0xf8	-8
114	0xb3	-77
115	0x03	3
116	0x4e	78
117	0xfc	-4
118	0x11	17
119	0xc8	-56
120	0xcd	-51
121	0xfd	-3
122	0xd7	-41
123	0x17	23
124	0x25	37
125	0xc3	-61
126	0xe7	-25
127	0x5e	94
128	0xc8	-56
129	0xff	-1
130	0xee	-18
131	0x23	35
132	0xbf	-65
133	0xe8	-24
134	0xd6	-42
135	0x31	49
136	0xec	-20
137	0x1d	29
138	0xec	-20
139	0x3d	61
140	0xf9	-7
141	0x12	18
142	0xf5	-11
143	0x45	69
144	0x4d	77
145	0xdc	-36
146	0x5e	94
147	0x1b	27
148	0x3e	62
149	0xe2	-30
150	0x13	19
151	0x05	5
152	0xe3	-29
153	0x29	41
154	0x2b	43
155	0xd0	-48
156	0xfc	-4
157	0x2b	43
158	0xac	-84
159	0xce	-50
160	0xfc	-4
161	0x1c	28
162	0x7f	127
163	0xe1	-31
164	0xdc	-36
165	0xe8	-24
166	0xfc	-4
167	0xfd	-3
168	0xf2	-14
169	0xdb	-37
170	0xf9	-7
171	0x5b	91
172	0xca	-54
173	0x53	83
174	0xb5	-75
175	0xe4	-28
176	0xd5	-43
177	0xbe	-66
178	0x06	6
179	0xf8	-8
180	0xe2	-30
181	0x17	23
182	0xfd	-3
183	0x42	66
184	0x15	21
185	0xcf	-49
186	0xcd	-51
187	0x02	2
188	0xd8	-40
189	0xc7	-57
190	0xda	-38
191	0xf5	-11
192	0xd4	-44
193	0xf1	-15
194	0xf0	-16
195	0xc7	-57
196	0xdf	-33
197	0xcf	-49
198	0xe2	-30
199	0xdc	-36
200	0xd9	-39
201	0x71	113
202	0x20	32
203	0xef	-17
204	0xc7	-57
205	0xf9	-7
206	0xfe	-2
207	0x9f	-97
208	0xdb	-37
209	0x07	7
210	0xdc	-36
211	0xc4	-60
212	0xc6	-58
213	0xbe	-66
214	0xf7	-9
215	0xa0	-96
216	0xf7	-9
217	0xcd	-51
218	0xed	-19
219	0x01	1
220	0x3d	61
221	0xd3	-45
222	0xd8	-40
223	0xeb	-21
224	0x04	4
225	0xd0	-48
226	0xca	-54
227	0xfd	-3
228	0x20	32
229	0xfa	-6
230	0x12	18
231	0x1a	26
232	0xda	-38
233	0x3a	58
234	0x07	7
235	0xfa	-6
236	0xf9	-7
237	0x70	112
238	0xe6	-26
239	0x27	39
240	0x3c	60
241	0x04	4
242	0xba	-70
243	0xc3	-61
244	0x35	53
245	0xaf	-81
246	0xf6	-10
247	0xdc	-36
248	0x22	34
249	0xeb	-21
250	0xe6	-26
251	0xa8	-88
252	0x12	18
253	0xed	-19
254	0x24	36
255	0x2e	46

fuse_attr_131 i1 [80, 1, 1, 80]
0	0xaf	-81
1	0x1f	31
2	0x99	-103
3	0xd5	-43
4	0xc6	-58
5	0xee	-18
6	0xbe	-66
7	0xa1	-95
8	0x04	4
9	0xb6	-74
10	0xc9	-55
11	0x3b	59
12	0xde	-34
13	0x15	21
14	0x3d	61
15	0xe2	-30
16	0xe5	-27
17	0xbb	-69
18	0xdc	-36
19	0xe9	-23
20	0xb8	-72
21	0x36	54
22	0xdc	-36
23	0x07	7
24	0xe1	-31
25	0x0a	10
26	0x1b	27
27	0xd9	-39
28	0x88	-120
29	0xf8	-8
30	0xdc	-36
31	0xc3	-61
32	0xd3	-45
33	0x36	54
34	0xc0	-64
35	0xe3	-29
36	0x47	71
37	0x2f	47
38	0x17	23
39	0x4c	76
40	0x30	48
41	0xc1	-63
42	0xd0	-48
43	0x0b	11
44	0xea	-22
45	0xbd	-67
46	0x00	0
47	0xec	-20
48	0xf9	-7
49	0xd3	-45
50	0x18	24
51	0xd6	-42
52	0x91	-111
53	0xff	-1
54	0x04	4
55	0x1c	28
56	0x0d	13
57	0xf3	-13
58	0xf0	-16
59	0x00	0
60	0xf0	-16
61	0x3e	62
62	0x02	2
63	0xf8	-8
64	0x17	23
65	0xf8	-8
66	0x12	18
67	0xe9	-23
68	0xfa	-6
69	0x00	0
70	0xeb	-21
71	0x0a	10
72	0xe1	-31
73	0x16	22
74	0xc3	-61
75	0xe9	-23
76	0xf8	-8
77	0x0b	11
78	0xf1	-15
79	0x7f	127
80	0xf0	-16
81	0x25	37
82	0x05	5
83	0x17	23
84	0xcf	-49
85	0xd2	-46
86	0xbe	-66
87	0xfb	-5
88	0xee	-18
89	0x80	-128
90	0xf0	-16
91	0xbe	-66
92	0xfe	-2
93	0xac	-84
94	0xf8	-8
95	0xf1	-15
96	0x33	51
97	0x28	40
98	0x08	8
99	0xc1	-63
100	0xdc	-36
101	0xe5	-27
102	0xd9	-39
103	0xf4	-12
104	0x18	24
105	0xd1	-47
106	0xfe	-2
107	0x1d	29
108	0xe7	-25
109	0x30	48
110	0xda	-38
111	0x04	4
112	0xf7	-9
113	0xe7	-25
114	0xe1	-31
115	0xf5	-11
116	0x5f	95
117	0xec	-20
118	0xe6	-26
119	0xee	-18
120	0x0c	12
121	0xe7	-25
122	0x14	20
123	0x10	16
124	0x20	32
125	0xac	-84
126	0xfd	-3
127	0x11	17
128	0xcb	-53
129	0xe7	-25
130	0xdd	-35
131	0xd7	-41
132	0x17	23
133	0x01	1
134	0xf7	-9
135	0xe3	-29
136	0x50	80
137	0xed	-19
138	0xf6	-10
139	0x16	22
140	0xf4	-12
141	0x23	35
142	0x19	25
143	0x03	3
144	0xee	-18
145	0xee	-18
146	0x0a	10
147	0x0e	14
148	0xf8	-8
149	0xe5	-27
150	0xdf	-33
151	0x49	73
152	0x23	35
153	0xd1	-47
154	0xd9	-39
155	0x9b	-101
156	0x00	0
157	0x1b	27
158	0xfa	-6
159	0x14	20
160	0xc7	-57
161	0xe2	-30
162	0xd3	-45
163	0xa5	-91
164	0x51	81
165	0x12	18
166	0x1e	30
167	0xb2	-78
168	0x1c	28
169	0x25	37
170	0xa5	-91
171	0xee	-18
172	0x5b	91
173	0xf7	-9
174	0xc1	-63
175	0x03	3
176	0xf4	-12
177	0x06	6
178	0xc0	-64
179	0x33	51
180	0x33	51
181	0x80	-128
182	0x28	40
183	0x12	18
184	0xcd	-51
185	0xef	-17
186	0x5d	93
187	0x23	35
188	0x27	39
189	0xd3	-45
190	0x3a	58
191	0xda	-38
192	0x25	37
193	0x08	8
194	0xfd	-3
195	0xb2	-78
196	0xdf	-33
197	0x1f	31
198	0xe7	-25
199	0xc5	-59
200	0xff	-1
201	0x4c	76
202	0xbb	-69
203	0x00	0
204	0xd8	-40
205	0x08	8
206	0xf2	-14
207	0x2d	45
208	0x2f	47
209	0x45	69
210	0xfe	-2
211	0x24	36
212	0x01	1
213	0xce	-50
214	0x3b	59
215	0xc8	-56
216	0x10	16
217	0x15	21
218	0x3c	60
219	0x1c	28
220	0x92	-110
221	0x99	-103
222	0xfa	-6
223	0xff	-1
224	0x37	55
225	0xf9	-7
226	0xc8	-56
227	0x04	4
228	0xbc	-68
229	0x07	7
230	0xe6	-26
231	0xd5	-43
232	0xbb	-69
233	0x07	7
234	0x31	49
235	0x0e	14
236	0x3f	63
237	0x17	23
238	0x0f	15
239	0xfb	-5
240	0x01	1
241	0x7f	127
242	0xe5	-27
243	0x05	5
244	0x0b	11
245	0xe5	-27
246	0xdd	-35
247	0xdb	-37
248	0xe6	-26
249	0xdb	-37
250	0xe3	-29
251	0x04	4
252	0xfb	-5
253	0xf7	-9
254	0x11	17
255	0xde	-34

1351 i1 [1, 3, 576, 2] scale=0.21249461 zero_point=-128
0	0x80	0.0
1	0x80	0.0
2	0x85	1.062473
3	0x80	0.0
4	0x89	1.9124515
5	0x80	0.0
6	0x8e	2.9749246
7	0x80	0.0
8	0x93	4.0373974
9	0x80	0.0
10	0x98	5.0998707
11	0x80	0.0
12	0x9c	5.949849
13	0x80	0.0
14	0xa1	7.0123224
15	0x80	0.0
16	0xa6	8.074795
17	0x80	0.0
18	0xaa	8.924774
19	0x80	0.0
20	0xaf	9.9872465
21	0x80	0.0
22	0xb4	11.04972
23	0x80	0.0
24	0xb8	11.899698
25	0x80	0.0
26	0xbd	12.962172
27	0x80	0.0
28	0xc2	14.024645
29	0x80	0.0
30	0xc7	15.087117
31	0x80	0.0
32	0xcb	15.937096
33	0x80	0.0
34	0xd0	16.999569
35	0x80	0.0
36	0xd5	18.062042
37	0x80	0.0
38	0xd9	18.91202
39	0x80	0.0
40	0xde	19.974493
41	0x80	0.0
42	0xe3	21.036966
43	0x80	0.0
44	0xe8	22.09944
45	0x80	0.0
46	0xec	22.949417
47	0x80	0.0
48	0x80	0.0
49	0x85	1.062473
50	0x85	1.062473
51	0x85	1.062473
52	0x89	1.9124515
53	0x85	1.062473
54	0x8e	2.9749246
55	0x85	1.062473
56	0x93	4.0373974
57	0x85	1.062473
58	0x98	5.0998707
59	0x85	1.062473
60	0x9c	5.949849
61	0x85	1.062473
62	0xa1	7.0123224
63	0x85	1.062473
64	0xa6	8.074795
65	0x85	1.062473
66	0xaa	8.924774
67	0x85	1.062473
68	0xaf	9.9872465
69	0x85	1.062473
70	0xb4	11.04972
71	0x85	1.062473
72	0xb8	11.899698
73	0x85	1.062473
74	0xbd	12.962172
75	0x85	1.062473
76	0xc2	14.024645
77	0x85	1.062473
78	0xc7	15.087117
79	0x85	1.062473
80	0xcb	15.937096
81	0x85	1.062473
82	0xd0	16.999569
83	0x85	1.062473
84	0xd5	18.062042
85	0x85	1.062473
86	0xd9	18.91202
87	0x85	1.062473
88	0xde	19.974493
89	0x85	1.062473
90	0xe3	21.036966
91	0x85	1.062473
92	0xe8	22.09944
93	0x85	1.062473
94	0xec	22.949417
95	0x85	1.062473
96	0x80	0.0
97	0x89	1.9124515
98	0x85	1.062473
99	0x89	1.9124515
100	0x89	1.9124515
101	0x89	1.9124515
102	0x8e	2.9749246
103	0x89	1.9124515
104	0x93	4.0373974
105	0x89	1.9124515
106	0x98	5.0998707
107	0x89	1.9124515
108	0x9c	5.949849
109	0x89	1.9124515
110	0xa1	7.0123224
111	0x89	1.9124515
112	0xa6	8.074795
113	0x89	1.9124515
114	0xaa	8.924774
115	0x89	1.9124515
116	0xaf	9.9872465
117	0x89	1.9124515
118	0xb4	11.04972
119	0x89	1.9124515
120	0xb8	11.899698
121	0x89	1.9124515
122	0xbd	12.962172
123	0x89	1.9124515
124	0xc2	14.024645
125	0x89	1.9124515
126	0xc7	15.087117
127	0x89	1.9124515
128	0xcb	15.937096
129	0x89	1.9124515
130	0xd0	16.999569
131	0x89	1.9124515
132	0xd5	18.062042
133	0x89	1.9124515
134	0xd9	18.91202
135	0x89	1.9124515
136	0xde	19.974493
137	0x89	1.9124515
138	0xe3	21.036966
139	0x89	1.9124515
140	0xe8	22.09944
141	0x89	1.9124515
142	0xec	22.949417
143	0x89	1.9124515
144	0x80	0.0
145	0x8e	2.9749246
146	0x85	1.062473
147	0x8e	2.9749246
148	0x89	1.9124515
149	0x8e	2.9749246
150	0x8e	2.9749246
151	0x8e	2.9749246
152	0x93	4.0373974
153	0x8e	2.9749246
154	0x98	5.0998707
155	0x8e	2.9749246
156	0x9c	5.949849
157	0x8e	2.9749246
158	0xa1	7.0123224
159	0x8e	2.9749246
160	0xa6	8.074795
161	0x8e	2.9749246
162	0xaa	8.924774
163	0x8e	2.9749246
164	0xaf	9.9872465
165	0x8e	2.9749246
166	0xb4	11.04972
167	0x8e	2.9749246
168	0xb8	11.899698
169	0x8e	2.9749246
170	0xbd	12.962172
171	0x8e	2.9749246
172	0xc2	14.024645
173	0x8e	2.9749246
174	0xc7	15.087117
175	0x8e	2.9749246
176	0xcb	15.937096
177	0x8e	2.9749246
178	0xd0	16.999569
179	0x8e	2.9749246
180	0xd5	18.062042
181	0x8e	2.9749246
182	0xd9	18.91202
183	0x8e	2.9749246
184	0xde	19.974493
185	0x8e	2.9749246
186	0xe3	21.036966
187	0x8e	2.9749246
188	0xe8	22.09944
189	0x8e	2.9749246
190	0xec	22.949417
191	0x8e	2.9749246
192	0x80	0.0
193	0x93	4.0373974
194	0x85	1.062473
195	0x93	4.0373974
196	0x89	1.9124515
197	0x93	4.0373974
198	0x8e	2.9749246
199	0x93	4.0373974
200	0x93	4.0373974
201	0x93	4.0373974
202	0x98	5.0998707
203	0x93	4.0373974
204	0x9c	5.949849
205	0x93	4.0373974
206	0xa1	7.0123224
207	0x93	4.0373974
208	0xa6	8.074795
209	0x93	4.0373974
210	0xaa	8.924774
211	0x93	4.0373974
212	0xaf	9.9872465
213	0x93	4.0373974
214	0xb4	11.04972
215	0x93	4.0373974
216	0xb8	11.899698
217	0x93	4.0373974
218	0xbd	12.962172
219	0x93	4.0373974
220	0xc2	14.024645
221	0x93	4.0373974
222	0xc7	15.087117
223	0x93	4.0373974
224	0xcb	15.937096
225	0x93	4.0373974
226	0xd0	16.999569
227	0x93	4.0373974
228	0xd5	18.062042
229	0x93	4.0373974
230	0xd9	18.91202
231	0x93	4.0373974
232	0xde	19.974493
233	0x93	4.0373974
234	0xe3	21.036966
235	0x93	4.0373974
236	0xe8	22.09944
237	0x93	4.0373974
238	0xec	22.949417
239	0x93	4.0373974
240	0x80	0.0
241	0x98	5.0998707
242	0x85	1.062473
243	0x98	5.0998707
244	0x89	1.9124515
245	0x98	5.0998707
246	0x8e	2.9749246
247	0x98	5.0998707
248	0x93	4.0373974
249	0x98	5.0998707
250	0x98	5.0998707
251	0x98	5.0998707
252	0x9c	5.949849
253	0x98	5.0998707
254	0xa1	7.0123224
255	0x98	5.0998707

fuse_attr_111 i1 [40, 1, 1, 40]
0	0xdf	-33
1	0x4c	76
2	0x7f	127
3	0x0e	14
4	0xe3	-29
5	0xf0	-16
6	0xf0	-16
7	0xc8	-56
8	0x38	56
9	0xdc	-36
10	0x4c	76
11	0xbd	-67
12	0xfc	-4
13	0xf4	-12
14	0xfa	-6
15	0x02	2
16	0xec	-20
17	0xf4	-12
18	0xd6	-42
19	0xf9	-7
20	0xf4	-12
21	0xcf	-49
22	0xff	-1
23	0xd7	-41
24	0xf8	-8
25	0xf1	-15
26	0x03	3
27	0xfc	-4
28	0xf9	-7
29	0xed	-19
30	0xde	-34
31	0xf5	-11
32	0xcd	-51
33	0xbb	-69
34	0x33	51
35	0xd5	-43
36	0x31	49
37	0xd1	-47
38	0x2d	45
39	0xee	-18
40	0xe8	-24
41	0x16	22
42	0x4f	79
43	0xd2	-46
44	0xf1	-15
45	0xc4	-60
46	0xc1	-63
47	0xd0	-48
48	0xba	-70
49	0x5f	95
50	0xd3	-45
51	0x49	73
52	0x0d	13
53	0x2d	45
54	0xac	-84
55	0x85	-123
56	0xe7	-25
57	0x01	1
58	0xdd	-35
59	0xf6	-10
60	0xa3	-93
61	0xe3	-29
62	0xf4	-12
63	0xb3	-77
64	0xc5	-59
65	0xf9	-7
66	0xe3	-29
67	0x19	25
68	0x2f	47
69	0xb5	-75
70	0xda	-38
71	0xc6	-58
72	0xb9	-71
73	0xca	-54
74	0xfc	-4
75	0x81	-127
76	0xc9	-55
77	0x96	-106
78	0x62	98
79	0xc9	-55
80	0x39	57
81	0xcc	-52
82	0xaa	-86
83	0xfa	-6
84	0x5f	95
85	0x5e	94
86	0xf9	-7
87	0xdd	-35
88	0x00	0
89	0xb8	-72
90	0x40	64
91	0xdb	-37
92	0x20	32
93	0x52	82
94	0xf9	-7
95	0x2d	45
96	0x0d	13
97	0x11	17
98	0x4e	78
99	0x22	34
100	0x4a	74
101	0x1a	26
102	0xff	-1
103	0xf8	-8
104	0x8e	-114
105	0xdd	-35
106	0xc3	-61
107	0xb3	-77
108	0xd0	-48
109	0x1c	28
110	0xe0	-32
111	0xc8	-56
112	0xf0	-16
113	0x80	-128
114	0x39	57
115	0x25	37
116	0x86	-122
117	0x04	4
118	0x09	9
119	0xae	-82
120	0x99	-103
121	0x51	81
122	0x14	20
123	0x22	34
124	0x52	82
125	0xce	-50
126	0xaa	-86
127	0xf0	-16
128	0xbf	-65
129	0x1b	27
130	0x03	3
131	0x33	51
132	0x23	35
133	0x77	119
134	0x49	73
135	0xbf	-65
136	0xe8	-24
137	0x80	-128
138	0x13	19
139	0x0d	13
140	0x12	18
141	0x17	23
142	0x07	7
143	0x14	20
144	0xbd	-67
145	0x00	0
146	0x58	88
147	0xc4	-60
148	0x41	65
149	0x9d	-99
150	0xa6	-90
151	0x8f	-113
152	0x9c	-100
153	0x1c	28
154	0xcd	-51
155	0xf0	-16
156	0xe7	-25
157	0x02	2
158	0x0d	13
159	0x93	-109
160	0xed	-19
161	0x80	-128
162	0x0d	13
163	0xf2	-14
164	0xd8	-40
165	0x01	1
166	0x03	3
167	0xf8	-8
168	0x3b	59
169	0x6e	110
170	0xd6	-42
171	0xca	-54
172	0xe7	-25
173	0xf2	-14
174	0xb9	-71
175	0x18	24
176	0x34	52
177	0x30	48
178	0xf4	-12
179	0xb5	-75
180	0xad	-83
181	0x24	36
182	0xfb	-5
183	0x49	73
184	0xe7	-25
185	0xf6	-10
186	0xc8	-56
187	0xf4	-12
188	0xeb	-21
189	0xe1	-31
190	0x06	6
191	0x24	36
192	0x2a	42
193	0xde	-34
194	0xac	-84
195	0xde	-34
196	0x5d	93
197	0xe4	-28
198	0xde	-34
199	0xed	-19
200	0xe9	-23
201	0xfc	-4
202	0xe9	-23
203	0xf5	-11
204	0x0e	14
205	0x7f	127
206	0xde	-34
207	0xb8	-72
208	0x2f	47
209	0xed	-19
210	0x38	56
211	0xd6	-42
212	0xd8	-40
213	0x01	1
214	0xae	-82
215	0xf0	-16
216	0xe6	-26
217	0x21	33
218	0xdb	-37
219	0xe2	-30
220	0x3e	62
221	0xbc	-68
222	0xf9	-7
223	0xfd	-3
224	0xbf	-65
225	0x05	5
226	0x10	16
227	0x07	7
228	0xea	-22
229	0x21	33
230	0xdb	-37
231	0xf2	-14
232	0xec	-20
233	0xab	-85
234	0xfd	-3
235	0xee	-18
236	0xc0	-64
237	0xe2	-30
238	0xf0	-16
239	0x01	1
240	0xe2	-30
241	0xe1	-31
242	0xb7	-73
243	0xe8	-24
244	0xe4	-28
245	0x09	9
246	0xe9	-23
247	0x03	3
248	0x15	21
249	0x2f	47
250	0xd8	-40
251	0xe7	-25
252	0xae	-82
253	0xf9	-7
254	0xb4	-76
255	0x1f	31

1367 i1 [1, 3, 576, 2] scale=0.062992126 zero_point=-128
0	0xff	8.0
1	0xff	8.0
2	0xff	8.0
3	0xff	8.0
4	0xff	8.0
5	0xff	8.0
6	0xff	8.0
7	0xff	8.0
8	0xff	8.0
9	0xff	8.0
10	0xff	8.0
11	0xff	8.0
12	0xff	8.0
13	0xff	8.0
14	0xff	8.0
15	0xff	8.0
16	0xff	8.0
17	0xff	8.0
18	0xff	8.0
19	0xff	8.0
20	0xff	8.0
21	0xff	8.0
22	0xff	8.0
23	0xff	8.0
24	0xff	8.0
25	0xff	8.0
26	0xff	8.0
27	0xff	8.0
28	0xff	8.0
29	0xff	8.0
30	0xff	8.0
31	0xff	8.0
32	0xff	8.0
33	0xff	8.0
34	0xff	8.0
35	0xff	8.0
36	0xff	8.0
37	0xff	8.0
38	0xff	8.0
39	0xff	8.0
40	0xff	8.0
41	0xff	8.0
42	0xff	8.0
43	0xff	8.0
44	0xff	8.0
45	0xff	8.0
46	0xff	8.0
47	0xff	8.0
48	0xff	8.0
49	0xff	8.0
50	0xff	8.0
51	0xff	8.0
52	0xff	8.0
53	0xff	8.0
54	0xff	8.0
55	0xff	8.0
56	0xff	8.0
57	0xff	8.0
58	0xff	8.0
59	0xff	8.0
60	0xff	8.0
61	0xff	8.0
62	0xff	8.0
63	0xff	8.0
64	0xff	8.0
65	0xff	8.0
66	0xff	8.0
67	0xff	8.0
68	0xff	8.0
69	0xff	8.0
70	0xff	8.0
71	0xff	8.0
72	0xff	8.0
73	0xff	8.0
74	0xff	8.0
75	0xff	8.0
76	0xff	8.0
77	0xff	8.0
78	0xff	8.0
79	0xff	8.0
80	0xff	8.0
81	0xff	8.0
82	0xff	8.0
83	0xff	8.0
84	0xff	8.0
85	0xff	8.0
86	0xff	8.0
87	0xff	8.0
88	0xff	8.0
89	0xff	8.0
90	0xff	8.0
91	0xff	8.0
92	0xff	8.0
93	0xff	8.0
94	0xff	8.0
95	0xff	8.0
96	0xff	8.0
97	0xff	8.0
98	0xff	8.0
99	0xff	8.0
100	0xff	8.0
101	0xff	8.0
102	0xff	8.0
103	0xff	8.0
104	0xff	8.0
105	0xff	8.0
106	0xff	8.0
107	0xff	8.0
108	0xff	8.0
109	0xff	8.0
110	0xff	8.0
111	0xff	8.0
112	0xff	8.0
113	0xff	8.0
114	0xff	8.0
115	0xff	8.0
116	0xff	8.0
117	0xff	8.0
118	0xff	8.0
119	0xff	8.0
120	0xff	8.0
121	0xff	8.0
122	0xff	8.0
123	0xff	8.0
124	0xff	8.0
125	0xff	8.0
126	0xff	8.0
127	0xff	8.0
128	0xff	8.0
129	0xff	8.0
130	0xff	8.0
131	0xff	8.0
132	0xff	8.0
133	0xff	8.0
134	0xff	8.0
135	0xff	8.0
136	0xff	8.0
137	0xff	8.0
138	0xff	8.0
139	0xff	8.0
140	0xff	8.0
141	0xff	8.0
142	0xff	8.0
143	0xff	8.0
144	0xff	8.0
145	0xff	8.0
146	0xff	8.0
147	0xff	8.0
148	0xff	8.0
149	0xff	8.0
150	0xff	8.0
151	0xff	8.0
152	0xff	8.0
153	0xff	8.0
154	0xff	8.0
155	0xff	8.0
156	0xff	8.0
157	0xff	8.0
158	0xff	8.0
159	0xff	8.0
160	0xff	8.0
161	0xff	8.0
162	0xff	8.0
163	0xff	8.0
164	0xff	8.0
165	0xff	8.0
166	0xff	8.0
167	0xff	8.0
168	0xff	8.0
169	0xff	8.0
170	0xff	8.0
171	0xff	8.0
172	0xff	8.0
173	0xff	8.0
174	0xff	8.0
175	0xff	8.0
176	0xff	8.0
177	0xff	8.0
178	0xff	8.0
179	0xff	8.0
180	0xff	8.0
181	0xff	8.0
182	0xff	8.0
183	0xff	8.0
184	0xff	8.0
185	0xff	8.0
186	0xff	8.0
187	0xff	8.0
188	0xff	8.0
189	0xff	8.0
190	0xff	8.0
191	0xff	8.0
192	0xff	8.0
193	0xff	8.0
194	0xff	8.0
195	0xff	8.0
196	0xff	8.0
197	0xff	8.0
198	0xff	8.0
199	0xff	8.0
200	0xff	8.0
201	0xff	8.0
202	0xff	8.0
203	0xff	8.0
204	0xff	8.0
205	0xff	8.0
206	0xff	8.0
207	0xff	8.0
208	0xff	8.0
209	0xff	8.0
210	0xff	8.0
211	0xff	8.0
212	0xff	8.0
213	0xff	8.0
214	0xff	8.0
215	0xff	8.0
216	0xff	8.0
217	0xff	8.0
218	0xff	8.0
219	0xff	8.0
220	0xff	8.0
221	0xff	8.0
222	0xff	8.0
223	0xff	8.0
224	0xff	8.0
225	0xff	8.0
226	0xff	8.0
227	0xff	8.0
228	0xff	8.0
229	0xff	8.0
230	0xff	8.0
231	0xff	8.0
232	0xff	8.0
233	0xff	8.0
234	0xff	8.0
235	0xff	8.0
236	0xff	8.0
237	0xff	8.0
238	0xff	8.0
239	0xff	8.0
240	0xff	8.0
241	0xff	8.0
242	0xff	8.0
243	0xff	8.0
244	0xff	8.0
245	0xff	8.0
246	0xff	8.0
247	0xff	8.0
248	0xff	8.0
249	0xff	8.0
250	0xff	8.0
251	0xff	8.0
252	0xff	8.0
253	0xff	8.0
254	0xff	8.0
255	0xff	8.0

fuse_attr_126 i1 [80, 1, 1, 160]
0	0x04	4
1	0x5d	93
2	0xe7	-25
3	0xec	-20
4	0xea	-22
5	0x0b	11
6	0xf5	-11
7	0xe8	-24
8	0x0b	11
9	0x18	24
10	0xee	-18
11	0xd5	-43
12	0x0a	10
13	0xfe	-2
14	0x0e	14
15	0x28	40
16	0x18	24
17	0x03	3
18	0x27	39
19	0x13	19
20	0x07	7
21	0xfd	-3
22	0xfa	-6
23	0x0c	12
24	0xf4	-12
25	0x7f	127
26	0xf2	-14
27	0xf8	-8
28	0x03	3
29	0xf0	-16
30	0xf4	-12
31	0x15	21
32	0xca	-54
33	0x64	100
34	0x2a	42
35	0x1e	30
36	0xe5	-27
37	0xf5	-11
38	0x12	18
39	0x03	3
40	0x45	69
41	0xf3	-13
42	0xf6	-10
43	0x0b	11
44	0xe9	-23
45	0x07	7
46	0x03	3
47	0x0b	11
48	0xe6	-26
49	0xdb	-37
50	0x06	6
51	0xed	-19
52	0x3c	60
53	0x07	7
54	0xfb	-5
55	0xe8	-24
56	0xe4	-28
57	0x0d	13
58	0xf5	-11
59	0xf6	-10
60	0x27	39
61	0xf3	-13
62	0xf9	-7
63	0xf5	-11
64	0xe1	-31
65	0xff	-1
66	0x0a	10
67	0x0a	10
68	0x35	53
69	0xe6	-26
70	0x04	4
71	0xf2	-14
72	0x06	6
73	0xeb	-21
74	0x4e	78
75	0x0d	13
76	0xe7	-25
77	0x17	23
78	0x01	1
79	0x06	6
80	0x11	17
81	0x0a	10
82	0xdd	-35
83	0xf1	-15
84	0xd7	-41
85	0x27	39
86	0xec	-20
87	0x10	16
88	0xed	-19
89	0x13	19
90	0xe0	-32
91	0x2c	44
92	0x12	18
93	0xe4	-28
94	0xe6	-26
95	0x03	3
96	0xfb	-5
97	0x22	34
98	0xe4	-28
99	0x14	20
100	0xfb	-5
101	0xfd	-3
102	0x0f	15
103	0x12	18
104	0x09	9
105	0x00	0
106	0xff	-1
107	0x0a	10
108	0xe2	-30
109	0xf7	-9
110	0xe7	-25
111	0xe0	-32
112	0x30	48
113	0xe7	-25
114	0xd5	-43
115	0xda	-38
116	0xe0	-32
117	0x24	36
118	0xed	-19
119	0xfb	-5
120	0xe4	-28
121	0xf9	-7
122	0xff	-1
123	0x08	8
124	0xdd	-35
125	0xfe	-2
126	0xdb	-37
127	0xdb	-37
128	0x28	40
129	0xf8	-8
130	0x11	17
131	0x30	48
132	0xea	-22
133	0x02	2
134	0x0a	10
135	0xed	-19
136	0xf4	-12
137	0x02	2
138	0x08	8
139	0xf9	-7
140	0xe5	-27
141	0x56	86
142	0xe0	-32
143	0xed	-19
144	0x55	85
145	0xeb	-21
146	0xe9	-23
147	0x4c	76
148	0xef	-17
149	0xff	-1
150	0xd5	-43
151	0x6d	109
152	0xe3	-29
153	0x11	17
154	0x13	19
155	0x11	17
156	0xf0	-16
157	0x23	35
158	0xe6	-26
159	0x0f	15
160	0x03	3
161	0xd4	-44
162	0x19	25
163	0xfa	-6
164	0xee	-18
165	0x2e	46
166	0x25	37
167	0xfa	-6
168	0xc2	-62
169	0xe3	-29
170	0x38	56
171	0x0c	12
172	0xe0	-32
173	0xb1	-79
174	0x04	4
175	0xd9	-39
176	0xf6	-10
177	0x23	35
178	0xdc	-36
179	0xfe	-2
180	0xde	-34
181	0x05	5
182	0x28	40
183	0x19	25
184	0x10	16
185	0xd9	-39
186	0x0f	15
187	0xf7	-9
188	0xf9	-7
189	0xf3	-13
190	0x0e	14
191	0x1e	30
192	0xca	-54
193	0xf5	-11
194	0xfc	-4
195	0xef	-17
196	0x13	19
197	0x11	17
198	0x17	23
199	0xca	-54
200	0xe9	-23
201	0xf7	-9
202	0x11	17
203	0x1b	27
204	0xda	-38
205	0xbb	-69
206	0x15	21
207	0xf0	-16
208	0x02	2
209	0xed	-19
210	0xe6	-26
211	0x34	52
212	0x5f	95
213	0xdd	-35
214	0xf1	-15
215	0xd0	-48
216	0xdf	-33
217	0x09	9
218	0x54	84
219	0x1c	28
220	0xf6	-10
221	0xe9	-23
222	0x01	1
223	0xb9	-71
224	0x39	57
225	0x2b	43
226	0x15	21
227	0xe3	-29
228	0xd3	-45
229	0xdf	-33
230	0x24	36
231	0xd2	-46
232	0x0e	14
233	0x11	17
234	0xe0	-32
235	0xea	-22
236	0xb8	-72
237	0x24	36
238	0x1b	27
239	0x06	6
240	0x46	70
241	0xf4	-12
242	0x21	33
243	0xf2	-14
244	0xeb	-21
245	0xf3	-13
246	0xf0	-16
247	0xcd	-51
248	0x13	19
249	0xee	-18
250	0xe8	-24
251	0x38	56
252	0x7f	127
253	0xf6	-10
254	0xba	-70
255	0xf8	-8

fuse_attr_105 i1 [20, 1, 1, 20]
0	0x00	0
1	0xe0	-32
2	0xd1	-47
3	0x7f	127
4	0x3b	59
5	0x3b	59
6	0x0e	14
7	0x39	57
8	0xed	-19
9	0xea	-22
10	0x0f	15
11	0x48	72
12	0xf8	-8
13	0xdc	-36
14	0x22	34
15	0xf9	-7
16	0x22	34
17	0xbd	-67
18	0x40	64
19	0x23	35
20	0xca	-54
21	0x10	16
22	0x62	98
23	0x09	9
24	0xe8	-24
25	0xea	-22
26	0x99	-103
27	0x7f	127
28	0xdc	-36
29	0xfd	-3
30	0x35	53
31	0x49	73
32	0xcc	-52
33	0xee	-18
34	0x15	21
35	0xa0	-96
36	0xeb	-21
37	0x30	48
38	0xc6	-58
39	0x20	32
40	0xbe	-66
41	0xc9	-55
42	0xa1	-95
43	0xec	-20
44	0x04	4
45	0x8a	-118
46	0xed	-19
47	0xfb	-5
48	0x46	70
49	0x95	-107
50	0xb6	-74
51	0xd0	-48
52	0xec	-20
53	0x08	8
54	0x19	25
55	0xec	-20
56	0xcd	-51
57	0x23	35
58	0x34	52
59	0x80	-128
60	0x76	118
61	0xb7	-73
62	0x75	117
63	0xc6	-58
64	0xca	-54
65	0xfb	-5
66	0x00	0
67	0x17	23
68	0xe6	-26
69	0x80	-128
70	0xe7	-25
71	0x3c	60
72	0xfe	-2
73	0x1a	26
74	0xc4	-60
75	0xfb	-5
76	0xf9	-7
77	0x4c	76
78	0x24	36
79	0xf0	-16
80	0xb6	-74
81	0xf8	-8
82	0xe1	-31
83	0x1c	28
84	0x7f	127
85	0xde	-34
86	0xdc	-36
87	0x78	120
88	0xb9	-71
89	0x3c	60
90	0x0e	14
91	0x22	34
92	0xed	-19
93	0x4d	77
94	0x51	81
95	0x3b	59
96	0xa6	-90
97	0x9a	-102
98	0x26	38
99	0x1b	27
100	0x0e	14
101	0x48	72
102	0xcd	-51
103	0xbf	-65
104	0xbe	-66
105	0xe6	-26
106	0xf8	-8
107	0x0a	10
108	0xe6	-26
109	0xf3	-13
110	0x7f	127
111	0x6c	108
112	0x04	4
113	0x1c	28
114	0xd8	-40
115	0xee	-18
116	0x09	9
117	0x2a	42
118	0x6e	110
119	0x0b	11
120	0x19	25
121	0xe1	-31
122	0x3d	61
123	0xfd	-3
124	0xc4	-60
125	0x70	112
126	0xe5	-27
127	0xdb	-37
128	0x2e	46
129	0xcf	-49
130	0x0d	13
131	0x17	23
132	0xdd	-35
133	0x80	-128
134	0xce	-50
135	0xbc	-68
136	0xfb	-5
137	0xdf	-33
138	0xa1	-95
139	0x16	22
140	0xb4	-76
141	0x27	39
142	0xfa	-6
143	0xf3	-13
144	0x7f	127
145	0x2a	42
146	0xd4	-44
147	0xe2	-30
148	0xe5	-27
149	0xf1	-15
150	0xec	-20
151	0x09	9
152	0xf6	-10
153	0x37	55
154	0xf2	-14
155	0x03	3
156	0x25	37
157	0x68	104
158	0x0b	11
159	0xff	-1
160	0xd0	-48
161	0x50	80
162	0xbb	-69
163	0x26	38
164	0xf3	-13
165	0x0b	11
166	0x2f	47
167	0x57	87
168	0x3d	61
169	0x7f	127
170	0xf1	-15
171	0xd1	-47
172	0x01	1
173	0xbd	-67
174	0xfb	-5
175	0xce	-50
176	0xc2	-62
177	0x12	18
178	0xf7	-9
179	0xed	-19
180	0xe6	-26
181	0xd8	-40
182	0x07	7
183	0x22	34
184	0xe6	-26
185	0xf2	-14
186	0xfc	-4
187	0xe4	-28
188	0x00	0
189	0xfe	-2
190	0xea	-22
191	0x7f	127
192	0xf2	-14
193	0x03	3
194	0xe4	-28
195	0xf1	-15
196	0xe5	-27
197	0xef	-17
198	0x29	41
199	0x13	19
200	0xd5	-43
201	0xc7	-57
202	0x12	18
203	0x1f	31
204	0x12	18
205	0xd7	-41
206	0x02	2
207	0xb0	-80
208	0x11	17
209	0x35	53
210	0x1d	29
211	0x1b	27
212	0xf7	-9
213	0x04	4
214	0x12	18
215	0x18	24
216	0xe4	-28
217	0xc1	-63
218	0x22	34
219	0x7f	127
220	0xf9	-7
221	0xef	-17
222	0xec	-20
223	0x3c	60
224	0xdf	-33
225	0x9b	-101
226	0x2e	46
227	0x9b	-101
228	0x0d	13
229	0x18	24
230	0xe1	-31
231	0x0f	15
232	0xde	-34
233	0x80	-128
234	0x49	73
235	0xdd	-35
236	0x1e	30
237	0x50	80
238	0xef	-17
239	0xe1	-31
240	0xf2	-14
241	0xbb	-69
242	0xbb	-69
243	0xd0	-48
244	0xca	-54
245	0xca	-54
246	0x02	2
247	0x04	4
248	0x02	2
249	0x58	88
250	0xcd	-51
251	0x3e	62
252	0x13	19
253	0x54	84
254	0x1a	26
255	0xcd	-51

fuse_attr_136 i1 [20, 3, 3, 20]
0	0x06	6
1	0x04	4
2	0x06	6
3	0xfe	-2
4	0x01	1
5	0xf4	-12
6	0xfd	-3
7	0xf3	-13
8	0x13	19
9	0xd9	-39
10	0xe7	-25
11	0x06	6
12	0x02	2
13	0xb7	-73
14	0x0e	14
15	0x03	3
16	0xf5	-11
17	0xfa	-6
18	0xf4	-12
19	0xfa	-6
20	0xee	-18
21	0xe9	-23
22	0xe2	-30
23	0xe7	-25
24	0xf7	-9
25	0xe8	-24
26	0x10	16
27	0xc8	-56
28	0x14	20
29	0xf7	-9
30	0xfe	-2
31	0xe7	-25
32	0xf9	-7
33	0xa0	-96
34	0xda	-38
35	0x06	6
36	0xf6	-10
37	0xed	-19
38	0xee	-18
39	0xf5	-11
40	0xf3	-13
41	0xfa	-6
42	0xfd	-3
43	0xff	-1
44	0x04	4
45	0xfe	-2
46	0x08	8
47	0x0b	11
48	0x0f	15
49	0xe8	-24
50	0xcd	-51
51	0xfd	-3
52	0x0a	10
53	0x80	-128
54	0x03	3
55	0x03	3
56	0x0e	14
57	0xfc	-4
58	0xfb	-5
59	0xfa	-6
60	0x04	4
61	0xf3	-13
62	0x08	8
63	0x06	6
64	0x11	17
65	0xff	-1
66	0x00	0
67	0x0b	11
68	0xfa	-6
69	0xf2	-14
70	0xfe	-2
71	0xf8	-8
72	0x02	2
73	0xed	-19
74	0x05	5
75	0xfc	-4
76	0x01	1
77	0xfd	-3
78	0xed	-19
79	0x01	1
80	0xfa	-6
81	0xe1	-31
82	0x07	7
83	0x0d	13
84	0xf2	-14
85	0x0a	10
86	0x13	19
87	0x07	7
88	0xf8	-8
89	0x39	57
90	0x18	24
91	0xe8	-24
92	0x04	4
93	0x3f	63
94	0xf3	-13
95	0xf4	-12
96	0x10	16
97	0x12	18
98	0xee	-18
99	0x0d	13
100	0x05	5
101	0xe5	-27
102	0x13	19
103	0x0e	14
104	0x05	5
105	0x08	8
106	0x02	2
107	0x13	19
108	0xff	-1
109	0xe7	-25
110	0x0a	10
111	0x01	1
112	0x01	1
113	0xf5	-11
114	0xf6	-10
115	0x09	9
116	0x05	5
117	0x12	18
118	0xf4	-12
119	0x14	20
120	0x17	23
121	0x12	18
122	0xf8	-8
123	0xf9	-7
124	0x15	21
125	0xfa	-6
126	0x07	7
127	0xf6	-10
128	0xf7	-9
129	0x08	8
130	0x21	33
131	0x1c	28
132	0x0c	12
133	0x17	23
134	0x0a	10
135	0x25	37
136	0x08	8
137	0xf6	-10
138	0x01	1
139	0xf1	-15
140	0x1a	26
141	0xed	-19
142	0xf2	-14
143	0x01	1
144	0x0f	15
145	0x44	68
146	0xf7	-9
147	0xcb	-53
148	0x12	18
149	0x21	33
150	0x2c	44
151	0x13	19
152	0x03	3
153	0x5c	92
154	0xe3	-29
155	0x3d	61
156	0x03	3
157	0x00	0
158	0x0c	12
159	0xf3	-13
160	0x16	22
161	0x0a	10
162	0x0a	10
163	0x1a	26
164	0x10	16
165	0x17	23
166	0x03	3
167	0x03	3
168	0x0b	11
169	0x0f	15
170	0x24	36
171	0x1c	28
172	0x08	8
173	0x3f	63
174	0xfe	-2
175	0x2f	47
176	0x08	8
177	0x06	6
178	0x0e	14
179	0x0c	12
180	0xf7	-9
181	0x01	1
182	0xea	-22
183	0xff	-1
184	0x1e	30
185	0x19	25
186	0xd9	-39
187	0x15	21
188	0xfd	-3
189	0x15	21
190	0x2b	43
191	0xeb	-21
192	0x12	18
193	0xee	-18
194	0xf8	-8
195	0x03	3
196	0x17	23
197	0x02	2
198	0xf3	-13
199	0x05	5
200	0xc3	-61
201	0x13	19
202	0xb3	-77
203	0x26	38
204	0x5e	94
205	0x1d	29
206	0xa1	-95
207	0x1f	31
208	0xee	-18
209	0x1c	28
210	0x1a	26
211	0xd9	-39
212	0x1f	31
213	0xf2	-14
214	0xf8	-8
215	0xdf	-33
216	0x3e	62
217	0xfa	-6
218	0xf7	-9
219	0xe6	-26
220	0xef	-17
221	0x1e	30
222	0x00	0
223	0x2b	43
224	0x37	55
225	0x09	9
226	0x09	9
227	0x06	6
228	0x03	3
229	0xf5	-11
230	0x22	34
231	0xf1	-15
232	0x19	25
233	0xff	-1
234	0x2a	42
235	0xea	-22
236	0xf8	-8
237	0x10	16
238	0xf4	-12
239	0xec	-20
240	0xd9	-39
241	0x1a	26
242	0xfd	-3
243	0xf4	-12
244	0x39	57
245	0x0b	11
246	0xd6	-42
247	0x17	23
248	0xf7	-9
249	0x2f	47
250	0x0a	10
251	0xe0	-32
252	0x19	25
253	0x12	18
254	0xfd	-3
255	0x01	1
