detection/models/yolov5/Face/yolov5_tiny_96x96_int8_sha1_ec2821e32f70f816872a384c1e4cf3a635a38954.tflite (tflite, 825096 bytes, 69 tensors)

fuse_attr_149 i1 [160, 1, 1, 160]
000000 37 ec a5 0f 24 80 23 1c 28 09 09 ec c9 04 1d ed
       55 -20 -91 15 36 -128 35 28 40 9 9 -20 -55 4 29 -19
000010 24 e3 0a f5 fe d9 04 13 05 2f be 30 10 fd e0 26
       36 -29 10 -11 -2 -39 4 19 5 47 -66 48 16 -3 -32 38
000020 cb b8 e1 1d 1a bc 0c f6 c3 c3 d7 dd e0 bf 05 f1
       -53 -72 -31 29 26 -68 12 -10 -61 -61 -41 -35 -32 -65 5 -15
000030 db f2 1c 2a 1b f1 d2 0e c9 cc f0 ff 10 00 00 16
       -37 -14 28 42 27 -15 -46 14 -55 -52 -16 -1 16 0 0 22
000040 de f3 ff 23 df b7 e0 ed ce 2b d7 17 06 e0 0d e9
       -34 -13 -1 35 -33 -73 -32 -19 -50 43 -41 23 6 -32 13 -23
000050 cc 0e c8 d1 0b d7 ee cd e8 0c 07 11 ee 02 ec f5
       -52 14 -56 -47 11 -41 -18 -51 -24 12 7 17 -18 2 -20 -11
000060 ee f0 00 f3 f4 ed 0e e2 f5 2c cb fe 0d fc f6 fc
       -18 -16 0 -13 -12 -19 14 -30 -11 44 -53 -2 13 -4 -10 -4
000070 c5 c0 fb bc f3 bb fe db ed dd db fe 15 cf ef ed
       -59 -64 -5 -68 -13 -69 -2 -37 -19 -35 -37 -2 21 -49 -17 -19
000080 ed fc 39 ef ea 0e 93 c5 fb c3 f3 a8 01 0a 2b 1e
       -19 -4 57 -17 -22 14 -109 -59 -5 -61 -13 -88 1 10 43 30
000090 f6 11 13 06 87 09 05 e8 e9 ce 0e ea 1c 2b 04 ef
       -10 17 19 6 -121 9 5 -24 -23 -50 14 -22 28 43 4 -17
0000a0 e4 03 18 19 d5 e6 12 25 27 00 5e f0 90 00 19 3d
       -28 3 24 25 -43 -26 18 37 39 0 94 -16 -112 0 25 61
0000b0 28 12 e9 b5 f8 2a 0b 07 37 f0 0a fb 17 e8 e2 11
       40 18 -23 -75 -8 42 11 7 55 -16 10 -5 23 -24 -30 17
0000c0 db 03 2b 3e 07 c6 ce f8 25 03 e5 dc f9 01 0b c6
       -37 3 43 62 7 -58 -50 -8 37 3 -27 -36 -7 1 11 -58
0000d0 ee c9 11 ee 03 30 fc ad 20 95 da e0 30 3b eb 10
       -18 -55 17 -18 3 48 -4 -83 32 -107 -38 -32 48 59 -21 16
0000e0 05 3d c4 16 80 c7 f6 e4 1a d1 f0 4e 35 3f f6 5a
       5 61 -60 22 -128 -57 -10 -28 26 -47 -16 78 53 63 -10 90
0000f0 e4 f3 1f f5 41 26 0b fb 19 0c f2 13 01 01 14 f4
       -28 -13 31 -11 65 38 11 -5 25 12 -14 19 1 1 20 -12

fuse_attr_139 i1 [40, 1, 1, 80]
000000 2d 26 f6 fd 06 a5 f0 3e 99 da 1f fd 33 17 41 3c
       45 38 -10 -3 6 -91 -16 62 -103 -38 31 -3 51 23 65 60
000010 a7 11 05 32 ef 1b bc 7f f7 49 e2 de f3 32 1d 0b
       -89 17 5 50 -17 27 -68 127 -9 73 -30 -34 -13 50 29 11
000020 3c 0d 35 f4 16 e8 05 fd 18 09 f3 32 01 0c 0c e1
       60 13 53 -12 22 -24 5 -3 24 9 -13 50 1 12 12 -31
000030 ef 08 fe 71 f4 f7 f9 16 13 fa f4 dc 05 1f ee 47
       -17 8 -2 113 -12 -9 -7 22 19 -6 -12 -36 5 31 -18 71
000040 ef f7 15 0e fb 02 ff 20 00 e7 f8 0b f4 26 07 29
       -17 -9 21 14 -5 2 -1 32 0 -25 -8 11 -12 38 7 41
000050 09 0c 03 0a d7 23 cd e8 25 19 0c f6 15 15 0e dc
       9 12 3 10 -41 35 -51 -24 37 25 12 -10 21 21 14 -36
000060 ee fa 2e 7f ce e6 38 0a e2 e7 07 17 f2 fb 18 e8
       -18 -6 46 127 -50 -26 56 10 -30 -25 7 23 -14 -5 24 -24
000070 f4 26 0b f1 28 0c fa ef 11 04 13 f2 f2 fc ff e1
       -12 38 11 -15 40 12 -6 -17 17 4 19 -14 -14 -4 -1 -31
000080 0e ff f3 1c ec eb 03 ef fd f2 06 f3 fd 20 e3 10
       14 -1 -13 28 -20 -21 3 -17 -3 -14 6 -13 -3 32 -29 16
000090 04 05 09 0c 0d 07 f8 01 f1 14 0f f5 0e 03 02 13
       4 5 9 12 13 7 -8 1 -15 20 15 -11 14 3 2 19
0000a0 1f df 2b 98 c7 2b c5 f2 c3 a3 d5 e6 d6 26 67 3f
       31 -33 43 -104 -57 43 -59 -14 -61 -93 -43 -26 -42 38 103 63
0000b0 fd 51 02 11 80 35 1e f0 3b da be e9 06 de 12 fb
       -3 81 2 17 -128 53 30 -16 59 -38 -66 -23 6 -34 18 -5
0000c0 21 53 58 b1 da 0a b1 09 19 dd 06 25 e9 eb 15 a6
       33 83 88 -79 -38 10 -79 9 25 -35 6 37 -23 -21 21 -90
0000d0 d2 ff 1f 2c 1f 21 fc e8 f1 e8 17 27 f4 3b e4 0d
       -46 -1 31 44 31 33 -4 -24 -15 -24 23 39 -12 59 -28 13
0000e0 d5 fb ef 01 1c 37 11 2e ff e0 d9 10 15 5e e4 23
       -43 -5 -17 1 28 55 17 46 -1 -32 -39 16 21 94 -28 35
0000f0 1b df 0c ad f6 3a fb e3 4d cb ef 37 1c f8 5e 1a
       27 -33 12 -83 -10 58 -5 -29 77 -53 -17 55 28 -8 94 26

fuse_attr_147 i1 [80, 1, 1, 80]
000000 f6 18 bd 20 ec cb c3 f7 50 28 d9 29 f1 9f ce ce
       -10 24 -67 32 -20 -53 -61 -9 80 40 -39 41 -15 -97 -50 -50
000010 dd aa ce d9 3a 3f e9 05 d7 38 d2 06 ec 1f 19 bf
       -35 -86 -50 -39 58 63 -23 5 -41 56 -46 6 -20 31 25 -65
000020 f6 f0 c8 2e fe c8 a8 c8 a5 b0 cc e4 e4 c8 d9 a2
       -10 -16 -56 46 -2 -56 -88 -56 -91 -80 -52 -28 -28 -56 -39 -94
000030 e0 47 b9 bf d6 ff db ee cd 65 e9 dc ef d7 d1 36
       -32 71 -71 -65 -42 -1 -37 -18 -51 101 -23 -36 -17 -41 -47 54
000040 6f 0a d6 22 33 00 80 10 32 db 13 ef cc a6 bd 37
       111 10 -42 34 51 0 -128 16 50 -37 19 -17 -52 -90 -67 55
000050 fc 5f ed ee d4 fe b1 4a ff f6 eb 53 05 f8 21 d9
       -4 95 -19 -18 -44 -2 -79 74 -1 -10 -21 83 5 -8 33 -39
000060 fc 0d 63 df 07 55 44 22 e1 d3 29 f9 e3 7f db 5d
       -4 13 99 -33 7 85 68 34 -31 -45 41 -7 -29 127 -37 93
000070 01 51 fc fe f9 39 e9 00 cc f9 49 6e 2c a9 24 1c
       1 81 -4 -2 -7 57 -23 0 -52 -7 73 110 44 -87 36 28
000080 1d b7 26 ee f0 df f2 2e 2a 26 47 2d c6 c5 08 0b
       29 -73 38 -18 -16 -33 -14 46 42 38 71 45 -58 -59 8 11
000090 0b 1c 25 da b2 00 b5 af 28 0e 4b fd 42 92 ff d8
       11 28 37 -38 -78 0 -75 -81 40 14 75 -3 66 -110 -1 -40
0000a0 26 0f 28 e7 eb b7 d6 41 4a 3b 23 5b 00 b5 f2 bd
       38 15 40 -25 -21 -73 -42 65 74 59 35 91 0 -75 -14 -67
0000b0 fc ac b8 e0 bf 43 f3 fe cc 59 e3 22 ca fd c8 d8
       -4 -84 -72 -32 -65 67 -13 -2 -52 89 -29 34 -54 -3 -56 -40
0000c0 80 d2 b2 cd fe e6 4c 0b 23 f4 0a 0d 06 5a 05 17
       -128 -46 -78 -51 -2 -26 76 11 35 -12 10 13 6 90 5 23
0000d0 f8 d5 e5 d8 c8 38 05 11 dd 29 d7 eb d6 27 eb e7
       -8 -43 -27 -40 -56 56 5 17 -35 41 -41 -21 -42 39 -21 -25
0000e0 ef f9 71 41 da ec 03 f0 e6 0e 16 d1 21 d7 c1 da
       -17 -7 113 65 -38 -20 3 -16 -26 14 22 -47 33 -41 -63 -38
0000f0 41 02 df cd d7 c3 f4 e1 63 e8 c5 4c e4 bf 14 c9
       65 2 -33 -51 -41 -61 -12 -31 99 -24 -59 76 -28 -65 20 -55

fuse_attr_152 i1 [18, 1, 1, 160]
000000 9d 03 f4 05 00 01 f3 fe 13 f6 02 d0 1e 02 0e ef
       -99 3 -12 5 0 1 -13 -2 19 -10 2 -48 30 2 14 -17
000010 00 ff 03 ff ff fe fa d4 11 0f f9 01 f9 04 ff f1
       0 -1 3 -1 -1 -2 -6 -44 17 15 -7 1 -7 4 -1 -15
000020 00 fa f9 f4 03 29 04 02 20 03 70 24 f1 f9 e2 f8
       0 -6 -7 -12 3 41 4 2 32 3 112 36 -15 -7 -30 -8
000030 8d 46 ff 50 03 03 c2 ff ef b1 02 e0 24 08 03 16
       -115 70 -1 80 3 3 -62 -1 -17 -79 2 -32 36 8 3 22
000040 0c ff df d3 fd 00 fe 05 ff 00 02 03 f9 01 f8 17
       12 -1 -33 -45 -3 0 -2 5 -1 0 2 3 -7 1 -8 23
000050 02 fe ff ff 03 70 51 fb 5e 01 f2 fe 4c fe fd 0d
       2 -2 -1 -1 3 112 81 -5 94 1 -14 -2 76 -2 -3 13
000060 02 2c 08 02 01 00 df 02 fe 11 0e 0a 02 00 06 fe
       2 44 8 2 1 0 -33 2 -2 17 14 10 2 0 6 -2
000070 a4 ae fd f8 64 ff c5 01 30 07 ff 01 4a 41 b3 fc
       -92 -82 -3 -8 100 -1 -59 1 48 7 -1 1 74 65 -77 -4
000080 02 fa c6 c4 fb fb ff ff 02 ff fe 27 07 f7 fc fb
       2 -6 -58 -60 -5 -5 -1 -1 2 -1 -2 39 7 -9 -4 -5
000090 00 fd b5 7f 06 fe 8f 05 19 fe f1 04 d0 01 fe 05
       0 -3 -75 127 6 -2 -113 5 25 -2 -15 4 -48 1 -2 5
0000a0 fd 28 06 fe 05 fd 5b e5 d5 b9 fe 5e f7 c6 04 bf
       -3 40 6 -2 5 -3 91 -27 -43 -71 -2 94 -9 -58 4 -65
0000b0 ff 05 ff 00 fe 8f fc 2c 57 19 1b 06 00 0d 04 d3
       -1 5 -1 0 -2 -113 -4 44 87 25 27 6 0 13 4 -45
0000c0 fb f7 4e 25 25 f9 00 ed 3f fe fc 48 dd ff ee c0
       -5 -9 78 37 37 -7 0 -19 63 -2 -4 72 -35 -1 -18 -64
0000d0 01 fe fd 07 12 e4 fb 07 06 07 ca 05 16 05 fa fb
       1 -2 -3 7 18 -28 -5 7 6 7 -54 5 22 5 -6 -5
0000e0 fa 0f 04 ef 2a 03 66 04 f8 3a ff f8 fc d0 ff fc
       -6 15 4 -17 42 3 102 4 -8 58 -1 -8 -4 -48 -1 -4
0000f0 fb 80 e0 fc 94 f6 fe 7c fb 03 6a fc 0d a2 02 c0
       -5 -128 -32 -4 -108 -10 -2 124 -5 3 106 -4 13 -94 2 -64

fuse_attr_145 i1 [80, 1, 1, 160]
000000 2c 7f 41 56 06 1d 3c fb f6 23 11 fc 2b 25 11 3b
       44 127 65 86 6 29 60 -5 -10 35 17 -4 43 37 17 59
000010 ee 3c 0e 40 fe 00 01 23 55 23 10 f9 da f6 10 3f
       -18 60 14 64 -2 0 1 35 85 35 16 -7 -38 -10 16 63
000020 ff 34 07 29 27 3a 1e fc 13 f6 24 2e 28 56 0d 25
       -1 52 7 41 39 58 30 -4 19 -10 36 46 40 86 13 37
000030 4c 2c 29 6d 0e ee 46 ec 55 eb 0a fd 32 eb 3b 28
       76 44 41 109 14 -18 70 -20 85 -21 10 -3 50 -21 59 40
000040 27 1d 1d 17 5a 0e 44 ea f1 e8 37 30 f2 1b 0c ff
       39 29 29 23 90 14 68 -22 -15 -24 55 48 -14 27 12 -1
000050 f5 ff fd 06 f4 0a 01 fb f3 fb fc f2 f9 01 f9 fa
       -11 -1 -3 6 -12 10 1 -5 -13 -5 -4 -14 -7 1 -7 -6
000060 fc fc f9 f8 08 00 fa f8 f4 0a fe f8 fd fc f9 ed
       -4 -4 -7 -8 8 0 -6 -8 -12 10 -2 -8 -3 -4 -7 -19
000070 0b 0a 1e fa ff f4 fb 03 07 fc 0a 07 f8 fe f9 04
       11 10 30 -6 -1 -12 -5 3 7 -4 10 7 -8 -2 -7 4
000080 fe 02 04 f7 f8 00 15 fd ff 00 0f 03 02 01 f1 03
       -2 2 4 -9 -8 0 21 -3 -1 0 15 3 2 1 -15 3
000090 0b fa f6 fe 01 0e f7 f7 01 07 00 fb f9 f3 fd 04
       11 -6 -10 -2 1 14 -9 -9 1 7 0 -5 -7 -13 -3 4
0000a0 c6 d6 08 af b7 70 e8 f1 02 f0 eb d5 10 4f e3 bd
       -58 -42 8 -81 -73 112 -24 -15 2 -16 -21 -43 16 79 -29 -67
0000b0 44 05 12 32 bb 08 db 47 14 e8 27 e7 01 ea da e7
       68 5 18 50 -69 8 -37 71 20 -24 39 -25 1 -22 -38 -25
0000c0 fd f7 db fd e4 22 fb 2d 48 d5 3c e1 f1 db f7 0c
       -3 -9 -37 -3 -28 34 -5 45 72 -43 60 -31 -15 -37 -9 12
0000d0 91 03 2f 26 c7 2b bb 16 b7 13 fe 40 c3 26 b6 03
       -111 3 47 38 -57 43 -69 22 -73 19 -2 64 -61 38 -74 3
0000e0 ec 29 03 de 00 b3 1a 25 f5 31 f3 e2 4b d4 7f 4e
       -20 41 3 -34 0 -77 26 37 -11 49 -13 -30 75 -44 127 78
0000f0 06 e6 f9 fa 01 f5 f2 02 17 fa 05 ec f0 f9 f0 0b
       6 -26 -7 -6 1 -11 -14 2 23 -6 5 -20 -16 -7 -16 11

fuse_attr_130 i1 [40, 3, 3, 40]
000000 13 0a 06 04 04 10 0d 03 fb 0d 0d 09 fd 15 0a 02
       19 10 6 4 4 16 13 3 -5 13 13 9 -3 21 10 2
000010 04 10 27 1d 03 fc 1c 0c 10 27 f9 0b 06 fc 0e 08
       4 16 39 29 3 -4 28 12 16 39 -7 11 6 -4 14 8
000020 fc 08 08 12 05 0b 03 0f 13 f1 07 ee 1a 13 21 f9
       -4 8 8 18 5 11 3 15 19 -15 7 -18 26 19 33 -7
000030 03 fc 0b 07 01 ea 12 00 03 d1 2c 28 0d 05 fc 20
       3 -4 11 7 1 -22 18 0 3 -47 44 40 13 5 -4 32
000040 1e 38 f5 d4 08 05 f9 27 ff cf fa 09 06 25 fb ef
       30 56 -11 -44 8 5 -7 39 -1 -49 -6 9 6 37 -5 -17
000050 0c 0c 13 02 05 09 01 f1 05 03 f1 07 0e f2 1a 11
       12 12 19 2 5 9 1 -15 5 3 -15 7 14 -14 26 17
000060 16 17 04 0a f6 09 16 ff 01 12 f8 14 ec e6 ea 07
       22 23 4 10 -10 9 22 -1 1 18 -8 20 -20 -26 -22 7
000070 fa de ec 08 fc 11 f8 f1 13 f5 11 0f fe 09 23 1b
       -6 -34 -20 8 -4 17 -8 -15 19 -11 17 15 -2 9 35 27
000080 15 10 0e 13 fc 1d 00 ff eb 1a f6 ff fc 05 0c 07
       21 16 14 19 -4 29 0 -1 -21 26 -10 -1 -4 5 12 7
000090 f4 f9 10 0c 06 04 08 0b 0a 10 06 07 fe 06 0d 0b
       -12 -7 16 12 6 4 8 11 10 16 6 7 -2 6 13 11
0000a0 08 e3 1e 0c ec f4 19 06 ff 14 04 0c fa 06 fa 1a
       8 -29 30 12 -20 -12 25 6 -1 20 4 12 -6 6 -6 26
0000b0 f4 01 11 05 f9 11 09 08 ff fe 05 04 1b 13 08 06
       -12 1 17 5 -7 17 9 8 -1 -2 5 4 27 19 8 6
0000c0 06 24 10 04 0d f8 08 22 02 05 0c 13 d2 f2 12 f4
       6 36 16 4 13 -8 8 34 2 5 12 19 -46 -14 18 -12
0000d0 f2 fe e7 0b 1e fb fd f3 da 05 e2 14 e4 3b 31 02
       -14 -2 -25 11 30 -5 -3 -13 -38 5 -30 20 -28 59 49 2
0000e0 b9 c8 d4 01 0a cd 05 02 ed e5 0a f8 e4 2f 05 02
       -71 -56 -44 1 10 -51 5 2 -19 -27 10 -8 -28 47 5 2
0000f0 0a f6 0d ef 00 04 17 04 f2 1e f0 f9 e6 f8 f2 0f
       10 -10 13 -17 0 4 23 4 -14 30 -16 -7 -26 -8 -14 15

fuse_attr_142 i1 [40, 3, 3, 40]
000000 ee e9 f4 ef 01 eb 08 00 1f f5 15 d7 12 4a e5 fa
       -18 -23 -12 -17 1 -21 8 0 31 -11 21 -41 18 74 -27 -6
000010 11 f8 0e 0b 0c 02 12 08 1c 09 0f 0d 16 0f f0 28
       17 -8 14 11 12 2 18 8 28 9 15 13 22 15 -16 40
000020 0f 12 fe f8 06 1d f9 f2 e0 3b f4 5c 52 f1 d4 01
       15 18 -2 -8 6 29 -7 -14 -32 59 -12 92 82 -15 -44 1
000030 30 26 2f c8 d7 2f c4 22 f8 dd f2 2f 14 f7 28 1e
       48 38 47 -56 -41 47 -60 34 -8 -35 -14 47 20 -9 40 30
000040 52 12 10 ff f8 ee 0f 20 e4 0b ef ce bf 26 0b fc
       82 18 16 -1 -8 -18 15 32 -28 11 -17 -50 -65 38 11 -4
000050 e0 2b 29 ee 2f fe 05 f9 16 d4 30 ee e0 1e c6 36
       -32 43 41 -18 47 -2 5 -7 22 -44 48 -18 -32 30 -58 54
000060 00 e9 08 ff 36 14 fb e7 0a 06 23 f5 13 fb 17 e2
       0 -23 8 -1 54 20 -5 -25 10 6 35 -11 19 -5 23 -30
000070 17 22 04 21 f1 21 e6 04 e8 ed fe 08 08 fb 1f 03
       23 34 4 33 -15 33 -26 4 -24 -19 -2 8 8 -5 31 3
000080 15 17 18 eb 01 e3 02 07 f3 2e ec 1e 03 03 2b f5
       21 23 24 -21 1 -29 2 7 -13 46 -20 30 3 3 43 -11
000090 cf 0b b9 00 0b e1 d7 00 cb 08 06 ec ea 05 0c 18
       -49 11 -71 0 11 -31 -41 0 -53 8 6 -20 -22 5 12 24
0000a0 0a 06 e1 f8 11 f7 05 40 ce 37 d1 ea c9 17 f6 25
       10 6 -31 -8 17 -9 5 64 -50 55 -47 -22 -55 23 -10 37
0000b0 14 20 4f e9 e6 b8 16 28 e5 f9 e7 40 e7 d7 f9 ce
       20 32 79 -23 -26 -72 22 40 -27 -7 -25 64 -25 -41 -7 -50
0000c0 e1 31 f8 ea d7 27 0c fc ff 11 23 f7 20 fc dd e1
       -31 49 -8 -22 -41 39 12 -4 -1 17 35 -9 32 -4 -35 -31
0000d0 0e e1 03 09 bc fa f8 27 e0 e5 32 47 0d c9 11 07
       14 -31 3 9 -68 -6 -8 39 -32 -27 50 71 13 -55 17 7
0000e0 b7 1c 1e e1 ea e2 fe 0e 03 26 fb 1f ef 1e 05 de
       -73 28 30 -31 -22 -30 -2 14 3 38 -5 31 -17 30 5 -34
0000f0 1e f0 0c 27 10 12 e8 ec fe 0c fd f8 eb e0 fc 24
       30 -16 12 39 16 18 -24 -20 -2 12 -3 -8 -21 -32 -4 36

fuse_attr_150 i1 [18, 1, 1, 40]
000000 46 01 35 d6 02 27 06 83 fb 06 0c f5 f2 f5 f4 11
       70 1 53 -42 2 39 6 -125 -5 6 12 -11 -14 -11 -12 17
000010 67 fd f9 0d ec f5 02 18 1d f6 04 05 fd 04 49 fc
       103 -3 -7 13 -20 -11 2 24 29 -10 4 5 -3 4 73 -4
000020 81 fb 02 d7 fa 01 f4 0d 1d 4d d8 eb 0e f2 02 e2
       -127 -5 2 -41 -6 1 -12 13 29 77 -40 -21 14 -14 2 -30
000030 0a fc fa 0c cd 0a 02 e9 d9 15 04 3c 09 0d 0f 81
       10 -4 -6 12 -51 10 2 -23 -39 21 4 60 9 13 15 -127
000040 08 05 ed 04 74 0b f1 fc 0e fc d4 e9 14 14 ef f2
       8 5 -19 4 116 11 -15 -4 14 -4 -44 -23 20 20 -17 -14
000050 fd ee 10 0b 0d 20 09 e0 06 16 08 28 00 fb f1 fb
       -3 -18 16 11 13 32 9 -32 6 22 8 40 0 -5 -15 -5
000060 d0 ff f8 07 f0 fc f9 12 0a ff f7 f4 15 f7 5e 02
       -48 -1 -8 7 -16 -4 -7 18 10 -1 -9 -12 21 -9 94 2
000070 2e 0c 0c 43 ff 0b 81 01 0a b9 1a 18 1c 91 fc 00
       46 12 12 67 -1 11 -127 1 10 -71 26 24 28 -111 -4 0
000080 ef 02 06 00 cf 3b 0d e2 ea 0c 00 11 f7 fd 16 73
       -17 2 6 0 -49 59 13 -30 -22 12 0 17 -9 -3 22 115
000090 0d f8 01 fb 7f f9 02 02 01 f0 ee 0f 09 0e ec 02
       13 -8 1 -5 127 -7 2 2 1 -16 -18 15 9 14 -20 2
0000a0 12 11 2a cf 81 42 a5 1c c0 14 0b 30 04 ae 10 1d
       18 17 42 -49 -127 66 -91 28 -64 20 11 48 4 -82 16 29
0000b0 ee d2 15 19 ca b7 e1 10 d7 c5 b9 df 1d d7 d2 df
       -18 -46 21 25 -54 -73 -31 16 -41 -59 -71 -33 29 -41 -46 -33
0000c0 ff 2a c9 0b c4 00 34 e3 22 aa 02 69 73 a2 19 9a
       -1 42 -55 11 -60 0 52 -29 34 -86 2 105 115 -94 25 -102
0000d0 ee 2b 63 6a c1 37 7e 81 4b 54 7d 8c 84 7f 02 c8
       -18 43 99 106 -63 55 126 -127 75 84 125 -116 -124 127 2 -56
0000e0 dd 7e 7f 64 63 c7 f1 31 fa f2 d1 91 1f 33 55 42
       -35 126 127 100 99 -57 -15 49 -6 -14 -47 -111 31 51 85 66
0000f0 44 ff 31 d6 09 22 07 85 fa 05 0e ef f4 ec f2 10
       68 -1 49 -42 9 34 7 -123 -6 5 14 -17 -12 -20 -14 16

fuse_attr_102 i1 [20, 1, 1, 40]
000000 42 8d 17 2e 30 bd 41 a4 6a f8 b6 2d f8 dc a4 a9
       66 -115 23 46 48 -67 65 -92 106 -8 -74 45 -8 -36 -92 -87
000010 fd 1a ee fa 27 1b d1 aa d6 b8 e9 2c e1 a2 0a 17
       -3 26 -18 -6 39 27 -47 -86 -42 -72 -23 44 -31 -94 10 23
000020 33 7f 34 fc 3b 23 de b2 22 d3 0a 22 f3 f8 2d 57
       51 127 52 -4 59 35 -34 -78 34 -45 10 34 -13 -8 45 87
000030 36 34 20 85 1b cf c1 0c f9 7f 56 d2 35 61 46 fb
       54 52 32 -123 27 -49 -63 12 -7 127 86 -46 53 97 70 -5
000040 26 e9 e4 f9 af 0c 09 f6 5d 4f f0 df 07 36 69 a8
       38 -23 -28 -7 -81 12 9 -10 93 79 -16 -33 7 54 105 -88
000050 26 18 0e 1b 15 73 1d 7f 80 e0 d2 dd 4a d0 04 d8
       38 24 14 27 21 115 29 127 -128 -32 -46 -35 74 -48 4 -40
000060 e7 00 e2 fe 0e f3 00 d8 d9 d4 1f 07 d5 ef 00 22
       -25 0 -30 -2 14 -13 0 -40 -39 -44 31 7 -43 -17 0 34
000070 05 f3 f7 5a 57 2c e1 c5 60 26 1b 02 1f f2 16 ed
       5 -13 -9 90 87 44 -31 -59 96 38 27 2 31 -14 22 -19
000080 dc 7f d9 a1 26 f6 ff 05 e4 e3 f9 c3 f1 f7 1b ea
       -36 127 -39 -95 38 -10 -1 5 -28 -29 -7 -61 -15 -9 27 -22
000090 fc f5 da fb e6 ef 11 e5 db 2a 02 2b 20 ff df 0f
       -4 -11 -38 -5 -26 -17 17 -27 -37 42 2 43 32 -1 -33 15
0000a0 cb 37 e1 39 69 e1 16 fe b7 d7 0c 22 21 13 11 27
       -53 55 -31 57 105 -31 22 -2 -73 -41 12 34 33 19 17 39
0000b0 2f 7f aa d5 87 48 ea 13 f5 a3 f1 bf c6 b4 fb d1
       47 127 -86 -43 -121 72 -22 19 -11 -93 -15 -65 -58 -76 -5 -47
0000c0 19 39 f7 22 f8 b5 16 13 06 00 0b d5 0d 06 dc 28
       25 57 -9 34 -8 -75 22 19 6 0 11 -43 13 6 -36 40
0000d0 ff 0d 7f ca 4a c1 df 02 fb de f9 32 ab e8 d1 c2
       -1 13 127 -54 74 -63 -33 2 -5 -34 -7 50 -85 -24 -47 -62
0000e0 0e 2c 3f 3a 46 1e fe 02 50 7f 04 e5 c8 08 11 fd
       14 44 63 58 70 30 -2 2 80 127 4 -27 -56 8 17 -3
0000f0 bd d4 d1 0b 08 e6 52 cb 63 8b d7 f7 27 7f d7 ea
       -67 -44 -47 11 8 -26 82 -53 99 -117 -41 -9 39 127 -41 -22

1365 i1 [1, 3, 144, 2] scale=0.062992126 zero_point=-128
000000 ff ff ff ff ff ff ff ff ff ff ff ff ff ff ff ff
       8.0 8.0 8.0 8.0 8.0 8.0 8.0 8.0 8.0 8.0 8.0 8.0 8.0 8.0 8.0 8.0
000010 ff ff ff ff ff ff ff ff ff ff ff ff ff ff ff ff
       8.0 8.0 8.0 8.0 8.0 8.0 8.0 8.0 8.0 8.0 8.0 8.0 8.0 8.0 8.0 8.0
000020 ff ff ff ff ff ff ff ff ff ff ff ff ff ff ff ff
       8.0 8.0 8.0 8.0 8.0 8.0 8.0 8.0 8.0 8.0 8.0 8.0 8.0 8.0 8.0 8.0
000030 ff ff ff ff ff ff ff ff ff ff ff ff ff ff ff ff
       8.0 8.0 8.0 8.0 8.0 8.0 8.0 8.0 8.0 8.0 8.0 8.0 8.0 8.0 8.0 8.0
000040 ff ff ff ff ff ff ff ff ff ff ff ff ff ff ff ff
       8.0 8.0 8.0 8.0 8.0 8.0 8.0 8.0 8.0 8.0 8.0 8.0 8.0 8.0 8.0 8.0
000050 ff ff ff ff ff ff ff ff ff ff ff ff ff ff ff ff
       8.0 8.0 8.0 8.0 8.0 8.0 8.0 8.0 8.0 8.0 8.0 8.0 8.0 8.0 8.0 8.0
000060 ff ff ff ff ff ff ff ff ff ff ff ff ff ff ff ff
       8.0 8.0 8.0 8.0 8.0 8.0 8.0 8.0 8.0 8.0 8.0 8.0 8.0 8.0 8.0 8.0
000070 ff ff ff ff ff ff ff ff ff ff ff ff ff ff ff ff
       8.0 8.0 8.0 8.0 8.0 8.0 8.0 8.0 8.0 8.0 8.0 8.0 8.0 8.0 8.0 8.0
000080 ff ff ff ff ff ff ff ff ff ff ff ff ff ff ff ff
       8.0 8.0 8.0 8.0 8.0 8.0 8.0 8.0 8.0 8.0 8.0 8.0 8.0 8.0 8.0 8.0
000090 ff ff ff ff ff ff ff ff ff ff ff ff ff ff ff ff
       8.0 8.0 8.0 8.0 8.0 8.0 8.0 8.0 8.0 8.0 8.0 8.0 8.0 8.0 8.0 8.0
0000a0 ff ff ff ff ff ff ff ff ff ff ff ff ff ff ff ff
       8.0 8.0 8.0 8.0 8.0 8.0 8.0 8.0 8.0 8.0 8.0 8.0 8.0 8.0 8.0 8.0
0000b0 ff ff ff ff ff ff ff ff ff ff ff ff ff ff ff ff
       8.0 8.0 8.0 8.0 8.0 8.0 8.0 8.0 8.0 8.0 8.0 8.0 8.0 8.0 8.0 8.0
0000c0 ff ff ff ff ff ff ff ff ff ff ff ff ff ff ff ff
       8.0 8.0 8.0 8.0 8.0 8.0 8.0 8.0 8.0 8.0 8.0 8.0 8.0 8.0 8.0 8.0
0000d0 ff ff ff ff ff ff ff ff ff ff ff ff ff ff ff ff
       8.0 8.0 8.0 8.0 8.0 8.0 8.0 8.0 8.0 8.0 8.0 8.0 8.0 8.0 8.0 8.0
0000e0 ff ff ff ff ff ff ff ff ff ff ff ff ff ff ff ff
       8.0 8.0 8.0 8.0 8.0 8.0 8.0 8.0 8.0 8.0 8.0 8.0 8.0 8.0 8.0 8.0
0000f0 ff ff ff ff ff ff ff ff ff ff ff ff ff ff ff ff
       8.0 8.0 8.0 8.0 8.0 8.0 8.0 8.0 8.0 8.0 8.0 8.0 8.0 8.0 8.0 8.0

fuse_attr_137 i1 [40, 1, 1, 40]
000000 52 f0 90 27 70 14 c8 b6 ef 11 c6 db 1e a1 f1 c9
       82 -16 -112 39 112 20 -56 -74 -17 17 -58 -37 30 -95 -15 -55
000010 ee cc e5 f3 dc 23 cd 12 33 09 80 d3 27 e4 d6 f3
       -18 -52 -27 -13 -36 35 -51 18 51 9 -128 -45 39 -28 -42 -13
000020 d2 dd ec dd bb eb 14 40 80 08 f3 f4 0e d4 f0 0b
       -46 -35 -20 -35 -69 -21 20 64 -128 8 -13 -12 14 -44 -16 11
000030 63 d4 d3 51 fd b3 f9 da d0 23 e5 06 24 ff e6 dd
       99 -44 -45 81 -3 -77 -7 -38 -48 35 -27 6 36 -1 -26 -35
000040 18 de 21 e7 0a f7 8c 0d ef 0a 12 0e fa f8 1e 00
       24 -34 33 -25 10 -9 -116 13 -17 10 18 14 -6 -8 30 0
000050 71 c9 9f d1 74 9f e1 ef 6e e3 70 fb d1 80 30 c7
       113 -55 -97 -47 116 -97 -31 -17 110 -29 112 -5 -47 -128 48 -57
000060 b6 c7 0d 91 76 0f de 0f 4c e3 29 49 08 39 20 a9
       -74 -57 13 -111 118 15 -34 15 76 -29 41 73 8 57 32 -87
000070 fc 00 18 18 f0 d1 04 f5 ac 32 0c 35 9b 4f 4c d4
       -4 0 24 24 -16 -47 4 -11 -84 50 12 53 -101 79 76 -44
000080 59 54 88 a1 ce f4 a7 f9 0c a7 c3 fe bd eb dd ec
       89 84 -120 -95 -50 -12 -89 -7 12 -89 -61 -2 -67 -21 -35 -20
000090 bc f1 c4 e6 1d 0b fc f7 25 fc 80 b7 f5 21 21 f2
       -68 -15 -60 -26 29 11 -4 -9 37 -4 -128 -73 -11 33 33 -14
0000a0 ec e8 1e db f7 ec e4 f8 da fa f8 0a f1 15 e0 dc
       -20 -24 30 -37 -9 -20 -28 -8 -38 -6 -8 10 -15 21 -32 -36
0000b0 e7 f9 e1 ff 04 fb fa 7f f7 1b 48 34 f5 f8 ef ea
       -25 -7 -31 -1 4 -5 -6 127 -9 27 72 52 -11 -8 -17 -22
0000c0 33 08 11 2c 11 09 43 fe 2a f9 fc 04 2d d6 cd fb
       51 8 17 44 17 9 67 -2 42 -7 -4 4 45 -42 -51 -5
0000d0 d4 dd 42 e1 ea 35 ee ee e3 30 d3 ea b4 c6 7f cf
       -44 -35 66 -31 -22 53 -18 -18 -29 48 -45 -22 -76 -58 127 -49
0000e0 1f bb 15 0e 35 32 c4 1c 15 1b d9 e9 16 02 90 00
       31 -69 21 14 53 50 -60 28 21 27 -39 -23 22 2 -112 0
0000f0 c9 6f ba 15 80 16 35 d0 c9 4c a7 af ed d8 c8 bd
       -55 111 -70 21 -128 22 53 -48 -55 76 -89 -81 -19 -40 -56 -67

fuse_attr_109 i1 [40, 1, 1, 80]
000000 44 12 0d 98 cb 1c f2 bf 12 04 4e 57 d7 c0 25 07
       68 18 13 -104 -53 28 -14 -65 18 4 78 87 -41 -64 37 7
000010 cb e2 29 e4 f0 37 d3 fb 3d 35 0c ad eb 0c 74 25
       -53 -30 41 -28 -16 55 -45 -5 61 53 12 -83 -21 12 116 37
000020 b6 f8 35 d0 f3 0c da f7 fa ec f7 24 64 7f a8 4c
       -74 -8 53 -48 -13 12 -38 -9 -6 -20 -9 36 100 127 -88 76
000030 01 07 04 c3 14 05 15 10 ee e2 f8 d0 88 ef 39 2c
       1 7 4 -61 20 5 21 16 -18 -30 -8 -48 -120 -17 57 44
000040 d7 29 0a c5 c0 03 ee c1 d1 2d db 76 0d d8 be e2
       -41 41 10 -59 -64 3 -18 -63 -47 45 -37 118 13 -40 -66 -30
000050 dd d0 2b e4 ed d5 bb 36 f3 1b be e1 2d e2 f9 7f
       -35 -48 43 -28 -19 -43 -69 54 -13 27 -66 -31 45 -30 -7 127
000060 a2 22 22 0d e0 ba e3 a4 03 09 f4 ab c9 bb bd e0
       -94 34 34 13 -32 -70 -29 -92 3 9 -12 -85 -55 -69 -67 -32
000070 fc fa 01 00 b2 db 01 04 ee 0e c3 0f f9 aa 09 db
       -4 -6 1 0 -78 -37 1 4 -18 14 -61 15 -7 -86 9 -37
000080 b0 e3 23 2c 37 5f e6 f6 cf be de 1a 1e 2f da db
       -80 -29 35 44 55 95 -26 -10 -49 -66 -34 26 30 47 -38 -37
000090 bd f1 18 f9 f6 f5 b1 6e d0 dc be 0c df 0b a9 d9
       -67 -15 24 -7 -10 -11 -79 110 -48 -36 -66 12 -33 11 -87 -39
0000a0 d7 fa 17 13 e7 6d f6 d6 21 d5 d0 1b ff 35 00 15
       -41 -6 23 19 -25 109 -10 -42 33 -43 -48 27 -1 53 0 21
0000b0 e6 f5 f8 fa 19 4f d7 ea 6c da 11 b1 39 32 fc 7f
       -26 -11 -8 -6 25 79 -41 -22 108 -38 17 -79 57 50 -4 127
0000c0 3b 12 e7 e1 16 d0 c0 15 1c ea 20 e8 26 e4 ee 4b
       59 18 -25 -31 22 -48 -64 21 28 -22 32 -24 38 -28 -18 75
0000d0 55 f0 d3 e5 b8 d4 05 0b 70 41 de 39 d7 0b e6 ec
       85 -16 -45 -27 -72 -44 5 11 112 65 -34 57 -41 11 -26 -20
0000e0 b2 fc 08 eb 21 25 f0 0d 20 e9 10 17 12 e1 2e 48
       -78 -4 8 -21 33 37 -16 13 32 -23 16 23 18 -31 46 72
0000f0 f5 f1 fa fd f0 d2 0d 01 aa 3c 1f d5 f3 d0 fb d4
       -11 -15 -6 -3 -16 -46 13 1 -86 60 31 -43 -13 -48 -5 -44

fuse_attr_108 i1 [80, 3, 3, 40]
000000 0a fb d0 f3 11 0a f3 dc 05 ef 1c 12 ec 25 c2 fb
       10 -5 -48 -13 17 10 -13 -36 5 -17 28 18 -20 37 -62 -5
000010 0a ff f6 16 03 cf dd 9c 05 ee bf c1 1b 03 c1 ec
       10 -1 -10 22 3 -49 -35 -100 5 -18 -65 -63 27 3 -63 -20
000020 c1 2e f0 b1 d0 f8 ce 2c ff 16 00 fa f8 ff fd f1
       -63 46 -16 -79 -48 -8 -50 44 -1 22 0 -6 -8 -1 -3 -15
000030 05 f2 d5 2b 05 1d f2 10 08 f1 f9 ef 08 0e d8 d6
       5 -14 -43 43 5 29 -14 16 8 -15 -7 -17 8 14 -40 -42
000040 d7 d9 fc e6 e6 dd e4 2e e1 09 f8 ea 03 ee 0f 26
       -41 -39 -4 -26 -26 -35 -28 46 -31 9 -8 -22 3 -18 15 38
000050 f1 f7 e4 f6 ea 09 fb fb 16 f2 db fd eb f1 0b 1b
       -15 -9 -28 -10 -22 9 -5 -5 22 -14 -37 -3 -21 -15 11 27
000060 e8 e8 e7 02 f5 05 ec 2f ce bd eb 00 dd c0 12 1a
       -24 -24 -25 2 -11 5 -20 47 -50 -67 -21 0 -35 -64 18 26
000070 fb 0d 0c 37 00 e8 2e 2f f6 dc 16 02 f1 f5 f8 e7
       -5 13 12 55 0 -24 46 47 -10 -36 22 2 -15 -11 -8 -25
000080 12 e2 33 f4 fc eb 09 f4 f2 06 f6 08 f4 e2 07 da
       18 -30 51 -12 -4 -21 9 -12 -14 6 -10 8 -12 -30 7 -38
000090 19 fe c6 ea 43 28 d3 41 d4 38 e9 08 01 f1 da 22
       25 -2 -58 -22 67 40 -45 65 -44 56 -23 8 1 -15 -38 34
0000a0 ed f4 c9 07 e5 e1 0b dd 08 e6 ed 0e f5 10 37 f9
       -19 -12 -55 7 -27 -31 11 -35 8 -26 -19 14 -11 16 55 -7
0000b0 02 ef fe db 1d f6 f7 f2 1a e3 ff ec 1a eb d4 35
       2 -17 -2 -37 29 -10 -9 -14 26 -29 -1 -20 26 -21 -44 53
0000c0 dd 01 1d 45 11 f0 ff 23 c7 dc 12 ee bb 0f 12 02
       -35 1 29 69 17 -16 -1 35 -57 -36 18 -18 -69 15 18 2
0000d0 f9 11 ca e7 e0 de 0d 27 19 d7 1e f7 03 e2 e3 40
       -7 17 -54 -25 -32 -34 13 39 25 -41 30 -9 3 -30 -29 64
0000e0 e1 ea f6 fe f5 e2 02 07 d8 41 02 7f 10 c8 1b 1c
       -31 -22 -10 -2 -11 -30 2 7 -40 65 2 127 16 -56 27 28
0000f0 ee 0f 13 03 b6 07 fb de 2d ff 06 e1 f4 b9 34 e4
       -18 15 19 3 -74 7 -5 -34 45 -1 6 -31 -12 -71 52 -28

fuse_attr_123 i1 [160, 1, 1, 160]
000000 d9 59 b2 0b f7 35 e4 96 b3 f6 44 7f 20 0c 39 e5
       -39 89 -78 11 -9 53 -28 -106 -77 -10 68 127 32 12 57 -27
000010 a5 2b df 16 20 75 56 bd 2f 2b c2 da d8 c4 f9 93
       -91 43 -33 22 32 117 86 -67 47 43 -62 -38 -40 -60 -7 -109
000020 d6 50 1f 46 d9 2c 59 d7 c2 8e cd fe 05 dd 88 d9
       -42 80 31 70 -39 44 89 -41 -62 -114 -51 -2 5 -35 -120 -39
000030 2b f7 20 d4 d3 2c 44 b7 48 a8 b8 13 16 fe f1 3a
       43 -9 32 -44 -45 44 68 -73 72 -88 -72 19 22 -2 -15 58
000040 71 01 3a 62 bf 02 15 33 18 ef 11 28 d1 b1 d0 dd
       113 1 58 98 -65 2 21 51 24 -17 17 40 -47 -79 -48 -35
000050 fa 67 17 26 0d 20 d7 09 f1 49 f5 ae f1 4b db 06
       -6 103 23 38 13 32 -41 9 -15 73 -11 -82 -15 75 -37 6
000060 c6 95 1c e4 cb 26 3a 24 d8 3a d0 12 f3 1d 1d fc
       -58 -107 28 -28 -53 38 58 36 -40 58 -48 18 -13 29 29 -4
000070 28 0f 81 e8 f1 2a d4 f1 f6 e7 17 b8 e0 f9 35 3c
       40 15 -127 -24 -15 42 -44 -15 -10 -25 23 -72 -32 -7 53 60
000080 d0 12 ce a1 51 46 f2 e7 d3 a0 29 f4 f3 09 ef 2c
       -48 18 -50 -95 81 70 -14 -25 -45 -96 41 -12 -13 9 -17 44
000090 d5 09 4a ed f8 5c 0d 1c 39 fc 2c 1a da 8e bc f3
       -43 9 74 -19 -8 92 13 28 57 -4 44 26 -38 -114 -68 -13
0000a0 f8 15 ce b3 29 e9 e1 bb cb fa ec 0a e1 e7 df d1
       -8 21 -50 -77 41 -23 -31 -69 -53 -6 -20 10 -31 -25 -33 -47
0000b0 79 ff 04 2b ea 38 cd f8 d2 4a 0e df 1a 56 dd d7
       121 -1 4 43 -22 56 -51 -8 -46 74 14 -33 26 86 -35 -41
0000c0 6a c9 28 00 df 45 80 e5 3b 16 a0 41 e4 ff 60 f5
       106 -55 40 0 -33 69 -128 -27 59 22 -96 65 -28 -1 96 -11
0000d0 df 27 af de 28 20 21 29 fc c1 41 10 00 0a ca 95
       -33 39 -81 -34 40 32 33 41 -4 -63 65 16 0 10 -54 -107
0000e0 c5 28 f0 aa 23 c6 12 42 1e 22 4c de 30 f8 fa 17
       -59 40 -16 -86 35 -58 18 66 30 34 76 -34 48 -8 -6 23
0000f0 2e 13 f8 c8 ef 0d e1 d2 1b eb b3 18 f7 ca 32 40
       46 19 -8 -56 -17 13 -31 -46 27 -21 -77 24 -9 -54 50 64

fuse_attr_124 i1 [80, 1, 1, 160]
000000 2c 10 13 e4 cb 12 da 59 c3 f0 15 0c c4 ed e8 02
       44 16 19 -28 -53 18 -38 89 -61 -16 21 12 -60 -19 -24 2
000010 e5 d9 e4 0d 09 db fb f4 23 3c 0f f7 f9 ea fa bf
       -27 -39 -28 13 9 -37 -5 -12 35 60 15 -9 -7 -22 -6 -65
000020 de c1 ff bf 59 fe 05 07 f0 14 0b d1 ed ec f1 d8
       -34 -63 -1 -65 89 -2 5 7 -16 20 11 -47 -19 -20 -15 -40
000030 c0 3a fe d8 2b 08 ee b4 d2 ff 40 e7 c0 f3 00 d7
       -64 58 -2 -40 43 8 -18 -76 -46 -1 64 -25 -64 -13 0 -41
000040 ec 11 21 1c f9 dd f4 04 f2 f4 df c0 13 ef cb 21
       -20 17 33 28 -7 -35 -12 4 -14 -12 -33 -64 19 -17 -53 33
000050 02 1d bf 09 7b 34 0a e3 f2 bb f6 57 f2 26 eb 01
       2 29 -65 9 123 52 10 -29 -14 -69 -10 87 -14 38 -21 1
000060 08 dc 2c b9 00 df c5 f8 f8 cf d9 f2 ee 1c f5 3d
       8 -36 44 -71 0 -33 -59 -8 -8 -49 -39 -14 -18 28 -11 61
000070 d3 ed 60 3d d6 f9 08 db c8 da 1f 1d c8 e2 0f 24
       -45 -19 96 61 -42 -7 8 -37 -56 -38 31 29 -56 -30 15 36
000080 0c 31 bd 78 ee b9 d2 c9 01 12 3c f3 ed 34 e5 f4
       12 49 -67 120 -18 -71 -46 -55 1 18 60 -13 -19 52 -27 -12
000090 bf d1 3c 48 f3 33 ef f4 1f df 04 e6 fa 7f 02 bc
       -65 -47 60 72 -13 51 -17 -12 31 -33 4 -26 -6 127 2 -68
0000a0 52 d2 f5 bc 0a e4 e4 11 fc cd 4d c9 17 13 df e6
       82 -46 -11 -68 10 -28 -28 17 -4 -51 77 -55 23 19 -33 -26
0000b0 05 ca ed ea f6 f9 09 e6 b8 18 b7 1b de ec 1a 41
       5 -54 -19 -22 -10 -7 9 -26 -72 24 -73 27 -34 -20 26 65
0000c0 c3 d5 e6 fa 37 09 be 3e ae fd de fa f4 d1 d5 d4
       -61 -43 -26 -6 55 9 -66 62 -82 -3 -34 -6 -12 -47 -43 -44
0000d0 d3 5c db d4 d4 09 03 4a dd 2b ef 04 ca d4 bb 1b
       -45 92 -37 -44 -44 9 3 74 -35 43 -17 4 -54 -44 -69 27
0000e0 09 49 5a e2 01 27 c9 f9 d4 0e da 2d d0 32 e0 ec
       9 73 90 -30 1 39 -55 -7 -44 14 -38 45 -48 50 -32 -20
0000f0 c1 64 ad ed f9 5e 04 d8 0b bf c8 c4 f2 12 02 ec
       -63 100 -83 -19 -7 94 4 -40 11 -65 -56 -60 -14 18 2 -20

fuse_attr_107 i1 [40, 1, 1, 40]
000000 fa 0d 82 d4 ea 05 1b 27 05 12 2a 44 7f 97 17 40
       -6 13 -126 -44 -22 5 27 39 5 18 42 68 127 -105 23 64
000010 05 63 f8 0f 06 ef 35 1d 2a 00 fa cc ce 02 f2 fd
       5 99 -8 15 6 -17 53 29 42 0 -6 -52 -50 2 -14 -3
000020 15 f7 04 ed bf d2 d3 06 4d ea 06 bc 24 fd 7f af
       21 -9 4 -19 -65 -46 -45 6 77 -22 6 -68 36 -3 127 -81
000030 da 55 20 0a 0e b5 f9 0e 0d a9 17 48 dd cc 04 0f
       -38 85 32 10 14 -75 -7 14 13 -87 23 72 -35 -52 4 15
000040 08 3c db 03 f7 04 20 12 22 28 30 ff 2e 0c 04 e5
       8 60 -37 3 -9 4 32 18 34 40 48 -1 46 12 4 -27
000050 fe a4 38 a2 54 44 bd b9 be 0a 18 0c f1 c3 d4 df
       -2 -92 56 -94 84 68 -67 -71 -66 10 24 12 -15 -61 -44 -33
000060 71 23 ea 80 30 2a f7 37 03 e7 41 ee 2f 2d 98 fa
       113 35 -22 -128 48 42 -9 55 3 -25 65 -18 47 45 -104 -6
000070 e1 02 ee 13 08 0f e8 de ce 71 4e 20 d8 2b 0a b8
       -31 2 -18 19 8 15 -24 -34 -50 113 78 32 -40 43 10 -72
000080 ea ae d9 8e a5 a1 3d 7f c0 32 d8 4d de 16 dd ec
       -22 -82 -39 -114 -91 -95 61 127 -64 50 -40 77 -34 22 -35 -20
000090 ca f7 ce e0 fe 06 ea 1b 0b 35 e1 e6 00 17 de f0
       -54 -9 -50 -32 -2 6 -22 27 11 53 -31 -26 0 23 -34 -16
0000a0 0c 27 ba ba b7 e9 28 92 c9 be 40 61 b5 be 27 02
       12 39 -70 -70 -73 -23 40 -110 -55 -66 64 97 -75 -66 39 2
0000b0 ba 7f 1f 00 f8 cc 00 00 e9 cd de e0 11 de 09 2a
       -70 127 31 0 -8 -52 0 0 -23 -51 -34 -32 17 -34 9 42
0000c0 ef f7 fe d0 35 2f 58 ab f3 cc ae fb da c9 f1 a4
       -17 -9 -2 -48 53 47 88 -85 -13 -52 -82 -5 -38 -55 -15 -92
0000d0 f3 15 05 d8 f5 e2 d5 ee c7 ee f5 aa e9 eb 04 d5
       -13 21 5 -40 -11 -30 -43 -18 -57 -18 -11 -86 -23 -21 4 -43
0000e0 e1 ee 1f 11 f9 13 7f 08 13 ff d8 29 c2 e3 30 10
       -31 -18 31 17 -7 19 127 8 19 -1 -40 41 -62 -29 48 16
0000f0 c4 e4 e3 00 d5 11 bd cb f4 f0 e2 f1 e0 cb 15 e0
       -60 -28 -29 0 -43 17 -67 -53 -12 -16 -30 -15 -32 -53 21 -32

fuse_attr_128 i1 [40, 1, 1, 160]
000000 10 35 0b f9 eb 11 0e 2a 27 0e 18 fa 0b e6 33 ed
       16 53 11 -7 -21 17 14 42 39 14 24 -6 11 -26 51 -19
000010 e7 e8 17 2a fa d5 20 d0 ef f0 e5 e9 c9 ea 12 f5
       -25 -24 23 42 -6 -43 32 -48 -17 -16 -27 -23 -55 -22 18 -11
000020 de 18 fa ea 1a 0a 18 f8 1e d5 19 1a 1a f0 fa e5
       -34 24 -6 -22 26 10 24 -8 30 -43 25 26 26 -16 -6 -27
000030 f8 1a 0e ea f2 24 dc eb f4 e8 dc f1 17 e6 fa 15
       -8 26 14 -22 -14 36 -36 -21 -12 -24 -36 -15 23 -26 -6 21
000040 ed cd ec d6 3b 18 0d f8 e3 14 18 e1 ca ef 12 db
       -19 -51 -20 -42 59 24 13 -8 -29 20 24 -31 -54 -17 18 -37
000050 2b 40 ea ee d6 a2 fb fb 04 07 9a e7 bd 33 db a6
       43 64 -22 -18 -42 -94 -5 -5 4 7 -102 -25 -67 51 -37 -90
000060 f5 58 d0 1b cd 6b 00 de fc c8 74 f1 e7 09 4a b5
       -11 88 -48 27 -51 107 0 -34 -4 -56 116 -15 -25 9 74 -75
000070 de fd bd fc 2a db 07 06 9b d4 bb e0 c9 be ad 6b
       -34 -3 -67 -4 42 -37 7 6 -101 -44 -69 -32 -55 -66 -83 107
000080 e4 e4 ff c1 cd de d5 f0 4e 1c f9 4a fa 80 b4 ae
       -28 -28 -1 -63 -51 -34 -43 -16 78 28 -7 74 -6 -128 -76 -82
000090 f1 0d ee d1 ae 27 e0 0a f7 29 e6 27 04 c2 32 c5
       -15 13 -18 -47 -82 39 -32 10 -9 41 -26 39 4 -62 50 -59
0000a0 06 03 0c 04 fc 10 0e fe dd 08 14 00 07 f4 ef 06
       6 3 12 4 -4 16 14 -2 -35 8 20 0 7 -12 -17 6
0000b0 00 f8 fe e2 06 12 fe eb f6 01 f6 09 fc 04 15 0e
       0 -8 -2 -30 6 18 -2 -21 -10 1 -10 9 -4 4 21 14
0000c0 0d 20 0e 02 1c e7 fc 16 0f f7 02 0c f7 f8 0f 08
       13 32 14 2 28 -25 -4 22 15 -9 2 12 -9 -8 15 8
0000d0 02 d7 00 fa f2 0b 0f 00 09 09 fa 18 fc dd 06 03
       2 -41 0 -6 -14 11 15 0 9 9 -6 24 -4 -35 6 3
0000e0 fa e5 f6 fa ff 0a 08 07 fc 0c 0a fe ea fe eb f0
       -6 -27 -10 -6 -1 10 8 7 -4 12 10 -2 -22 -2 -21 -16
0000f0 fb d6 7b 5d c9 ea 1b c5 03 d3 fd 04 37 ca d5 80
       -5 -42 123 93 -55 -22 27 -59 3 -45 -3 4 55 -54 -43 -128

fuse_attr_93 i1 [16, 6, 6, 3]
000000 19 6d 60 07 59 2f f6 56 2b fd 4c 22 14 59 41 13
       25 109 96 7 89 47 -10 86 43 -3 76 34 20 89 65 19
000010 49 45 ff 49 36 f5 44 09 ed 41 12 f4 4b 11 f4 47
       73 69 -1 73 54 -11 68 9 -19 65 18 -12 75 17 -12 71
000020 27 d0 16 1d 04 53 35 f9 47 1a fc 5b 26 fe 50 29
       39 -48 22 29 4 83 53 -7 71 26 -4 91 38 -2 80 41
000030 ed 32 27 ba f9 10 de 2b 1b cd 1e f8 d0 28 07 c3
       -19 50 39 -70 -7 16 -34 43 27 -51 30 -8 -48 40 7 -61
000040 1f 0f b6 06 0f b9 f3 0e e0 1b 3c bc ff 08 a9 ee
       31 15 -74 6 15 -71 -13 14 -32 27 60 -68 -1 8 -87 -18
000050 01 a9 f4 07 b8 fd 21 d8 f8 28 9c ca f7 86 bc db
       1 -87 -12 7 -72 -3 33 -40 -8 40 -100 -54 -9 -122 -68 -37
000060 80 b1 c6 8e bc cd 9c ca e9 b5 c5 e8 3e fe d2 3a
       -128 -79 -58 -114 -68 -51 -100 -54 -23 -75 -59 -24 62 -2 -46 58
000070 12 d1 0e 1a ce fd 23 d9 10 23 e6 23 03 d6 1d fe
       18 -47 14 26 -50 -3 35 -39 16 35 -26 35 3 -42 29 -2
000080 df fe 06 dd bf 14 ea b4 30 0b d4 32 18 ea 06 f8
       -33 -2 6 -35 -65 20 -22 -76 48 11 -44 50 24 -22 6 -8
000090 f7 00 ea cc 17 fe 92 41 2d 86 62 58 a1 57 52 bd
       -9 0 -22 -52 23 -2 -110 65 45 -122 98 88 -95 87 82 -67
0000a0 1d 1c f3 0a f2 cf 24 0d 92 4d 39 80 63 54 94 4c
       29 28 -13 10 -14 -49 36 13 -110 77 57 -128 99 84 -108 76
0000b0 44 be 1c 16 0b fc e3 f6 1d 01 c1 38 1a a7 35 17
       68 -66 28 22 11 -4 -29 -10 29 1 -63 56 26 -89 53 23
0000c0 b9 20 07 f4 14 fd 27 fa d8 29 1f f1 f9 29 f0 e4
       -71 32 7 -12 20 -3 39 -6 -40 41 31 -15 -7 41 -16 -28
0000d0 1d df fb 10 d9 31 0a d7 fe 10 0e ed 06 ff cc ea
       29 -33 -5 16 -39 49 10 -41 -2 16 14 -19 6 -1 -52 -22
0000e0 d6 c7 e0 c4 db f4 d4 ec 14 fd 02 11 15 f9 11 08
       -42 -57 -32 -60 -37 -12 -44 -20 20 -3 2 17 21 -7 17 8
0000f0 e8 fc e0 ed f7 d1 f3 05 e0 f2 1b 08 e2 e3 f0 d9
       -24 -4 -32 -19 -9 -47 -13 5 -32 -14 27 8 -30 -29 -16 -39

fuse_attr_138 i1 [40, 3, 3, 40]
000000 d7 0c fe e6 fa 22 13 00 f8 28 13 f4 2f ed 04 10
       -41 12 -2 -26 -6 34 19 0 -8 40 19 -12 47 -19 4 16
000010 06 1b ff e5 23 0f 03 fa f0 29 18 1d f3 18 05 25
       6 27 -1 -27 35 15 3 -6 -16 41 24 29 -13 24 5 37
000020 ea 02 0c f9 16 04 03 f8 17 fb db 0b 0d 1b f2 02
       -22 2 12 -7 22 4 3 -8 23 -5 -37 11 13 27 -14 2
000030 df 2a f7 fd 07 ec de ff f7 ec f9 d8 07 d5 14 ff
       -33 42 -9 -3 7 -20 -34 -1 -9 -20 -7 -40 7 -43 20 -1
000040 ed 10 0e ca 00 eb fe fd e5 d0 10 1a 04 0a f1 f1
       -19 16 14 -54 0 -21 -2 -3 -27 -48 16 26 4 10 -15 -15
000050 e1 fc a8 1f 0d cc 17 da 28 f6 f4 c0 ac ce d7 05
       -31 -4 -88 31 13 -52 23 -38 40 -10 -12 -64 -84 -50 -41 5
000060 ec 17 4f 3c 27 d4 1a ef f8 19 ca f6 ec cc 1e cd
       -20 23 79 60 39 -44 26 -17 -8 25 -54 -10 -20 -52 30 -51
000070 01 d9 18 3a 0d 19 e4 0f 0c 5b c8 d9 13 24 f1 35
       1 -39 24 58 13 25 -28 15 12 91 -56 -39 19 36 -15 53
000080 d4 15 0b 08 20 01 ed 43 29 1b e4 fa 10 23 08 e1
       -44 21 11 8 32 1 -19 67 41 27 -28 -6 16 35 8 -31
000090 1b 08 f9 00 19 cc cf f6 d2 f2 ff d8 35 1a f1 36
       27 8 -7 0 25 -52 -49 -10 -46 -14 -1 -40 53 26 -15 54
0000a0 21 fe e5 14 09 f3 fc f1 1d ef 10 e0 ee 0e 8c 12
       33 -2 -27 20 9 -13 -4 -15 29 -17 16 -32 -18 14 -116 18
0000b0 39 f7 ea b3 0d fa 29 d8 c4 e7 22 11 ec 1a e2 19
       57 -9 -22 -77 13 -6 41 -40 -60 -25 34 17 -20 26 -30 25
0000c0 ef ec f0 c5 47 30 d9 20 e5 d6 8e 1c 1c f2 44 cf
       -17 -20 -16 -59 71 48 -39 32 -27 -42 -114 28 28 -14 68 -49
0000d0 40 ff cf 06 0a 1b 09 fe ef 00 4e 7c 51 8f 03 26
       64 -1 -49 6 10 27 9 -2 -17 0 78 124 81 -113 3 38
0000e0 01 1f ad e3 f1 b4 26 e6 03 fd f0 4d e4 23 2b c3
       1 31 -83 -29 -15 -76 38 -26 3 -3 -16 77 -28 35 43 -61
0000f0 7d 37 fb ec ff 14 de 2d af 09 51 01 3d 0c 3e 3a
       125 55 -5 -20 -1 20 -34 45 -81 9 81 1 61 12 62 58

1349 i1 [1, 3, 144, 2] scale=0.08657188 zero_point=-128
000000 80 80 8c 80 97 80 a3 80 ae 80 ba 80 c5 80 d1 80
       0.0 0.0 1.0388626 0.0 1.9911532 0.0 3.0300157 0.0 3.9823065 0.0 5.021169 0.0 5.9734597 0.0 7.0123224 0.0
000010 dc 80 e8 80 f4 80 ff 80 80 8c 8c 8c 97 8c a3 8c
       7.964613 0.0 9.003475 0.0 10.042338 0.0 10.994629 0.0 0.0 1.0388626 1.0388626 1.0388626 1.9911532 1.0388626 3.0300157 1.0388626
000020 ae 8c ba 8c c5 8c d1 8c dc 8c e8 8c f4 8c ff 8c
       3.9823065 1.0388626 5.021169 1.0388626 5.9734597 1.0388626 7.0123224 1.0388626 7.964613 1.0388626 9.003475 1.0388626 10.042338 1.0388626 10.994629 1.0388626
000030 80 97 8c 97 97 97 a3 97 ae 97 ba 97 c5 97 d1 97
       0.0 1.9911532 1.0388626 1.9911532 1.9911532 1.9911532 3.0300157 1.9911532 3.9823065 1.9911532 5.021169 1.9911532 5.9734597 1.9911532 7.0123224 1.9911532
000040 dc 97 e8 97 f4 97 ff 97 80 a3 8c a3 97 a3 a3 a3
       7.964613 1.9911532 9.003475 1.9911532 10.042338 1.9911532 10.994629 1.9911532 0.0 3.0300157 1.0388626 3.0300157 1.9911532 3.0300157 3.0300157 3.0300157
000050 ae a3 ba a3 c5 a3 d1 a3 dc a3 e8 a3 f4 a3 ff a3
       3.9823065 3.0300157 5.021169 3.0300157 5.9734597 3.0300157 7.0123224 3.0300157 7.964613 3.0300157 9.003475 3.0300157 10.042338 3.0300157 10.994629 3.0300157
000060 80 ae 8c ae 97 ae a3 ae ae ae ba ae c5 ae d1 ae
       0.0 3.9823065 1.0388626 3.9823065 1.9911532 3.9823065 3.0300157 3.9823065 3.9823065 3.9823065 5.021169 3.9823065 5.9734597 3.9823065 7.0123224 3.9823065
000070 dc ae e8 ae f4 ae ff ae 80 ba 8c ba 97 ba a3 ba
       7.964613 3.9823065 9.003475 3.9823065 10.042338 3.9823065 10.994629 3.9823065 0.0 5.021169 1.0388626 5.021169 1.9911532 5.021169 3.0300157 5.021169
000080 ae ba ba ba c5 ba d1 ba dc ba e8 ba f4 ba ff ba
       3.9823065 5.021169 5.021169 5.021169 5.9734597 5.021169 7.0123224 5.021169 7.964613 5.021169 9.003475 5.021169 10.042338 5.021169 10.994629 5.021169
000090 80 c5 8c c5 97 c5 a3 c5 ae c5 ba c5 c5 c5 d1 c5
       0.0 5.9734597 1.0388626 5.9734597 1.9911532 5.9734597 3.0300157 5.9734597 3.9823065 5.9734597 5.021169 5.9734597 5.9734597 5.9734597 7.0123224 5.9734597
0000a0 dc c5 e8 c5 f4 c5 ff c5 80 d1 8c d1 97 d1 a3 d1
       7.964613 5.9734597 9.003475 5.9734597 10.042338 5.9734597 10.994629 5.9734597 0.0 7.0123224 1.0388626 7.0123224 1.9911532 7.0123224 3.0300157 7.0123224
0000b0 ae d1 ba d1 c5 d1 d1 d1 dc d1 e8 d1 f4 d1 ff d1
       3.9823065 7.0123224 5.021169 7.0123224 5.9734597 7.0123224 7.0123224 7.0123224 7.964613 7.0123224 9.003475 7.0123224 10.042338 7.0123224 10.994629 7.0123224
0000c0 80 dc 8c dc 97 dc a3 dc ae dc ba dc c5 dc d1 dc
       0.0 7.964613 1.0388626 7.964613 1.9911532 7.964613 3.0300157 7.964613 3.9823065 7.964613 5.021169 7.964613 5.9734597 7.964613 7.0123224 7.964613
0000d0 dc dc e8 dc f4 dc ff dc 80 e8 8c e8 97 e8 a3 e8
       7.964613 7.964613 9.003475 7.964613 10.042338 7.964613 10.994629 7.964613 0.0 9.003475 1.0388626 9.003475 1.9911532 9.003475 3.0300157 9.003475
0000e0 ae e8 ba e8 c5 e8 d1 e8 dc e8 e8 e8 f4 e8 ff e8
       3.9823065 9.003475 5.021169 9.003475 5.9734597 9.003475 7.0123224 9.003475 7.964613 9.003475 9.003475 9.003475 10.042338 9.003475 10.994629 9.003475
0000f0 80 f4 8c f4 97 f4 a3 f4 ae f4 ba f4 c5 f4 d1 f4
       0.0 10.042338 1.0388626 10.042338 1.9911532 10.042338 3.0300157 10.042338 3.9823065 10.042338 5.021169 10.042338 5.9734597 10.042338 7.0123224 10.042338

fuse_attr_135 i1 [20, 1, 1, 20]
000000 20 20 6d 05 ae fa 2b 9d b8 b2 7f e9 42 0a 44 09
       32 32 109 5 -82 -6 43 -99 -72 -78 127 -23 66 10 68 9
000010 2c eb 67 b4 7f 9c 15 29 ee eb c6 a4 bb 54 db 60
       44 -21 103 -76 127 -100 21 41 -18 -21 -58 -92 -69 84 -37 96
000020 06 f7 64 c6 3c d2 14 14 09 31 f5 d7 14 76 7f af
       6 -9 100 -58 60 -46 20 20 9 49 -11 -41 20 118 127 -81
000030 35 cc 63 dd cc b9 aa 01 ed cc dc dc 7f 09 b3 b0
       53 -52 99 -35 -52 -71 -86 1 -19 -52 -36 -36 127 9 -77 -80
000040 1d a1 04 cd d4 be 31 bb ee 22 58 ef 15 d3 2d a2
       29 -95 4 -51 -44 -66 49 -69 -18 34 88 -17 21 -45 45 -94
000050 40 96 e5 c1 e3 f7 ef be bf f3 0a 1d 40 4b 27 31
       64 -106 -27 -63 -29 -9 -17 -66 -65 -13 10 29 64 75 39 49
000060 7f a4 60 d1 e6 c5 49 89 19 14 d5 80 02 05 23 97
       127 -92 96 -47 -26 -59 73 -119 25 20 -43 -128 2 5 35 -105
000070 08 32 5c 5c 2c cb cd c5 f1 44 e0 e1 7f e6 05 4c
       8 50 92 92 44 -53 -51 -59 -15 68 -32 -31 127 -26 5 76
000080 fe 2d 1e 8d d5 b3 0f f7 d6 ee 09 17 fe 84 d0 d8
       -2 45 30 -115 -43 -77 15 -9 -42 -18 9 23 -2 -124 -48 -40
000090 57 24 b2 06 0b af 2a bb 3e 2d 7f e3 e3 cc eb cc
       87 36 -78 6 11 -81 42 -69 62 45 127 -29 -29 -52 -21 -52
0000a0 2d c6 0b c2 c0 e0 e9 c6 0e d4 b7 7a 7f f3 ea f4
       45 -58 11 -62 -64 -32 -23 -58 14 -44 -73 122 127 -13 -22 -12
0000b0 17 5b eb bb d6 f6 c6 d2 f4 cd 19 ea be dc 03 e5
       23 91 -21 -69 -42 -10 -58 -46 -12 -51 25 -22 -66 -36 3 -27
0000c0 e3 b3 55 57 b0 ff e8 80 e0 e8 42 e0 d8 95 3a fa
       -29 -77 85 87 -80 -1 -24 -128 -32 -24 66 -32 -40 -107 58 -6
0000d0 ee a5 c3 7f f3 fd 3e 62 2e dc dc c2 ab dc 3a 22
       -18 -91 -61 127 -13 -3 62 98 46 -36 -36 -62 -85 -36 58 34
0000e0 86 99 40 2c f0 0f 84 d4 7f 6b a7 f3 c6 d6 b9 eb
       -122 -103 64 44 -16 15 -124 -44 127 107 -89 -13 -58 -42 -71 -21
0000f0 14 7f 41 25 d1 0c 36 cc be 3c 13 07 c7 37 c1 4d
       20 127 65 37 -47 12 54 -52 -66 60 19 7 -57 55 -63 77

fuse_attr_122 i1 [80, 3, 3, 80]
000000 da 40 f4 fa 27 0e 03 f9 1b cd 0e 35 fa 08 f0 18
       -38 64 -12 -6 39 14 3 -7 27 -51 14 53 -6 8 -16 24
000010 ef ea e8 2a d2 05 36 fc 3a ec 26 07 2f 0d fb fb
       -17 -22 -24 42 -46 5 54 -4 58 -20 38 7 47 13 -5 -5
000020 f6 4a ff 1d 0e dc 0b cd f8 e3 e8 02 e4 1d d6 ce
       -10 74 -1 29 14 -36 11 -51 -8 -29 -24 2 -28 29 -42 -50
000030 21 36 11 28 24 d3 0e 43 2e f6 33 3e c9 db ce d6
       33 54 17 40 36 -45 14 67 46 -10 51 62 -55 -37 -50 -42
000040 e3 e7 02 e2 1f d6 f5 03 e6 d6 e3 55 f0 10 de 3d
       -29 -25 2 -30 31 -42 -11 3 -26 -42 -29 85 -16 16 -34 61
000050 ea fe 0b e2 f8 05 14 09 3d 01 0b 22 29 3c f7 ed
       -22 -2 11 -30 -8 5 20 9 61 1 11 34 41 60 -9 -19
000060 d3 47 ee da ea 18 ff 23 20 eb fb d8 30 fd 14 27
       -45 71 -18 -38 -22 24 -1 35 32 -21 -5 -40 48 -3 20 39
000070 45 31 44 23 fc f6 eb d7 9b cd f7 f1 eb bf 34 3f
       69 49 68 35 -4 -10 -21 -41 -101 -51 -9 -15 -21 -65 52 63
000080 fc f2 13 03 ca 32 c2 10 e8 13 f5 de d8 1b d9 ff
       -4 -14 19 3 -54 50 -62 16 -24 19 -11 -34 -40 27 -39 -1
000090 28 0d 0f 1e 17 43 ec f0 42 0a 21 c5 e9 fb fb f8
       40 13 15 30 23 67 -20 -16 66 10 33 -59 -23 -5 -5 -8
0000a0 16 14 fd d1 d2 f4 08 0b 20 f6 f3 dd 0f 24 12 ec
       22 20 -3 -47 -46 -12 8 11 32 -10 -13 -35 15 36 18 -20
0000b0 45 f6 0f f9 0a 0b e2 29 dd 04 fc 32 cd 01 08 03
       69 -10 15 -7 10 11 -30 41 -35 4 -4 50 -51 1 8 3
0000c0 01 df f3 cc 29 e3 03 24 bc ee 04 fd e4 0b dd 20
       1 -33 -13 -52 41 -29 3 36 -68 -18 4 -3 -28 11 -35 32
0000d0 c7 bf f8 3a d6 c3 13 d9 06 f4 f3 e3 e9 04 da 15
       -57 -65 -8 58 -42 -61 19 -39 6 -12 -13 -29 -23 4 -38 21
0000e0 f2 3f de de d2 ad 12 04 0f 0f d3 c1 23 ed 3c 37
       -14 63 -34 -34 -46 -83 18 4 15 15 -45 -63 35 -19 60 55
0000f0 1d fb d3 17 fc 21 42 dc e3 d8 11 33 da e6 18 be
       29 -5 -45 23 -4 33 66 -36 -29 -40 17 51 -38 -26 24 -66

fuse_attr_97 i1 [12, 1, 1, 12]
000000 f0 c4 a6 fd 80 f3 ff ec da 19 0e c6 e4 80 bb fb
       -16 -60 -90 -3 -128 -13 -1 -20 -38 25 14 -58 -28 -128 -69 -5
000010 c2 f1 2d 26 87 fb 31 fb cc 00 80 b5 78 19 10 08
       -62 -15 45 38 -121 -5 49 -5 -52 0 -128 -75 120 25 16 8
000020 1b 35 11 13 ef 7f 90 0d 1d bb ee 10 14 fa f2 df
       27 53 17 19 -17 127 -112 13 29 -69 -18 16 20 -6 -14 -33
000030 e2 7a f2 10 b2 80 f3 e7 c5 12 fc ce f8 40 c6 f8
       -30 122 -14 16 -78 -128 -13 -25 -59 18 -4 -50 -8 64 -58 -8
000040 5d c2 29 fe 80 d7 f9 d4 03 5d 3f 17 1a 81 4d 52
       93 -62 41 -2 -128 -41 -7 -44 3 93 63 23 26 -127 77 82
000050 de fb f4 6f 03 ff 05 0a d0 12 be ae 7f f8 00 fd
       -34 -5 -12 111 3 -1 5 10 -48 18 -66 -82 127 -8 0 -3
000060 13 3b 2d fc ba f2 e4 7f 37 ea 06 f5 e3 31 4a e8
       19 59 45 -4 -70 -14 -28 127 55 -22 6 -11 -29 49 74 -24
000070 7f e9 fb f9 57 f1 06 e1 29 b1 7f 1c 95 50 da c7
       127 -23 -5 -7 87 -15 6 -31 41 -79 127 28 -107 80 -38 -57
000080 42 ea f4 fb 06 85 66 f5 40 e4 bf ed 80 e7 0b fc
       66 -22 -12 -5 6 -123 102 -11 64 -28 -65 -19 -128 -25 11 -4

fuse_attr_141 i1 [40, 1, 1, 40]
000000 fd 05 26 08 eb 65 07 30 e2 ee 17 45 ea e8 da 0c
       -3 5 38 8 -21 101 7 48 -30 -18 23 69 -22 -24 -38 12
000010 24 5c 7f e0 d5 05 f1 ee 16 e4 d0 36 e7 e0 c1 1d
       36 92 127 -32 -43 5 -15 -18 22 -28 -48 54 -25 -32 -63 29
000020 ea 67 2c 61 23 19 fb 22 09 1a de 2b 01 ca f4 e8
       -22 103 44 97 35 25 -5 34 9 26 -34 43 1 -54 -12 -24
000030 16 e5 d1 4a df d9 cd f8 32 f6 2d 06 7f 03 10 13
       22 -27 -47 74 -33 -39 -51 -8 50 -10 45 6 127 3 16 19
000040 e9 0b fc e1 de 57 6a 2c 09 28 d6 4c c3 fb dc 0e
       -23 11 -4 -31 -34 87 106 44 9 40 -42 76 -61 -5 -36 14
000050 2b 18 0c 1a d9 f6 2a 24 c5 d8 ba ff 01 da bd 10
       43 24 12 26 -39 -10 42 36 -59 -40 -70 -1 1 -38 -67 16
000060 19 7f 51 fb 32 3a 30 17 22 e9 eb 0b 12 00 16 d8
       25 127 81 -5 50 58 48 23 34 -23 -21 11 18 0 22 -40
000070 1d 28 13 3b 02 e8 0d df dc 08 f0 22 20 1e b9 f6
       29 40 19 59 2 -24 13 -33 -36 8 -16 34 32 30 -71 -10
000080 41 21 80 69 d7 ee c9 de c4 ea e9 2d 14 0a a4 ea
       65 33 -128 105 -41 -18 -55 -34 -60 -22 -23 45 20 10 -92 -22
000090 e2 fa 63 bc d0 21 d5 fb 23 31 d2 69 f0 37 db 05
       -30 -6 99 -68 -48 33 -43 -5 35 49 -46 105 -16 55 -37 5
0000a0 b2 46 9c 0e fc 0b 75 ce 3d 9b 17 f0 0f ff 0c f6
       -78 70 -100 14 -4 11 117 -50 61 -101 23 -16 15 -1 12 -10
0000b0 a3 59 1d 10 52 7f 0e fd bd ed ee b3 7f 22 1e b4
       -93 89 29 16 82 127 14 -3 -67 -19 -18 -77 127 34 30 -76
0000c0 d8 d6 87 18 dd 4e 26 4b 5e 3f fc 52 57 44 2c f4
       -40 -42 -121 24 -35 78 38 75 94 63 -4 82 87 68 44 -12
0000d0 af 6b 2c 05 27 fd d7 24 37 07 fb 11 f2 d9 30 17
       -81 107 44 5 39 -3 -41 36 55 7 -5 17 -14 -39 48 23
0000e0 58 7f 37 55 f7 72 17 70 41 fa cf 0a 0b ba 54 57
       88 127 55 85 -9 114 23 112 65 -6 -49 10 11 -70 84 87
0000f0 c5 c1 f3 c3 bf 18 14 9d 63 02 31 db e3 e8 6f f9
       -59 -63 -13 -61 -65 24 20 -99 99 2 49 -37 -29 -24 111 -7

fuse_attr_140 i1 [40, 1, 1, 80]
000000 ff 20 27 f0 02 c9 4f e6 96 08 13 ad 44 ec ec 31
       -1 32 39 -16 2 -55 79 -26 -106 8 19 -83 68 -20 -20 49
000010 e0 01 05 f1 31 53 21 c9 dc 1f f1 c8 63 ef 02 1b
       -32 1 5 -15 49 83 33 -55 -36 31 -15 -56 99 -17 2 27
000020 24 1a 7f 01 19 cc 62 f0 ed 08 fb f5 12 13 e5 02
       36 26 127 1 25 -52 98 -16 -19 8 -5 -11 18 19 -27 2
000030 16 e1 ff 01 44 0d dc fc e8 14 e4 0c 11 e8 07 2a
       22 -31 -1 1 68 13 -36 -4 -24 20 -28 12 17 -24 7 42
000040 07 f0 e9 02 2a de eb fe 3c d7 fe f7 ea 1f e7 1f
       7 -16 -23 2 42 -34 -21 -2 60 -41 -2 -9 -22 31 -25 31
000050 e5 f1 f1 04 ee 38 1d 7f ee a2 14 d1 d0 21 fd 28
       -27 -15 -15 4 -18 56 29 127 -18 -94 20 -47 -48 33 -3 40
000060 14 c7 2d 9d 21 51 06 31 d9 13 d1 ec 37 d5 18 dd
       20 -57 45 -99 33 81 6 49 -39 19 -47 -20 55 -43 24 -35
000070 db 49 e0 f1 d6 d3 1d c4 cf 00 0b 3d e4 c9 ba 23
       -37 73 -32 -15 -42 -45 29 -60 -49 0 11 61 -28 -55 -70 35
000080 19 a2 0a b1 22 28 e7 0e ce 04 f1 50 2f 12 3b de
       25 -94 10 -79 34 40 -25 14 -50 4 -15 80 47 18 59 -34
000090 07 09 f1 dc ea d3 d0 f1 45 d1 22 c3 fb 23 d1 11
       7 9 -15 -36 -22 -45 -48 -15 69 -47 34 -61 -5 35 -47 17
0000a0 23 f3 ed 39 f6 fa 3c 23 d0 0c d6 39 16 0a fc 3a
       35 -13 -19 57 -10 -6 60 35 -48 12 -42 57 22 10 -4 58
0000b0 b5 06 1b e5 ed 40 d5 de 5b 13 17 ad 09 7c 3e fc
       -75 6 27 -27 -19 64 -43 -34 91 19 23 -83 9 124 62 -4
0000c0 da 44 3e 08 14 7f 23 03 1d 09 f3 18 e8 e4 de d4
       -38 68 62 8 20 127 35 3 29 9 -13 24 -24 -28 -34 -44
0000d0 0e d6 1d ff 05 f7 f7 0f f5 04 1e f2 eb 27 29 d7
       14 -42 29 -1 5 -9 -9 15 -11 4 30 -14 -21 39 41 -41
0000e0 fc 09 f4 0f 00 fd e3 08 f0 08 eb f2 f9 f5 09 0a
       -4 9 -12 15 0 -3 -29 8 -16 8 -21 -14 -7 -11 9 10
0000f0 20 ea da 7f de e4 d8 1f 49 18 10 17 b9 27 e8 14
       32 -22 -38 127 -34 -28 -40 31 73 24 16 23 -71 39 -24 20

fuse_attr_112 i1 [40, 3, 3, 40]
000000 06 ff 18 fd 11 fd c3 b7 f5 12 34 3d e9 16 fb d4
       6 -1 24 -3 17 -3 -61 -73 -11 18 52 61 -23 22 -5 -44
000010 fa 0a f5 f3 00 35 fd 24 f1 b2 18 0b 01 41 d0 d5
       -6 10 -11 -13 0 53 -3 36 -15 -78 24 11 1 65 -48 -43
000020 09 04 ff 09 7f 2b 2d 1e fe ed e8 f5 06 ce df d4
       9 4 -1 9 127 43 45 30 -2 -19 -24 -11 6 -50 -33 -44
000030 15 20 de d3 d2 d8 ea ba f2 ea 44 e8 db d8 f3 f8
       21 32 -34 -45 -46 -40 -22 -70 -14 -22 68 -24 -37 -40 -13 -8
000040 ff cc 16 d2 fd 0e 00 24 18 e3 cc 24 22 04 b8 1f
       -1 -52 22 -46 -3 14 0 36 24 -29 -52 36 34 4 -72 31
000050 12 db 06 0d 4d bd 16 f9 00 03 4e 5a 0e 00 1e fe
       18 -37 6 13 77 -67 22 -7 0 3 78 90 14 0 30 -2
000060 e3 07 06 f7 15 51 b8 ee 9d cb 1f e1 1f 43 e3 c8
       -29 7 6 -9 21 81 -72 -18 -99 -53 31 -31 31 67 -29 -56
000070 f3 b4 02 12 75 eb 5a f6 e3 d4 ec e9 f4 d2 21 ef
       -13 -76 2 18 117 -21 90 -10 -29 -44 -20 -23 -12 -46 33 -17
000080 db 07 31 fc 02 fa f5 23 45 51 d2 39 d7 d1 64 dc
       -37 7 49 -4 2 -6 -11 35 69 81 -46 57 -41 -47 100 -36
000090 2a f7 d5 13 d5 12 04 fc ce 12 f0 24 12 19 f3 e5
       42 -9 -43 19 -43 18 4 -4 -50 18 -16 36 18 25 -13 -27
0000a0 e9 d2 e6 f3 ad dc 39 cb 12 0b d5 da 23 23 ca cc
       -23 -46 -26 -13 -83 -36 57 -53 18 11 -43 -38 35 35 -54 -52
0000b0 fb ff f2 f0 fd 1a bb cc bd 02 c2 be f3 fb f2 06
       -5 -1 -14 -16 -3 26 -69 -52 -67 2 -62 -66 -13 -5 -14 6
0000c0 e9 90 e9 30 c8 f5 b8 b0 fd a5 f5 df 30 e8 e0 28
       -23 -112 -23 48 -56 -11 -72 -80 -3 -91 -11 -33 48 -24 -32 40
0000d0 c3 eb ed f6 01 e9 f3 4f b1 1a 0e e7 cb da 13 1f
       -61 -21 -19 -10 1 -23 -13 79 -79 26 14 -25 -53 -38 19 31
0000e0 0b f4 1d ef f5 49 ed c7 db ab e1 6c 13 f3 f7 00
       11 -12 29 -17 -11 73 -19 -57 -37 -85 -31 108 19 -13 -9 0
0000f0 db f5 d1 3e 13 e9 3b f8 f4 00 f4 fb 17 12 fc d4
       -37 -11 -47 62 19 -23 59 -8 -12 0 -12 -5 23 18 -4 -44
