detection/models/fomo/COCO_Person/fomo_efficientnet_b0_x8_abl_coco_int8_sha1_947570fb1e44e72b60dce524140d985561979af6.tflite (tflite, 565384 bytes, 42 tensors)

fuse_attr_104 i1 [144, 1, 1, 24]
0 0 0 0 0 0 0 0
0 0 0 0 0 0 0 0
0 0 0 0 0 0 0 0
0 0 0 0 0 0 0 0
0 0 0 0 0 0 0 0
0 0 0 0 0 0 0 0
-40 -28 25 -72 61 -62 -34 22
22 36 42 104 -55 -34 54 31
-128 -38 -87 -8 20 47 -72 1
0 0 0 0 0 0 0 0
0 0 0 0 0 0 0 0
0 0 0 0 0 0 0 0
1 61 9 -61 -11 121 -117 -54
18 127 5 -17 -50 8 15 12
28 119 -10 -43 0 39 -11 42
68 63 75 107 13 -73 -128 3
28 6 104 -1 -2 -86 -95 -68
40 -55 96 -25 -50 51 28 79
0 0 0 0 0 0 0 0
0 0 0 0 0 0 0 0
0 0 0 0 0 0 0 0
0 0 0 0 0 0 0 0
0 0 0 0 0 0 0 0
0 0 0 0 0 0 0 0
-20 23 29 -114 -26 -11 -17 22
-34 -33 17 17 13 -18 34 8
60 -42 -128 9 -49 12 -11 69
28 -13 -41 -16 5 -19 -7 22
-22 38 -8 -33 -36 14 77 37
-124 11 -21 -24 30 127 -95 45
51 39 44 113 82 -107 -41 -45
46 14 -98 98 -128 55 -16 -2
00000000: 0000 0000 0000 0000 0000 0000 0000 0000
00000010: 0000 0000 0000 0000 0000 0000 0000 0000
00000020: 0000 0000 0000 0000 0000 0000 0000 0000
00000030: d8e4 19b8 3dc2 de16 1624 2a68 c9de 361f
00000040: 80da a9f8 142f b801 0000 0000 0000 0000
00000050: 0000 0000 0000 0000 0000 0000 0000 0000
00000060: 013d 09c3 f579 8bca 127f 05ef ce08 0f0c
00000070: 1c77 f6d5 0027 f52a 443f 4b6b 0db7 8003
00000080: 1c06 68ff feaa a1bc 28c9 60e7 ce33 1c4f
00000090: 0000 0000 0000 0000 0000 0000 0000 0000
000000a0: 0000 0000 0000 0000 0000 0000 0000 0000
000000b0: 0000 0000 0000 0000 0000 0000 0000 0000
000000c0: ec17 1d8e e6f5 ef16 dedf 1111 0dee 2208
000000d0: 3cd6 8009 cf0c f545 1cf3 d7f0 05ed f916
000000e0: ea26 f8df dc0e 4d25 840b ebe8 1e7f a12d
000000f0: 3327 2c71 5295 d7d3 2e0e 9e62 8037 f0fe

fuse_attr_130 i1 [1, 3, 3, 480]
0 0 0 0 0 0 0 0
0 0 0 0 0 0 0 0
0 0 0 0 0 0 0 0
0 -43 0 0 0 0 0 0
0 0 0 0 0 0 0 0
0 0 0 0 0 0 0 0
0 0 0 0 0 0 0 0
0 0 0 0 0 0 0 0
0 0 0 0 0 0 0 0
0 0 0 0 0 0 0 0
0 0 94 0 0 0 0 0
0 0 0 0 0 0 0 0
0 0 0 0 0 0 0 0
0 0 0 0 0 0 0 0
0 0 0 0 0 0 0 0
0 0 0 54 0 0 0 0
0 0 0 0 0 0 0 0
0 0 0 0 0 0 0 0
0 0 0 0 0 0 0 0
0 0 0 0 0 0 0 0
0 0 0 0 0 0 0 0
0 0 0 -75 0 0 0 0
0 0 0 0 0 0 0 0
0 0 0 0 0 0 0 0
0 0 0 0 0 0 0 0
0 0 0 0 0 -77 0 0
0 0 0 0 0 0 0 0
0 0 0 0 0 0 51 0
0 0 0 0 0 0 0 0
0 0 0 0 0 0 0 0
0 0 0 0 0 0 0 0
32 0 0 0 -104 0 0 0
00000000: 0000 0000 0000 0000 0000 0000 0000 0000
00000010: 0000 0000 0000 0000 00d5 0000 0000 0000
00000020: 0000 0000 0000 0000 0000 0000 0000 0000
00000030: 0000 0000 0000 0000 0000 0000 0000 0000
00000040: 0000 0000 0000 0000 0000 0000 0000 0000
00000050: 0000 5e00 0000 0000 0000 0000 0000 0000
00000060: 0000 0000 0000 0000 0000 0000 0000 0000
00000070: 0000 0000 0000 0000 0000 0036 0000 0000
00000080: 0000 0000 0000 0000 0000 0000 0000 0000
00000090: 0000 0000 0000 0000 0000 0000 0000 0000
000000a0: 0000 0000 0000 0000 0000 00b5 0000 0000
000000b0: 0000 0000 0000 0000 0000 0000 0000 0000
000000c0: 0000 0000 0000 0000 0000 0000 00b3 0000
000000d0: 0000 0000 0000 0000 0000 0000 0000 3300
000000e0: 0000 0000 0000 0000 0000 0000 0000 0000
000000f0: 0000 0000 0000 0000 2000 0000 9800 0000

fuse_attr_97 i1 [32, 1, 1, 8]
0 127 -3 0 0 0 -97 -28
0 0 0 0 0 0 0 0
0 0 0 0 0 0 0 0
0 117 90 0 0 0 -128 79
0 0 0 0 0 0 0 0
0 -35 38 0 0 0 97 127
0 0 0 0 0 0 0 0
0 127 4 0 0 0 -112 -26
0 0 0 0 0 0 0 0
0 20 54 0 0 0 127 72
0 0 0 0 0 0 0 0
0 0 0 0 0 0 0 0
0 0 0 0 0 0 0 0
0 -128 -10 0 0 0 113 44
0 0 0 0 0 0 0 0
0 0 0 0 0 0 0 0
0 0 0 0 0 0 0 0
0 0 0 0 0 0 0 0
0 0 0 0 0 0 0 0
0 -74 -4 0 0 0 94 127
0 71 74 0 0 0 27 127
0 0 0 0 0 0 0 0
0 87 -9 0 0 0 -128 42
0 0 0 0 0 0 0 0
0 0 0 0 0 0 0 0
0 127 1 0 0 0 -104 -27
0 -61 83 0 0 0 110 127
0 -127 -22 0 0 0 74 26
0 0 0 0 0 0 0 0
0 -8 100 0 0 0 -43 127
0 -82 127 0 0 0 -45 102
0 0 0 0 0 0 0 0
00000000: 007f fd00 0000 9fe4 0000 0000 0000 0000
00000010: 0000 0000 0000 0000 0075 5a00 0000 804f
00000020: 0000 0000 0000 0000 00dd 2600 0000 617f
00000030: 0000 0000 0000 0000 007f 0400 0000 90e6
00000040: 0000 0000 0000 0000 0014 3600 0000 7f48
00000050: 0000 0000 0000 0000 0000 0000 0000 0000
00000060: 0000 0000 0000 0000 0080 f600 0000 712c
00000070: 0000 0000 0000 0000 0000 0000 0000 0000
00000080: 0000 0000 0000 0000 0000 0000 0000 0000
00000090: 0000 0000 0000 0000 00b6 fc00 0000 5e7f
000000a0: 0047 4a00 0000 1b7f 0000 0000 0000 0000
000000b0: 0057 f700 0000 802a 0000 0000 0000 0000
000000c0: 0000 0000 0000 0000 007f 0100 0000 98e5
000000d0: 00c3 5300 0000 6e7f 0081 ea00 0000 4a1a
000000e0: 0000 0000 0000 0000 00f8 6400 0000 d57f
000000f0: 00ae 7f00 0000 d366 0000 0000 0000 0000

fuse_attr_123 i1 [80, 1, 1, 240]
0 0 0 0 0 0 0 0
0 0 0 0 0 0 0 0
0 0 0 0 0 0 0 0
0 0 0 0 0 0 0 0
0 0 0 0 0 0 0 0
0 0 0 0 0 0 0 0
0 0 0 0 0 0 0 0
0 0 0 0 0 0 0 0
0 0 0 0 0 0 0 0
0 0 0 0 0 0 0 0
0 0 0 0 0 0 0 0
0 0 0 0 0 0 0 0
0 0 0 0 0 0 0 0
0 0 0 0 0 0 0 0
0 0 0 0 0 0 0 0
0 0 0 0 0 0 0 0
0 0 0 0 0 0 0 0
0 0 0 0 0 0 0 0
0 0 0 0 0 0 0 0
0 0 0 0 0 0 0 0
0 0 0 0 0 0 0 0
0 0 0 0 0 0 0 0
0 0 0 0 0 0 0 0
0 0 0 0 0 0 0 0
0 0 0 0 0 0 0 0
0 0 0 0 0 0 0 0
0 0 0 0 0 0 0 0
0 0 0 0 0 0 0 0
0 0 0 0 0 0 0 0
0 0 0 0 0 0 0 0
0 0 0 0 0 0 0 0
40 -47 0 0 -12 0 0 -86
00000000: 0000 0000 0000 0000 0000 0000 0000 0000
00000010: 0000 0000 0000 0000 0000 0000 0000 0000
00000020: 0000 0000 0000 0000 0000 0000 0000 0000
00000030: 0000 0000 0000 0000 0000 0000 0000 0000
00000040: 0000 0000 0000 0000 0000 0000 0000 0000
00000050: 0000 0000 0000 0000 0000 0000 0000 0000
00000060: 0000 0000 0000 0000 0000 0000 0000 0000
00000070: 0000 0000 0000 0000 0000 0000 0000 0000
00000080: 0000 0000 0000 0000 0000 0000 0000 0000
00000090: 0000 0000 0000 0000 0000 0000 0000 0000
000000a0: 0000 0000 0000 0000 0000 0000 0000 0000
000000b0: 0000 0000 0000 0000 0000 0000 0000 0000
000000c0: 0000 0000 0000 0000 0000 0000 0000 0000
000000d0: 0000 0000 0000 0000 0000 0000 0000 0000
000000e0: 0000 0000 0000 0000 0000 0000 0000 0000
000000f0: 0000 0000 0000 0000 28d1 0000 f400 00aa

fuse_attr_134 i1 [96, 3, 3, 80]
0 -18 -21 0 0 -3 21 0
-1 0 -46 0 0 29 0 0
0 10 0 66 0 0 0 0
0 -47 33 0 0 26 0 4
0 34 11 0 0 0 0 18
0 27 0 0 0 0 7 0
0 54 0 -46 0 15 0 21
0 0 0 0 0 0 0 53
42 28 0 0 0 18 0 -19
-9 0 0 0 0 0 0 0
0 18 106 0 0 10 -17 0
-4 0 -4 0 0 3 0 0
0 -35 0 61 0 0 0 0
0 -33 -8 0 0 4 0 -33
0 -2 15 0 0 0 0 -9
0 -15 0 0 0 0 -14 0
0 16 0 24 0 10 0 3
0 0 0 0 0 0 0 -49
-61 0 0 0 0 14 0 -9
-4 0 0 0 0 0 0 0
0 5 92 0 0 20 -24 0
7 0 2 0 0 -1 0 0
0 -25 0 21 0 0 0 0
0 61 -26 0 0 0 0 10
0 -19 10 0 0 0 0 -50
0 -6 0 0 0 0 18 0
0 -28 0 21 0 6 0 1
0 0 0 0 0 0 0 -96
-31 -25 0 0 0 25 0 34
-11 0 0 0 0 0 0 0
0 -50 -128 0 0 -55 31 0
-18 0 -109 0 0 0 0 0
00000000: 00ee eb00 00fd 1500 ff00 d200 001d 0000
00000010: 000a 0042 0000 0000 00d1 2100 001a 0004
00000020: 0022 0b00 0000 0012 001b 0000 0000 0700
00000030: 0036 00d2 000f 0015 0000 0000 0000 0035
00000040: 2a1c 0000 0012 00ed f700 0000 0000 0000
00000050: 0012 6a00 000a ef00 fc00 fc00 0003 0000
00000060: 00dd 003d 0000 0000 00df f800 0004 00df
00000070: 00fe 0f00 0000 00f7 00f1 0000 0000 f200
00000080: 0010 0018 000a 0003 0000 0000 0000 00cf
00000090: c300 0000 000e 00f7 fc00 0000 0000 0000
000000a0: 0005 5c00 0014 e800 0700 0200 00ff 0000
000000b0: 00e7 0015 0000 0000 003d e600 0000 000a
000000c0: 00ed 0a00 0000 00ce 00fa 0000 0000 1200
000000d0: 00e4 0015 0006 0001 0000 0000 0000 00a0
000000e0: e1e7 0000 0019 0022 f500 0000 0000 0000
000000f0: 00ce 8000 00c9 1f00 ee00 9300 0000 0000

fuse_attr_111 i1 [6, 1, 1, 144]
0 0 0 0 0 0 0 0
0 0 0 0 0 0 0 0
0 0 0 0 0 0 0 0
0 0 0 0 0 0 0 0
0 0 0 0 0 0 0 0
0 0 0 0 0 0 0 0
0 0 0 0 0 0 0 0
0 0 0 0 0 0 0 0
0 0 0 0 0 0 0 0
0 0 0 0 0 0 0 0
0 0 0 0 0 0 0 0
0 0 0 0 0 0 0 0
0 0 0 0 0 0 0 0
0 0 0 0 0 0 0 0
0 0 0 0 0 0 0 0
0 0 0 0 0 0 0 0
0 0 0 0 0 0 0 0
0 0 0 0 0 0 0 0
0 0 0 0 0 0 0 0
0 0 0 0 0 0 0 0
0 0 0 0 0 0 0 0
0 0 0 0 0 0 0 0
0 0 0 0 0 0 0 0
0 0 0 0 0 0 0 0
0 0 0 0 0 0 0 0
0 0 0 0 0 0 0 0
0 0 0 0 0 0 0 0
0 0 0 0 0 0 0 0
0 0 0 0 0 0 0 0
0 0 0 0 0 0 0 0
0 0 0 0 0 0 0 0
0 0 0 0 0 0 0 0
00000000: 0000 0000 0000 0000 0000 0000 0000 0000
00000010: 0000 0000 0000 0000 0000 0000 0000 0000
00000020: 0000 0000 0000 0000 0000 0000 0000 0000
00000030: 0000 0000 0000 0000 0000 0000 0000 0000
00000040: 0000 0000 0000 0000 0000 0000 0000 0000
00000050: 0000 0000 0000 0000 0000 0000 0000 0000
00000060: 0000 0000 0000 0000 0000 0000 0000 0000
00000070: 0000 0000 0000 0000 0000 0000 0000 0000
00000080: 0000 0000 0000 0000 0000 0000 0000 0000
00000090: 0000 0000 0000 0000 0000 0000 0000 0000
000000a0: 0000 0000 0000 0000 0000 0000 0000 0000
000000b0: 0000 0000 0000 0000 0000 0000 0000 0000
000000c0: 0000 0000 0000 0000 0000 0000 0000 0000
000000d0: 0000 0000 0000 0000 0000 0000 0000 0000
000000e0: 0000 0000 0000 0000 0000 0000 0000 0000
000000f0: 0000 0000 0000 0000 0000 0000 0000 0000

fuse_attr_135 i1 [2, 1, 1, 96]
37 0 0 0 0 0 0 0
0 0 0 0 28 0 0 58
34 0 53 127 0 0 0 0
0 0 0 0 0 0 0 0
0 0 0 0 0 -36 0 0
0 0 45 0 49 0 0 0
0 0 0 0 0 0 0 69
-41 0 0 0 49 0 0 0
0 0 0 0 -33 0 -34 0
0 0 -45 53 0 69 0 0
0 109 0 38 0 0 31 3
0 0 0 0 0 0 0 0
-95 0 0 0 0 0 0 0
0 0 0 0 4 0 0 -106
-116 0 -109 -6 0 0 0 0
0 0 0 0 0 0 0 0
0 0 0 0 0 127 0 0
0 0 -96 0 -125 0 0 0
0 0 0 0 0 0 0 -77
112 0 0 0 -107 0 0 0
0 0 0 0 92 0 109 0
0 0 116 -113 0 -107 0 0
0 -13 0 -103 0 0 29 124
0 0 0 0 0 0 0 0
00000000: 2500 0000 0000 0000 0000 0000 1c00 003a
00000010: 2200 357f 0000 0000 0000 0000 0000 0000
00000020: 0000 0000 00dc 0000 0000 2d00 3100 0000
00000030: 0000 0000 0000 0045 d700 0000 3100 0000
00000040: 0000 0000 df00 de00 0000 d335 0045 0000
00000050: 006d 0026 0000 1f03 0000 0000 0000 0000
00000060: a100 0000 0000 0000 0000 0000 0400 0096
00000070: 8c00 93fa 0000 0000 0000 0000 0000 0000
00000080: 0000 0000 007f 0000 0000 a000 8300 0000
00000090: 0000 0000 0000 00b3 7000 0000 9500 0000
000000a0: 0000 0000 5c00 6d00 0000 748f 0095 0000
000000b0: 00f3 0099 0000 1d7c 0000 0000 0000 0000

fuse_attr_127 i1 [480, 1, 1, 20]
0 0 0 0 0 0 0 0
0 0 0 0 0 0 0 0
0 0 0 0 0 0 0 0
0 0 0 0 0 0 0 0
0 0 0 0 0 0 0 0
0 0 0 0 0 0 0 0
0 0 0 0 0 0 0 0
0 0 0 0 0 0 0 0
0 0 0 0 0 0 0 0
0 0 0 0 0 0 0 0
0 0 0 0 0 0 0 0
0 0 0 0 0 0 0 0
0 0 0 0 0 0 0 0
0 0 0 0 0 0 0 0
0 0 0 0 0 0 0 0
0 0 0 0 0 0 0 0
0 0 0 0 0 0 0 0
0 0 0 0 0 0 0 0
0 0 0 0 0 0 0 0
0 0 0 0 0 0 0 0
0 0 0 0 0 0 0 0
0 0 0 0 0 0 0 0
0 0 0 0 0 0 0 0
0 0 0 0 0 0 0 0
0 0 0 0 0 0 0 0
0 0 0 0 0 0 0 0
0 0 0 0 0 0 0 0
0 0 0 0 0 0 0 0
0 0 0 0 0 0 0 0
0 0 0 0 0 0 0 0
0 0 0 0 0 0 0 0
0 0 0 0 0 0 0 0
00000000: 0000 0000 0000 0000 0000 0000 0000 0000
00000010: 0000 0000 0000 0000 0000 0000 0000 0000
00000020: 0000 0000 0000 0000 0000 0000 0000 0000
00000030: 0000 0000 0000 0000 0000 0000 0000 0000
00000040: 0000 0000 0000 0000 0000 0000 0000 0000
00000050: 0000 0000 0000 0000 0000 0000 0000 0000
00000060: 0000 0000 0000 0000 0000 0000 0000 0000
00000070: 0000 0000 0000 0000 0000 0000 0000 0000
00000080: 0000 0000 0000 0000 0000 0000 0000 0000
00000090: 0000 0000 0000 0000 0000 0000 0000 0000
000000a0: 0000 0000 0000 0000 0000 0000 0000 0000
000000b0: 0000 0000 0000 0000 0000 0000 0000 0000
000000c0: 0000 0000 0000 0000 0000 0000 0000 0000
000000d0: 0000 0000 0000 0000 0000 0000 0000 0000
000000e0: 0000 0000 0000 0000 0000 0000 0000 0000
000000f0: 0000 0000 0000 0000 0000 0000 0000 0000

fuse_attr_101 i1 [4, 1, 1, 96]
0 0 0 0 0 0 0 0
0 0 0 0 0 0 0 0
0 0 0 0 0 0 0 0
0 0 0 0 0 0 0 0
0 0 0 0 0 0 0 0
0 0 0 0 0 0 0 0
0 0 0 0 0 0 0 0
0 0 0 0 0 0 0 0
0 0 0 0 0 0 0 0
0 0 0 0 0 0 0 0
0 0 0 0 0 0 0 0
0 0 0 0 0 0 0 0
0 0 0 0 0 0 0 0
0 0 0 0 0 0 0 0
0 0 0 0 0 0 0 0
0 0 0 0 0 0 0 0
0 0 0 0 0 0 0 0
0 0 0 0 0 0 0 0
0 0 0 0 0 0 0 0
0 0 0 0 0 0 0 0
0 0 0 0 0 0 0 0
0 0 0 0 0 0 0 0
0 0 0 0 0 0 0 0
0 0 0 0 0 0 0 0
0 0 0 0 0 0 0 0
0 0 0 0 0 0 0 0
0 0 0 0 0 0 0 0
0 0 0 0 0 0 0 0
0 0 0 0 0 0 0 0
0 0 0 0 0 0 0 0
0 0 0 0 0 0 0 0
0 0 0 0 0 0 0 0
00000000: 0000 0000 0000 0000 0000 0000 0000 0000
00000010: 0000 0000 0000 0000 0000 0000 0000 0000
00000020: 0000 0000 0000 0000 0000 0000 0000 0000
00000030: 0000 0000 0000 0000 0000 0000 0000 0000
00000040: 0000 0000 0000 0000 0000 0000 0000 0000
00000050: 0000 0000 0000 0000 0000 0000 0000 0000
00000060: 0000 0000 0000 0000 0000 0000 0000 0000
00000070: 0000 0000 0000 0000 0000 0000 0000 0000
00000080: 0000 0000 0000 0000 0000 0000 0000 0000
00000090: 0000 0000 0000 0000 0000 0000 0000 0000
000000a0: 0000 0000 0000 0000 0000 0000 0000 0000
000000b0: 0000 0000 0000 0000 0000 0000 0000 0000
000000c0: 0000 0000 0000 0000 0000 0000 0000 0000
000000d0: 0000 0000 0000 0000 0000 0000 0000 0000
000000e0: 0000 0000 0000 0000 0000 0000 0000 0000
000000f0: 0000 0000 0000 0000 0000 0000 0000 0000

fuse_attr_112 i1 [144, 1, 1, 6]
0 0 0 0 0 0 0 0
0 0 0 0 0 0 0 0
0 0 0 0 0 0 0 0
0 0 0 0 0 0 0 0
0 0 0 0 0 0 0 0
0 0 0 0 0 0 0 0
0 0 0 0 0 0 0 0
0 0 0 0 0 0 0 0
0 0 0 0 0 0 0 0
0 0 0 0 0 0 0 0
0 0 0 0 0 0 0 0
0 0 0 0 0 0 0 0
0 0 0 0 0 0 0 0
0 0 0 0 0 0 0 0
0 0 0 0 0 0 0 0
0 0 0 0 0 0 0 0
0 0 0 0 0 0 0 0
0 0 0 0 0 0 0 0
0 0 0 0 0 0 0 0
0 0 0 0 0 0 0 0
0 0 0 0 0 0 0 0
0 0 0 0 0 0 0 0
0 0 0 0 0 0 0 0
0 0 0 0 0 0 0 0
0 0 0 0 0 0 0 0
0 0 0 0 0 0 0 0
0 0 0 0 0 0 0 0
0 0 0 0 0 0 0 0
0 0 0 0 0 0 0 0
0 0 0 0 0 0 0 0
0 0 0 0 0 0 0 0
0 0 0 0 0 0 0 0
00000000: 0000 0000 0000 0000 0000 0000 0000 0000
00000010: 0000 0000 0000 0000 0000 0000 0000 0000
00000020: 0000 0000 0000 0000 0000 0000 0000 0000
00000030: 0000 0000 0000 0000 0000 0000 0000 0000
00000040: 0000 0000 0000 0000 0000 0000 0000 0000
00000050: 0000 0000 0000 0000 0000 0000 0000 0000
00000060: 0000 0000 0000 0000 0000 0000 0000 0000
00000070: 0000 0000 0000 0000 0000 0000 0000 0000
00000080: 0000 0000 0000 0000 0000 0000 0000 0000
00000090: 0000 0000 0000 0000 0000 0000 0000 0000
000000a0: 0000 0000 0000 0000 0000 0000 0000 0000
000000b0: 0000 0000 0000 0000 0000 0000 0000 0000
000000c0: 0000 0000 0000 0000 0000 0000 0000 0000
000000d0: 0000 0000 0000 0000 0000 0000 0000 0000
000000e0: 0000 0000 0000 0000 0000 0000 0000 0000
000000f0: 0000 0000 0000 0000 0000 0000 0000 0000

fuse_attr_118 i1 [40, 1, 1, 240]
0 0 0 0 0 0 0 0
19 -71 0 0 -16 0 -2 5
16 0 0 0 0 0 0 0
0 0 0 0 0 0 0 0
0 0 -125 0 0 0 3 0
0 0 0 0 0 0 67 0
0 -51 0 0 42 0 0 0
0 0 0 0 21 78 0 16
0 0 0 -33 0 0 0 0
0 -3 0 0 25 0 0 0
0 0 0 12 0 0 0 -34
0 0 0 0 0 -29 0 0
0 27 0 0 0 35 0 0
68 0 3 -8 0 0 0 0
0 0 0 0 0 0 12 36
0 0 0 0 0 0 0 0
0 0 0 -17 0 -45 31 -19
-16 0 0 0 8 26 0 0
-49 43 0 0 0 0 0 0
0 0 36 0 0 0 0 0
0 68 0 0 0 0 0 0
-8 0 0 -37 0 0 0 0
0 0 -24 0 41 0 0 0
0 0 0 0 0 2 0 0
0 0 0 114 0 0 0 0
0 3 0 0 0 0 0 -101
0 0 0 0 0 0 -28 0
0 0 0 0 69 0 0 -17
0 0 0 0 0 0 -125 0
0 0 0 127 0 26 92 120
0 0 0 0 0 0 0 0
-31 -26 0 0 60 0 -41 3
00000000: 0000 0000 0000 0000 13b9 0000 f000 fe05
00000010: 1000 0000 0000 0000 0000 0000 0000 0000
00000020: 0000 8300 0000 0300 0000 0000 0000 4300
00000030: 00cd 0000 2a00 0000 0000 0000 154e 0010
00000040: 0000 00df 0000 0000 00fd 0000 1900 0000
00000050: 0000 000c 0000 00de 0000 0000 00e3 0000
00000060: 001b 0000 0023 0000 4400 03f8 0000 0000
00000070: 0000 0000 0000 0c24 0000 0000 0000 0000
00000080: 0000 00ef 00d3 1fed f000 0000 081a 0000
00000090: cf2b 0000 0000 0000 0000 2400 0000 0000
000000a0: 0044 0000 0000 0000 f800 00db 0000 0000
000000b0: 0000 e800 2900 0000 0000 0000 0002 0000
000000c0: 0000 0072 0000 0000 0003 0000 0000 009b
000000d0: 0000 0000 0000 e400 0000 0000 4500 00ef
000000e0: 0000 0000 0000 8300 0000 007f 001a 5c78
000000f0: 0000 0000 0000 0000 e1e6 0000 3c00 d703

fuse_attr_114 i1 [240, 1, 1, 40]
0 0 0 0 0 0 0 0
0 0 0 0 0 0 0 0
0 0 0 0 0 0 0 0
0 0 0 0 0 0 0 0
0 0 0 0 0 0 0 0
0 0 0 0 0 0 0 0
0 0 0 0 0 0 0 0
0 0 0 0 0 0 0 0
0 0 0 0 0 0 0 0
0 0 0 0 0 0 0 0
0 0 0 0 0 0 0 0
0 0 0 0 0 0 0 0
0 0 0 0 0 0 0 0
0 0 0 0 0 0 0 0
0 0 0 0 0 0 0 0
0 0 0 0 0 0 0 0
0 0 0 0 0 0 0 0
0 0 0 0 0 0 0 0
0 0 0 0 0 0 0 0
0 0 0 0 0 0 0 0
0 0 0 0 0 0 0 0
0 0 0 0 0 0 0 0
0 0 0 0 0 0 0 0
0 0 0 0 0 0 0 0
0 0 0 0 0 0 0 0
0 0 0 0 0 0 0 0
0 0 0 0 0 0 0 0
0 0 0 0 0 0 0 0
0 0 0 0 0 0 0 0
0 0 0 0 0 0 0 0
0 0 0 0 0 0 0 0
0 0 0 0 0 0 0 0
00000000: 0000 0000 0000 0000 0000 0000 0000 0000
00000010: 0000 0000 0000 0000 0000 0000 0000 0000
00000020: 0000 0000 0000 0000 0000 0000 0000 0000
00000030: 0000 0000 0000 0000 0000 0000 0000 0000
00000040: 0000 0000 0000 0000 0000 0000 0000 0000
00000050: 0000 0000 0000 0000 0000 0000 0000 0000
00000060: 0000 0000 0000 0000 0000 0000 0000 0000
00000070: 0000 0000 0000 0000 0000 0000 0000 0000
00000080: 0000 0000 0000 0000 0000 0000 0000 0000
00000090: 0000 0000 0000 0000 0000 0000 0000 0000
000000a0: 0000 0000 0000 0000 0000 0000 0000 0000
000000b0: 0000 0000 0000 0000 0000 0000 0000 0000
000000c0: 0000 0000 0000 0000 0000 0000 0000 0000
000000d0: 0000 0000 0000 0000 0000 0000 0000 0000
000000e0: 0000 0000 0000 0000 0000 0000 0000 0000
000000f0: 0000 0000 0000 0000 0000 0000 0000 0000

fuse_attr_132 i1 [480, 1, 1, 20]
0 0 0 0 0 0 0 0
0 0 0 0 0 0 0 0
0 0 0 0 0 0 0 0
0 0 0 0 0 0 0 0
0 0 0 0 0 0 0 0
0 0 0 0 0 0 0 0
0 0 0 0 0 0 0 0
0 0 0 0 0 0 0 0
0 0 0 0 0 0 0 0
0 0 0 0 0 0 0 0
0 0 0 0 0 0 0 0
0 0 0 0 0 0 0 0
0 0 0 0 0 0 0 0
0 0 0 0 0 0 0 0
0 0 0 0 0 0 0 0
0 0 0 0 0 0 0 0
0 0 0 0 0 0 0 0
0 0 0 0 0 0 0 0
0 0 0 0 0 0 0 0
0 0 0 0 0 0 0 0
0 0 0 0 0 0 0 0
0 0 0 0 0 0 0 0
0 0 0 0 0 0 0 0
0 0 0 0 0 0 0 0
0 0 0 0 0 0 0 0
0 0 0 0 0 0 0 0
0 0 0 0 0 0 0 0
0 0 0 0 0 0 0 0
0 0 0 0 0 0 0 0
0 0 0 0 0 0 0 0
0 0 0 0 0 0 0 0
0 0 0 0 0 0 0 0
00000000: 0000 0000 0000 0000 0000 0000 0000 0000
00000010: 0000 0000 0000 0000 0000 0000 0000 0000
00000020: 0000 0000 0000 0000 0000 0000 0000 0000
00000030: 0000 0000 0000 0000 0000 0000 0000 0000
00000040: 0000 0000 0000 0000 0000 0000 0000 0000
00000050: 0000 0000 0000 0000 0000 0000 0000 0000
00000060: 0000 0000 0000 0000 0000 0000 0000 0000
00000070: 0000 0000 0000 0000 0000 0000 0000 0000
00000080: 0000 0000 0000 0000 0000 0000 0000 0000
00000090: 0000 0000 0000 0000 0000 0000 0000 0000
000000a0: 0000 0000 0000 0000 0000 0000 0000 0000
000000b0: 0000 0000 0000 0000 0000 0000 0000 0000
000000c0: 0000 0000 0000 0000 0000 0000 0000 0000
000000d0: 0000 0000 0000 0000 0000 0000 0000 0000
000000e0: 0000 0000 0000 0000 0000 0000 0000 0000
000000f0: 0000 0000 0000 0000 0000 0000 0000 0000

fuse_attr_113 i1 [40, 1, 1, 144]
0 -128 0 37 -12 11 0 0
60 -87 -2 -20 49 -13 39 0
46 0 0 35 90 48 -37 -17
122 0 -55 -54 0 34 88 -26
32 0 -68 0 83 -34 -1 17
-61 30 34 -6 23 0 -72 18
0 -41 -39 0 0 19 0 -42
22 37 0 0 0 0 0 -111
-97 41 0 0 -32 28 0 0
0 0 -111 0 0 -88 -33 0
-31 -18 66 -34 -73 -79 33 0
0 2 79 37 0 13 30 -62
0 4 0 32 0 23 -68 0
-43 0 -59 0 78 0 124 0
0 67 44 72 41 0 0 0
33 47 -28 36 19 0 -41 18
115 0 43 8 9 -9 -78 44
32 -73 44 0 -3 0 2 0
0 15 0 23 21 -28 0 0
-58 -83 -6 -22 37 -40 -27 0
22 0 0 15 24 -26 39 20
-92 0 35 81 0 16 -51 87
-87 0 -24 0 23 27 64 18
10 -7 -51 -45 74 0 25 4
0 30 19 0 0 15 0 18
-66 71 0 0 0 0 0 -38
-45 78 0 0 -14 -52 0 0
0 0 28 0 0 83 41 0
8 16 18 25 17 -3 -11 0
0 76 57 6 0 -30 -1 2
0 21 0 -30 0 -13 26 0
76 0 -27 0 -86 0 -23 0
00000000: 0080 0025 f40b 0000 3ca9 feec 31f3 2700
00000010: 2e00 0023 5a30 dbef 7a00 c9ca 0022 58e6
00000020: 2000 bc00 53de ff11 c31e 22fa 1700 b812
00000030: 00d7 d900 0013 00d6 1625 0000 0000 0091
00000040: 9f29 0000 e01c 0000 0000 9100 00a8 df00
00000050: e1ee 42de b7b1 2100 0002 4f25 000d 1ec2
00000060: 0004 0020 0017 bc00 d500 c500 4e00 7c00
00000070: 0043 2c48 2900 0000 212f e424 1300 d712
00000080: 7300 2b08 09f7 b22c 20b7 2c00 fd00 0200
00000090: 000f 0017 15e4 0000 c6ad faea 25d8 e500
000000a0: 1600 000f 18e6 2714 a400 2351 0010 cd57
000000b0: a900 e800 171b 4012 0af9 cdd3 4a00 1904
000000c0: 001e 1300 000f 0012 be47 0000 0000 00da
000000d0: d34e 0000 f2cc 0000 0000 1c00 0053 2900
000000e0: 0810 1219 11fd f500 004c 3906 00e2 ff02
000000f0: 0015 00e2 00f3 1a00 4c00 e500 aa00 e900

fuse_attr_120 i1 [1, 3, 3, 240]
0 0 0 0 0 0 0 0
57 36 0 0 21 0 0 3
0 0 0 0 30 68 0 28
0 0 0 0 0 0 0 33
0 0 -50 0 0 0 0 0
0 0 0 25 0 0 0 -73
85 49 0 56 0 0 16 0
0 0 0 0 83 -55 0 0
0 0 0 0 0 0 0 0
0 0 0 0 0 0 0 0
0 0 -49 0 0 2 1 0
0 0 0 27 0 58 -121 0
0 0 0 0 0 33 15 0
0 0 0 0 27 0 0 2
0 0 0 0 0 0 7 10
0 0 0 0 0 36 0 0
0 0 0 -23 0 0 0 33
0 0 0 0 0 -84 0 0
0 -69 47 0 0 0 -67 0
0 0 0 0 0 0 -27 0
16 0 8 0 0 0 0 0
0 0 0 15 0 0 0 0
0 0 0 0 0 0 0 32
0 0 0 0 0 -20 0 0
9 0 0 0 -61 0 0 0
-6 0 1 51 0 -25 0 0
0 0 17 0 0 22 0 41
0 0 41 0 0 0 0 0
72 0 0 0 0 0 0 0
0 0 0 0 0 6 0 31
0 0 0 0 0 0 0 0
44 93 0 0 85 0 0 -12
00000000: 0000 0000 0000 0000 3924 0000 1500 0003
00000010: 0000 0000 1e44 001c 0000 0000 0000 0021
00000020: 0000 ce00 0000 0000 0000 0019 0000 00b7
00000030: 5531 0038 0000 1000 0000 0000 53c9 0000
00000040: 0000 0000 0000 0000 0000 0000 0000 0000
00000050: 0000 cf00 0002 0100 0000 001b 003a 8700
00000060: 0000 0000 0021 0f00 0000 0000 1b00 0002
00000070: 0000 0000 0000 070a 0000 0000 0024 0000
00000080: 0000 00e9 0000 0021 0000 0000 00ac 0000
00000090: 00bb 2f00 0000 bd00 0000 0000 0000 e500
000000a0: 1000 0800 0000 0000 0000 000f 0000 0000
000000b0: 0000 0000 0000 0020 0000 0000 00ec 0000
000000c0: 0900 0000 c300 0000 fa00 0133 00e7 0000
000000d0: 0000 1100 0016 0029 0000 2900 0000 0000
000000e0: 4800 0000 0000 0000 0000 0000 0006 001f
000000f0: 0000 0000 0000 0000 2c5d 0000 5500 00f4

fuse_attr_126 i1 [20, 1, 1, 480]
0 0 0 0 0 0 0 0
0 0 0 0 0 0 0 0
0 0 0 0 0 0 0 0
0 0 0 0 0 0 0 0
0 0 0 0 0 0 0 0
0 0 0 0 0 0 0 0
0 0 0 0 0 0 0 0
0 0 0 0 0 0 0 0
0 0 0 0 0 0 0 0
0 0 0 0 0 0 0 0
0 0 0 0 0 0 0 0
0 0 0 0 0 0 0 0
0 0 0 0 0 0 0 0
0 0 0 0 0 0 0 0
0 0 0 0 0 0 0 0
0 0 0 0 0 0 0 0
0 0 0 0 0 0 0 0
0 0 0 0 0 0 0 0
0 0 0 0 0 0 0 0
0 0 0 0 0 0 0 0
0 0 0 0 0 0 0 0
0 0 0 0 0 0 0 0
0 0 0 0 0 0 0 0
0 0 0 0 0 0 0 0
0 0 0 0 0 0 0 0
0 0 0 0 0 0 0 0
0 0 0 0 0 0 0 0
0 0 0 0 0 0 0 0
0 0 0 0 0 0 0 0
0 0 0 0 0 0 0 0
0 0 0 0 0 0 0 0
0 0 0 0 0 0 0 0
00000000: 0000 0000 0000 0000 0000 0000 0000 0000
00000010: 0000 0000 0000 0000 0000 0000 0000 0000
00000020: 0000 0000 0000 0000 0000 0000 0000 0000
00000030: 0000 0000 0000 0000 0000 0000 0000 0000
00000040: 0000 0000 0000 0000 0000 0000 0000 0000
00000050: 0000 0000 0000 0000 0000 0000 0000 0000
00000060: 0000 0000 0000 0000 0000 0000 0000 0000
00000070: 0000 0000 0000 0000 0000 0000 0000 0000
00000080: 0000 0000 0000 0000 0000 0000 0000 0000
00000090: 0000 0000 0000 0000 0000 0000 0000 0000
000000a0: 0000 0000 0000 0000 0000 0000 0000 0000
000000b0: 0000 0000 0000 0000 0000 0000 0000 0000
000000c0: 0000 0000 0000 0000 0000 0000 0000 0000
000000d0: 0000 0000 0000 0000 0000 0000 0000 0000
000000e0: 0000 0000 0000 0000 0000 0000 0000 0000
000000f0: 0000 0000 0000 0000 0000 0000 0000 0000

fuse_attr_124 i1 [480, 1, 1, 80]
0 0 0 0 0 0 0 0
0 0 0 0 0 0 0 0
0 0 0 0 0 0 0 0
0 0 0 0 0 0 0 0
0 0 0 0 0 0 0 0
0 0 0 0 0 0 0 0
0 0 0 0 0 0 0 0
0 0 0 0 0 0 0 0
0 0 0 0 0 0 0 0
0 0 0 0 0 0 0 0
0 0 0 0 0 0 0 0
0 0 0 0 0 0 0 0
0 0 0 0 0 0 0 0
0 0 0 0 0 0 0 0
0 0 0 0 0 0 0 0
0 0 0 0 0 0 0 0
0 0 0 0 0 0 0 0
0 0 0 0 0 0 0 0
0 0 0 0 0 0 0 0
0 0 0 0 0 0 0 0
0 0 0 0 0 0 0 0
0 0 0 0 0 0 0 0
0 0 0 0 0 0 0 0
0 0 0 0 0 0 0 0
0 0 0 0 0 0 0 0
0 0 0 0 0 0 0 0
0 0 0 0 0 0 0 0
0 0 0 0 0 0 0 0
0 0 0 0 0 0 0 0
0 0 0 0 0 0 0 0
0 0 0 0 0 0 0 0
0 0 0 0 0 0 0 0
00000000: 0000 0000 0000 0000 0000 0000 0000 0000
00000010: 0000 0000 0000 0000 0000 0000 0000 0000
00000020: 0000 0000 0000 0000 0000 0000 0000 0000
00000030: 0000 0000 0000 0000 0000 0000 0000 0000
00000040: 0000 0000 0000 0000 0000 0000 0000 0000
00000050: 0000 0000 0000 0000 0000 0000 0000 0000
00000060: 0000 0000 0000 0000 0000 0000 0000 0000
00000070: 0000 0000 0000 0000 0000 0000 0000 0000
00000080: 0000 0000 0000 0000 0000 0000 0000 0000
00000090: 0000 0000 0000 0000 0000 0000 0000 0000
000000a0: 0000 0000 0000 0000 0000 0000 0000 0000
000000b0: 0000 0000 0000 0000 0000 0000 0000 0000
000000c0: 0000 0000 0000 0000 0000 0000 0000 0000
000000d0: 0000 0000 0000 0000 0000 0000 0000 0000
000000e0: 0000 0000 0000 0000 0000 0000 0000 0000
000000f0: 0000 0000 0000 0000 0000 0000 0000 0000

fuse_attr_119 i1 [240, 1, 1, 40]
0 0 0 0 0 0 0 0
0 0 0 0 0 0 0 0
0 0 0 0 0 0 0 0
0 0 0 0 0 0 0 0
0 0 0 0 0 0 0 0
0 0 0 0 0 0 0 0
0 0 0 0 0 0 0 0
0 0 0 0 0 0 0 0
0 0 0 0 0 0 0 0
0 0 0 0 0 0 0 0
0 0 0 0 0 0 0 0
0 0 0 0 0 0 0 0
0 0 0 0 0 0 0 0
0 0 0 0 0 0 0 0
0 0 0 0 0 0 0 0
0 0 0 0 0 0 0 0
0 0 0 0 0 0 0 0
0 0 0 0 0 0 0 0
0 0 0 0 0 0 0 0
0 0 0 0 0 0 0 0
0 0 0 0 0 0 0 0
0 0 0 0 0 0 0 0
0 0 0 0 0 0 0 0
0 0 0 0 0 0 0 0
0 0 0 0 0 0 0 0
0 0 0 0 0 0 0 0
0 0 0 0 0 0 0 0
0 0 0 0 0 0 0 0
0 0 0 0 0 0 0 0
0 0 0 0 0 0 0 0
0 0 0 0 0 0 0 0
0 0 0 0 0 0 0 0
00000000: 0000 0000 0000 0000 0000 0000 0000 0000
00000010: 0000 0000 0000 0000 0000 0000 0000 0000
00000020: 0000 0000 0000 0000 0000 0000 0000 0000
00000030: 0000 0000 0000 0000 0000 0000 0000 0000
00000040: 0000 0000 0000 0000 0000 0000 0000 0000
00000050: 0000 0000 0000 0000 0000 0000 0000 0000
00000060: 0000 0000 0000 0000 0000 0000 0000 0000
00000070: 0000 0000 0000 0000 0000 0000 0000 0000
00000080: 0000 0000 0000 0000 0000 0000 0000 0000
00000090: 0000 0000 0000 0000 0000 0000 0000 0000
000000a0: 0000 0000 0000 0000 0000 0000 0000 0000
000000b0: 0000 0000 0000 0000 0000 0000 0000 0000
000000c0: 0000 0000 0000 0000 0000 0000 0000 0000
000000d0: 0000 0000 0000 0000 0000 0000 0000 0000
000000e0: 0000 0000 0000 0000 0000 0000 0000 0000
000000f0: 0000 0000 0000 0000 0000 0000 0000 0000

fuse_attr_98 i1 [16, 1, 1, 32]
-39 0 97 36 0 87 22 35
7 57 9 0 16 49 34 0
8 -15 -13 -27 27 53 -65 45
0 -127 -17 47 39 64 80 13
72 0 63 -37 0 -77 -35 -67
-5 -61 -11 0 -37 -42 -44 0
22 -33 5 -7 36 49 25 -9
0 -57 -71 127 -25 -8 -65 -26
10 0 93 30 0 31 23 -74
-23 5 -47 0 79 5 -11 0
9 35 18 18 113 10 13 -25
0 4 -117 -128 -3 -21 -38 -30
80 0 127 11 0 21 24 -10
-24 91 -84 0 -60 -84 121 0
-13 83 25 27 -72 79 61 25
0 48 71 28 70 -36 -118 67
-21 0 -73 45 0 47 58 -82
24 78 65 0 96 11 9 0
55 64 65 64 34 82 -51 -26
0 40 -15 46 32 127 -15 27
-72 0 32 -110 0 -14 -115 -7
-21 -18 -14 0 91 7 -88 0
-26 85 -8 -26 -77 29 -53 60
0 -8 54 34 -128 102 81 0
48 0 -106 -36 0 -90 -69 -18
55 90 17 0 51 -57 53 0
41 -84 -6 -47 -39 97 -64 58
0 -76 45 -127 52 -110 9 -4
-50 0 127 -32 0 47 -29 1
22 39 6 0 -96 -93 -73 0
19 -76 12 11 35 13 -11 39
0 97 -21 -57 -50 -8 55 -12
00000000: d900 6124 0057 1623 0739 0900 1031 2200
00000010: 08f1 f3e5 1b35 bf2d 0081 ef2f 2740 500d
00000020: 4800 3fdb 00b3 ddbd fbc3 f500 dbd6 d400
00000030: 16df 05f9 2431 19f7 00c7 b97f e7f8 bfe6
00000040: 0a00 5d1e 001f 17b6 e905 d100 4f05 f500
00000050: 0923 1212 710a 0de7 0004 8b80 fdeb dae2
00000060: 5000 7f0b 0015 18f6 e85b ac00 c4ac 7900
00000070: f353 191b b84f 3d19 0030 471c 46dc 8a43
00000080: eb00 b72d 002f 3aae 184e 4100 600b 0900
00000090: 3740 4140 2252 cde6 0028 f12e 207f f11b
000000a0: b800 2092 00f2 8df9 ebee f200 5b07 a800
000000b0: e655 f8e6 b31d cb3c 00f8 3622 8066 5100
000000c0: 3000 96dc 00a6 bbee 375a 1100 33c7 3500
000000d0: 29ac fad1 d961 c03a 00b4 2d81 3492 09fc
000000e0: ce00 7fe0 002f e301 1627 0600 a0a3 b700
000000f0: 13b4 0c0b 230d f527 0061 ebc7 cef8 37f4

fuse_attr_106 i1 [6, 1, 1, 144]
0 0 0 0 0 0 0 0
0 0 0 0 0 0 0 0
0 0 0 0 0 0 0 0
0 0 0 0 0 0 0 0
0 0 0 0 0 0 0 0
0 0 0 0 0 0 0 0
0 0 0 0 0 0 0 0
0 0 0 0 0 0 0 0
0 0 0 0 0 0 0 0
0 0 0 0 0 0 0 0
0 0 0 0 0 0 0 0
0 0 0 0 0 0 0 0
0 0 0 0 0 0 0 0
0 0 0 0 0 0 0 0
0 0 0 0 0 0 0 0
0 0 0 0 0 0 0 0
0 0 0 0 0 0 0 0
0 0 0 0 0 0 0 0
0 0 0 0 0 0 0 0
0 0 0 0 0 0 0 0
0 0 0 0 0 0 0 0
0 0 0 0 0 0 0 0
0 0 0 0 0 0 0 0
0 0 0 0 0 0 0 0
0 0 0 0 0 0 0 0
0 0 0 0 0 0 0 0
0 0 0 0 0 0 0 0
0 0 0 0 0 0 0 0
0 0 0 0 0 0 0 0
0 0 0 0 0 0 0 0
0 0 0 0 0 0 0 0
0 0 0 0 0 0 0 0
00000000: 0000 0000 0000 0000 0000 0000 0000 0000
00000010: 0000 0000 0000 0000 0000 0000 0000 0000
00000020: 0000 0000 0000 0000 0000 0000 0000 0000
00000030: 0000 0000 0000 0000 0000 0000 0000 0000
00000040: 0000 0000 0000 0000 0000 0000 0000 0000
00000050: 0000 0000 0000 0000 0000 0000 0000 0000
00000060: 0000 0000 0000 0000 0000 0000 0000 0000
00000070: 0000 0000 0000 0000 0000 0000 0000 0000
00000080: 0000 0000 0000 0000 0000 0000 0000 0000
00000090: 0000 0000 0000 0000 0000 0000 0000 0000
000000a0: 0000 0000 0000 0000 0000 0000 0000 0000
000000b0: 0000 0000 0000 0000 0000 0000 0000 0000
000000c0: 0000 0000 0000 0000 0000 0000 0000 0000
000000d0: 0000 0000 0000 0000 0000 0000 0000 0000
000000e0: 0000 0000 0000 0000 0000 0000 0000 0000
000000f0: 0000 0000 0000 0000 0000 0000 0000 0000

fuse_attr_131 i1 [20, 1, 1, 480]
0 0 0 0 0 0 0 0
0 0 0 0 0 0 0 0
0 0 0 0 0 0 0 0
0 0 0 0 0 0 0 0
0 0 0 0 0 0 0 0
0 0 0 0 0 0 0 0
0 0 0 0 0 0 0 0
0 0 0 0 0 0 0 0
0 0 0 0 0 0 0 0
0 0 0 0 0 0 0 0
0 0 0 0 0 0 0 0
0 0 0 0 0 0 0 0
0 0 0 0 0 0 0 0
0 0 0 0 0 0 0 0
0 0 0 0 0 0 0 0
0 0 0 0 0 0 0 0
0 0 0 0 0 0 0 0
0 0 0 0 0 0 0 0
0 0 0 0 0 0 0 0
0 0 0 0 0 0 0 0
0 0 0 0 0 0 0 0
0 0 0 0 0 0 0 0
0 0 0 0 0 0 0 0
0 0 0 0 0 0 0 0
0 0 0 0 0 0 0 0
0 0 0 0 0 0 0 0
0 0 0 0 0 0 0 0
0 0 0 0 0 0 0 0
0 0 0 0 0 0 0 0
0 0 0 0 0 0 0 0
0 0 0 0 0 0 0 0
0 0 0 0 0 0 0 0
00000000: 0000 0000 0000 0000 0000 0000 0000 0000
00000010: 0000 0000 0000 0000 0000 0000 0000 0000
00000020: 0000 0000 0000 0000 0000 0000 0000 0000
00000030: 0000 0000 0000 0000 0000 0000 0000 0000
00000040: 0000 0000 0000 0000 0000 0000 0000 0000
00000050: 0000 0000 0000 0000 0000 0000 0000 0000
00000060: 0000 0000 0000 0000 0000 0000 0000 0000
00000070: 0000 0000 0000 0000 0000 0000 0000 0000
00000080: 0000 0000 0000 0000 0000 0000 0000 0000
00000090: 0000 0000 0000 0000 0000 0000 0000 0000
000000a0: 0000 0000 0000 0000 0000 0000 0000 0000
000000b0: 0000 0000 0000 0000 0000 0000 0000 0000
000000c0: 0000 0000 0000 0000 0000 0000 0000 0000
000000d0: 0000 0000 0000 0000 0000 0000 0000 0000
000000e0: 0000 0000 0000 0000 0000 0000 0000 0000
000000f0: 0000 0000 0000 0000 0000 0000 0000 0000

fuse_attr_116 i1 [10, 1, 1, 240]
0 0 0 0 0 0 0 0
0 0 0 0 0 0 0 0
0 0 0 0 0 0 0 0
0 0 0 0 0 0 0 0
0 0 0 0 0 0 0 0
0 0 0 0 0 0 0 0
0 0 0 0 0 0 0 0
0 0 0 0 0 0 0 0
0 0 0 0 0 0 0 0
0 0 0 0 0 0 0 0
0 0 0 0 0 0 0 0
0 0 0 0 0 0 0 0
0 0 0 0 0 0 0 0
0 0 0 0 0 0 0 0
0 0 0 0 0 0 0 0
0 0 0 0 0 0 0 0
0 0 0 0 0 0 0 0
0 0 0 0 0 0 0 0
0 0 0 0 0 0 0 0
0 0 0 0 0 0 0 0
0 0 0 0 0 0 0 0
0 0 0 0 0 0 0 0
0 0 0 0 0 0 0 0
0 0 0 0 0 0 0 0
0 0 0 0 0 0 0 0
0 0 0 0 0 0 0 0
0 0 0 0 0 0 0 0
0 0 0 0 0 0 0 0
0 0 0 0 0 0 0 0
0 0 0 0 0 0 0 0
0 0 0 0 0 0 0 0
0 0 0 0 0 0 0 0
00000000: 0000 0000 0000 0000 0000 0000 0000 0000
00000010: 0000 0000 0000 0000 0000 0000 0000 0000
00000020: 0000 0000 0000 0000 0000 0000 0000 0000
00000030: 0000 0000 0000 0000 0000 0000 0000 0000
00000040: 0000 0000 0000 0000 0000 0000 0000 0000
00000050: 0000 0000 0000 0000 0000 0000 0000 0000
00000060: 0000 0000 0000 0000 0000 0000 0000 0000
00000070: 0000 0000 0000 0000 0000 0000 0000 0000
00000080: 0000 0000 0000 0000 0000 0000 0000 0000
00000090: 0000 0000 0000 0000 0000 0000 0000 0000
000000a0: 0000 0000 0000 0000 0000 0000 0000 0000
000000b0: 0000 0000 0000 0000 0000 0000 0000 0000
000000c0: 0000 0000 0000 0000 0000 0000 0000 0000
000000d0: 0000 0000 0000 0000 0000 0000 0000 0000
000000e0: 0000 0000 0000 0000 0000 0000 0000 0000
000000f0: 0000 0000 0000 0000 0000 0000 0000 0000

fuse_attr_103 i1 [24, 1, 1, 96]
-26 17 2 9 -27 -32 6 -37
10 24 7 5 -18 29 -19 -2
8 45 -68 8 22 -5 35 -46
29 13 -18 9 65 10 22 -1
17 37 0 32 1 -17 46 -18
2 1 -19 2 3 -23 18 -20
81 0 -128 -5 -5 72 50 9
13 35 6 -26 36 4 -15 9
-17 7 -22 4 -59 -16 5 16
-17 -20 5 -23 -10 17 49 -7
12 0 36 15 -8 -14 40 -21
25 1 22 -2 -47 -28 -13 -6
-12 -42 -9 81 -27 29 47 40
41 -32 71 58 115 8 46 8
-45 -35 16 -9 8 -56 24 -33
-70 -37 6 -26 106 -42 -14 -35
22 -12 0 -72 36 28 31 -31
23 35 -11 95 -21 2 3 10
21 -35 -1 25 12 22 -20 -22
-4 -88 57 -18 -18 -22 26 0
52 -5 -27 73 25 68 59 53
33 24 2 -23 -4 -30 -20 54
8 0 -44 -68 54 20 -128 -33
-68 34 1 8 95 74 -55 35
-39 11 -30 -12 -34 -30 7 -55
-38 10 47 -30 25 14 -44 -11
-38 -8 -107 31 0 52 -56 11
-3 -53 -79 -46 32 -32 -11 -36
19 13 0 -97 5 -22 -127 2
-31 1 -31 1 -1 -28 0 -52
6 -5 -34 -6 14 65 -33 -1
-9 -10 62 69 9 13 -4 -1
00000000: e611 0209 e5e0 06db 0a18 0705 ee1d edfe
00000010: 082d bc08 16fb 23d2 1d0d ee09 410a 16ff
00000020: 1125 0020 01ef 2eee 0201 ed02 03e9 12ec
00000030: 5100 80fb fb48 3209 0d23 06e6 2404 f109
00000040: ef07 ea04 c5f0 0510 efec 05e9 f611 31f9
00000050: 0c00 240f f8f2 28eb 1901 16fe d1e4 f3fa
00000060: f4d6 f751 e51d 2f28 29e0 473a 7308 2e08
00000070: d3dd 10f7 08c8 18df badb 06e6 6ad6 f2dd
00000080: 16f4 00b8 241c 1fe1 1723 f55f eb02 030a
00000090: 15dd ff19 0c16 ecea fca8 39ee eeea 1a00
000000a0: 34fb e549 1944 3b35 2118 02e9 fce2 ec36
000000b0: 0800 d4bc 3614 80df bc22 0108 5f4a c923
000000c0: d90b e2f4 dee2 07c9 da0a 2fe2 190e d4f5
000000d0: daf8 951f 0034 c80b fdcb b1d2 20e0 f5dc
000000e0: 130d 009f 05ea 8102 e101 e101 ffe4 00cc
000000f0: 06fb defa 0e41 dfff f7f6 3e45 090d fcff

fuse_attr_122 i1 [240, 1, 1, 10]
0 0 0 0 0 0 0 0
0 0 0 0 0 0 0 0
0 0 0 0 0 0 0 0
0 0 0 0 0 0 0 0
0 0 0 0 0 0 0 0
0 0 0 0 0 0 0 0
0 0 0 0 0 0 0 0
0 0 0 0 0 0 0 0
0 0 0 0 0 0 0 0
0 0 0 0 0 0 0 0
0 0 0 0 0 0 0 0
0 0 0 0 0 0 0 0
0 0 0 0 0 0 0 0
0 0 0 0 0 0 0 0
0 0 0 0 0 0 0 0
0 0 0 0 0 0 0 0
0 0 0 0 0 0 0 0
0 0 0 0 0 0 0 0
0 0 0 0 0 0 0 0
0 0 0 0 0 0 0 0
0 0 0 0 0 0 0 0
0 0 0 0 0 0 0 0
0 0 0 0 0 0 0 0
0 0 0 0 0 0 0 0
0 0 0 0 0 0 0 0
0 0 0 0 0 0 0 0
0 0 0 0 0 0 0 0
0 0 0 0 0 0 0 0
0 0 0 0 0 0 0 0
0 0 0 0 0 0 0 0
0 0 0 0 0 0 0 0
0 0 0 0 0 0 0 0
00000000: 0000 0000 0000 0000 0000 0000 0000 0000
00000010: 0000 0000 0000 0000 0000 0000 0000 0000
00000020: 0000 0000 0000 0000 0000 0000 0000 0000
00000030: 0000 0000 0000 0000 0000 0000 0000 0000
00000040: 0000 0000 0000 0000 0000 0000 0000 0000
00000050: 0000 0000 0000 0000 0000 0000 0000 0000
00000060: 0000 0000 0000 0000 0000 0000 0000 0000
00000070: 0000 0000 0000 0000 0000 0000 0000 0000
00000080: 0000 0000 0000 0000 0000 0000 0000 0000
00000090: 0000 0000 0000 0000 0000 0000 0000 0000
000000a0: 0000 0000 0000 0000 0000 0000 0000 0000
000000b0: 0000 0000 0000 0000 0000 0000 0000 0000
000000c0: 0000 0000 0000 0000 0000 0000 0000 0000
000000d0: 0000 0000 0000 0000 0000 0000 0000 0000
000000e0: 0000 0000 0000 0000 0000 0000 0000 0000
000000f0: 0000 0000 0000 0000 0000 0000 0000 0000

fuse_attr_115 i1 [1, 5, 5, 240]
0 0 0 0 0 0 0 0
10 -93 0 0 5 0 127 5
-63 0 0 0 0 0 0 0
0 0 0 0 0 0 0 0
0 0 13 0 0 0 -82 0
0 0 0 0 0 0 -80 0
0 -81 0 0 8 0 0 0
0 0 0 0 20 7 0 -128
0 0 0 15 0 0 0 0
0 -19 0 0 36 0 0 0
0 0 0 20 0 0 0 32
0 0 0 0 0 34 0 0
0 -3 0 0 0 10 0 0
-35 0 52 -78 0 0 0 0
0 0 0 0 0 0 -44 22
0 0 0 0 0 0 0 0
0 0 0 -102 0 -30 -30 -96
51 0 0 0 -85 84 0 0
-10 15 0 0 0 0 0 0
0 0 127 0 0 0 0 0
0 -114 0 0 0 0 0 0
43 0 0 -1 0 0 0 0
0 0 -34 0 -29 0 0 0
0 0 0 0 0 91 0 0
0 0 0 17 0 0 0 0
0 -58 0 0 0 0 0 58
0 0 0 0 0 0 33 0
0 0 0 0 -39 0 0 58
0 0 0 0 0 0 7 0
0 0 0 12 0 -92 43 103
0 0 0 0 0 0 0 0
-11 -42 0 0 -1 0 54 23
00000000: 0000 0000 0000 0000 0aa3 0000 0500 7f05
00000010: c100 0000 0000 0000 0000 0000 0000 0000
00000020: 0000 0d00 0000 ae00 0000 0000 0000 b000
00000030: 00af 0000 0800 0000 0000 0000 1407 0080
00000040: 0000 000f 0000 0000 00ed 0000 2400 0000
00000050: 0000 0014 0000 0020 0000 0000 0022 0000
00000060: 00fd 0000 000a 0000 dd00 34b2 0000 0000
00000070: 0000 0000 0000 d416 0000 0000 0000 0000
00000080: 0000 009a 00e2 e2a0 3300 0000 ab54 0000
00000090: f60f 0000 0000 0000 0000 7f00 0000 0000
000000a0: 008e 0000 0000 0000 2b00 00ff 0000 0000
000000b0: 0000 de00 e300 0000 0000 0000 005b 0000
000000c0: 0000 0011 0000 0000 00c6 0000 0000 003a
000000d0: 0000 0000 0000 2100 0000 0000 d900 003a
000000e0: 0000 0000 0000 0700 0000 000c 00a4 2b67
000000f0: 0000 0000 0000 0000 f5d6 0000 ff00 3617

fuse_attr_102 i1 [96, 1, 1, 4]
0 0 0 0 0 0 0 0
0 0 0 0 0 0 0 0
0 0 0 0 0 0 0 0
0 0 0 0 0 0 0 0
0 0 0 0 0 0 0 0
0 0 0 0 0 0 0 0
0 0 0 0 0 0 0 0
0 0 0 0 0 0 0 0
0 0 0 0 0 0 0 0
0 0 0 0 0 0 0 0
0 0 0 0 0 0 0 0
0 0 0 0 0 0 0 0
0 0 0 0 0 0 0 0
0 0 0 0 0 0 0 0
0 0 0 0 0 0 0 0
0 0 0 0 0 0 0 0
0 0 0 0 0 0 0 0
0 0 0 0 0 0 0 0
0 0 0 0 0 0 0 0
0 0 0 0 0 0 0 0
0 0 0 0 0 0 0 0
0 0 0 0 0 0 0 0
0 0 0 0 0 0 0 0
0 0 0 0 0 0 0 0
0 0 0 0 0 0 0 0
0 0 0 0 0 0 0 0
0 0 0 0 0 0 0 0
0 0 0 0 0 0 0 0
0 0 0 0 0 0 0 0
0 0 0 0 0 0 0 0
0 0 0 0 0 0 0 0
0 0 0 0 0 0 0 0
00000000: 0000 0000 0000 0000 0000 0000 0000 0000
00000010: 0000 0000 0000 0000 0000 0000 0000 0000
00000020: 0000 0000 0000 0000 0000 0000 0000 0000
00000030: 0000 0000 0000 0000 0000 0000 0000 0000
00000040: 0000 0000 0000 0000 0000 0000 0000 0000
00000050: 0000 0000 0000 0000 0000 0000 0000 0000
00000060: 0000 0000 0000 0000 0000 0000 0000 0000
00000070: 0000 0000 0000 0000 0000 0000 0000 0000
00000080: 0000 0000 0000 0000 0000 0000 0000 0000
00000090: 0000 0000 0000 0000 0000 0000 0000 0000
000000a0: 0000 0000 0000 0000 0000 0000 0000 0000
000000b0: 0000 0000 0000 0000 0000 0000 0000 0000
000000c0: 0000 0000 0000 0000 0000 0000 0000 0000
000000d0: 0000 0000 0000 0000 0000 0000 0000 0000
000000e0: 0000 0000 0000 0000 0000 0000 0000 0000
000000f0: 0000 0000 0000 0000 0000 0000 0000 0000

fuse_attr_95 i1 [1, 3, 3, 32]
6 0 31 -9 0 38 -6 -22
3 13 -2 0 6 3 -13 0
-2 0 -2 -3 2 -9 -2 -34
0 -5 -7 -8 -3 -34 -14 -3
-22 0 -1 -10 0 87 -18 64
4 9 -47 0 1 -35 99 0
3 -74 -17 -14 7 7 16 -37
0 -30 -17 -9 -16 14 43 2
-20 0 -22 -3 0 52 -3 24
-1 -33 -3 0 -42 15 2 0
-8 0 -18 -7 -46 -6 -6 -12
0 -4 -13 -30 -4 -7 -30 1
-39 0 -63 31 0 35 -29 -57
12 -31 -17 0 -47 -18 19 0
-1 -21 -16 -1 -32 -22 21 127
0 -17 -49 -49 -19 -5 -56 6
127 0 -128 127 0 44 127 -128
-128 127 20 0 -126 127 -128 0
-63 -59 127 127 -60 127 -128 -49
0 127 -46 127 127 127 127 -123
1 0 113 -83 0 -38 -33 58
74 50 -12 0 100 -55 3 0
127 -30 41 -53 86 -11 64 -72
0 -23 127 43 0 -16 58 127
-9 0 -27 -9 0 -37 -8 28
0 -18 -21 0 -5 23 -4 0
-6 22 -9 -14 -20 2 -2 102
0 0 -24 -10 7 -1 -11 -4
-43 0 -14 -8 0 -110 -10 -5
-3 -9 127 0 27 8 16 0
0 127 -4 82 -67 -21 6 -45
0 -24 -38 -27 -83 -61 -88 -10
00000000: 0600 1ff7 0026 faea 030d fe00 0603 f300
00000010: fe00 fefd 02f7 fede 00fb f9f8 fdde f2fd
00000020: ea00 fff6 0057 ee40 0409 d100 01dd 6300
00000030: 03b6 eff2 0707 10db 00e2 eff7 f00e 2b02
00000040: ec00 eafd 0034 fd18 ffdf fd00 d60f 0200
00000050: f800 eef9 d2fa faf4 00fc f3e2 fcf9 e201
00000060: d900 c11f 0023 e3c7 0ce1 ef00 d1ee 1300
00000070: ffeb f0ff e0ea 157f 00ef cfcf edfb c806
00000080: 7f00 807f 002c 7f80 807f 1400 827f 8000
00000090: c1c5 7f7f c47f 80cf 007f d27f 7f7f 7f85
000000a0: 0100 71ad 00da df3a 4a32 f400 64c9 0300
000000b0: 7fe2 29cb 56f5 40b8 00e9 7f2b 00f0 3a7f
000000c0: f700 e5f7 00db f81c 00ee eb00 fb17 fc00
000000d0: fa16 f7f2 ec02 fe66 0000 e8f6 07ff f5fc
000000e0: d500 f2f8 0092 f6fb fdf7 7f00 1b08 1000
000000f0: 007f fc52 bdeb 06d3 00e8 dae5 adc3 a8f6

fuse_attr_105 i1 [1, 3, 3, 144]
0 0 78 0 -33 -67 0 0
-7 -39 -29 -50 0 0 0 4
-29 -46 -8 59 -59 0 0 -27
23 15 -57 -16 -108 0 0 0
0 13 37 -64 0 0 73 -60
-67 0 -18 0 0 0 0 1
0 0 0 0 34 0 0 0
0 127 85 38 56 -14 0 37
0 67 -98 0 0 0 0 -32
0 0 0 21 -72 0 0 29
28 25 24 -103 0 -22 26 12
0 -60 0 14 -37 -21 0 28
0 0 46 0 0 -15 -75 47
13 0 0 0 -19 6 0 3
-34 -87 -1 -31 -53 0 0 0
0 0 0 0 0 -32 -30 -23
0 0 0 0 -1 -7 94 -10
48 0 0 0 0 19 0 0
0 0 7 0 28 -43 0 0
-18 -19 -68 78 0 0 0 31
-54 -33 127 127 70 0 0 29
-65 96 -4 -37 -102 0 0 0
0 -91 -42 -37 0 0 -12 -35
-75 0 -128 0 0 0 0 -23
0 0 0 0 127 0 0 0
0 -23 -2 127 -69 -8 0 -128
0 -128 -26 0 0 0 0 -25
0 0 0 13 -128 89 0 127
-70 63 127 -14 0 -83 78 -34
0 -120 0 37 11 -76 0 33
0 0 -11 0 0 -128 -66 105
27 0 0 0 -53 -51 0 99
00000000: 0000 4e00 dfbd 0000 f9d9 e3ce 0000 0004
00000010: e3d2 f83b c500 00e5 170f c7f0 9400 0000
00000020: 000d 25c0 0000 49c4 bd00 ee00 0000 0001
00000030: 0000 0000 2200 0000 007f 5526 38f2 0025
00000040: 0043 9e00 0000 00e0 0000 0015 b800 001d
00000050: 1c19 1899 00ea 1a0c 00c4 000e dbeb 001c
00000060: 0000 2e00 00f1 b52f 0d00 0000 ed06 0003
00000070: dea9 ffe1 cb00 0000 0000 0000 00e0 e2e9
00000080: 0000 0000 fff9 5ef6 3000 0000 0013 0000
00000090: 0000 0700 1cd5 0000 eeed bc4e 0000 001f
000000a0: cadf 7f7f 4600 001d bf60 fcdb 9a00 0000
000000b0: 00a5 d6db 0000 f4dd b500 8000 0000 00e9
000000c0: 0000 0000 7f00 0000 00e9 fe7f bbf8 0080
000000d0: 0080 e600 0000 00e7 0000 000d 8059 007f
000000e0: ba3f 7ff2 00ad 4ede 0088 0025 0bb4 0021
000000f0: 0000 f500 0080 be69 1b00 0000 cbcd 0063

fuse_attr_107 i1 [144, 1, 1, 6]
0 0 0 0 0 0 0 0
0 0 0 0 0 0 0 0
0 0 0 0 0 0 0 0
0 0 0 0 0 0 0 0
0 0 0 0 0 0 0 0
0 0 0 0 0 0 0 0
0 0 0 0 0 0 0 0
0 0 0 0 0 0 0 0
0 0 0 0 0 0 0 0
0 0 0 0 0 0 0 0
0 0 0 0 0 0 0 0
0 0 0 0 0 0 0 0
0 0 0 0 0 0 0 0
0 0 0 0 0 0 0 0
0 0 0 0 0 0 0 0
0 0 0 0 0 0 0 0
0 0 0 0 0 0 0 0
0 0 0 0 0 0 0 0
0 0 0 0 0 0 0 0
0 0 0 0 0 0 0 0
0 0 0 0 0 0 0 0
0 0 0 0 0 0 0 0
0 0 0 0 0 0 0 0
0 0 0 0 0 0 0 0
0 0 0 0 0 0 0 0
0 0 0 0 0 0 0 0
0 0 0 0 0 0 0 0
0 0 0 0 0 0 0 0
0 0 0 0 0 0 0 0
0 0 0 0 0 0 0 0
0 0 0 0 0 0 0 0
0 0 0 0 0 0 0 0
00000000: 0000 0000 0000 0000 0000 0000 0000 0000
00000010: 0000 0000 0000 0000 0000 0000 0000 0000
00000020: 0000 0000 0000 0000 0000 0000 0000 0000
00000030: 0000 0000 0000 0000 0000 0000 0000 0000
00000040: 0000 0000 0000 0000 0000 0000 0000 0000
00000050: 0000 0000 0000 0000 0000 0000 0000 0000
00000060: 0000 0000 0000 0000 0000 0000 0000 0000
00000070: 0000 0000 0000 0000 0000 0000 0000 0000
00000080: 0000 0000 0000 0000 0000 0000 0000 0000
00000090: 0000 0000 0000 0000 0000 0000 0000 0000
000000a0: 0000 0000 0000 0000 0000 0000 0000 0000
000000b0: 0000 0000 0000 0000 0000 0000 0000 0000
000000c0: 0000 0000 0000 0000 0000 0000 0000 0000
000000d0: 0000 0000 0000 0000 0000 0000 0000 0000
000000e0: 0000 0000 0000 0000 0000 0000 0000 0000
000000f0: 0000 0000 0000 0000 0000 0000 0000 0000

fuse_attr_117 i1 [240, 1, 1, 10]
0 0 0 0 0 0 0 0
0 0 0 0 0 0 0 0
0 0 0 0 0 0 0 0
0 0 0 0 0 0 0 0
0 0 0 0 0 0 0 0
0 0 0 0 0 0 0 0
0 0 0 0 0 0 0 0
0 0 0 0 0 0 0 0
0 0 0 0 0 0 0 0
0 0 0 0 0 0 0 0
0 0 0 0 0 0 0 0
0 0 0 0 0 0 0 0
0 0 0 0 0 0 0 0
0 0 0 0 0 0 0 0
0 0 0 0 0 0 0 0
0 0 0 0 0 0 0 0
0 0 0 0 0 0 0 0
0 0 0 0 0 0 0 0
0 0 0 0 0 0 0 0
0 0 0 0 0 0 0 0
0 0 0 0 0 0 0 0
0 0 0 0 0 0 0 0
0 0 0 0 0 0 0 0
0 0 0 0 0 0 0 0
0 0 0 0 0 0 0 0
0 0 0 0 0 0 0 0
0 0 0 0 0 0 0 0
0 0 0 0 0 0 0 0
0 0 0 0 0 0 0 0
0 0 0 0 0 0 0 0
0 0 0 0 0 0 0 0
0 0 0 0 0 0 0 0
00000000: 0000 0000 0000 0000 0000 0000 0000 0000
00000010: 0000 0000 0000 0000 0000 0000 0000 0000
00000020: 0000 0000 0000 0000 0000 0000 0000 0000
00000030: 0000 0000 0000 0000 0000 0000 0000 0000
00000040: 0000 0000 0000 0000 0000 0000 0000 0000
00000050: 0000 0000 0000 0000 0000 0000 0000 0000
00000060: 0000 0000 0000 0000 0000 0000 0000 0000
00000070: 0000 0000 0000 0000 0000 0000 0000 0000
00000080: 0000 0000 0000 0000 0000 0000 0000 0000
00000090: 0000 0000 0000 0000 0000 0000 0000 0000
000000a0: 0000 0000 0000 0000 0000 0000 0000 0000
000000b0: 0000 0000 0000 0000 0000 0000 0000 0000
000000c0: 0000 0000 0000 0000 0000 0000 0000 0000
000000d0: 0000 0000 0000 0000 0000 0000 0000 0000
000000e0: 0000 0000 0000 0000 0000 0000 0000 0000
000000f0: 0000 0000 0000 0000 0000 0000 0000 0000

fuse_attr_129 i1 [480, 1, 1, 80]
0 0 0 0 0 0 0 0
0 0 0 0 0 0 0 0
0 0 0 0 0 0 0 0
0 0 0 0 0 0 0 0
0 0 0 0 0 0 0 0
0 0 0 0 0 0 0 0
0 0 0 0 0 0 0 0
0 0 0 0 0 0 0 0
0 0 0 0 0 0 0 0
0 0 0 0 0 0 0 0
0 0 0 0 0 0 0 0
0 0 0 0 0 0 0 0
0 0 0 0 0 0 0 0
0 0 0 0 0 0 0 0
0 0 0 0 0 0 0 0
0 0 0 0 0 0 0 0
0 0 0 0 0 0 0 0
0 0 0 0 0 0 0 0
0 0 0 0 0 0 0 0
0 0 0 0 0 0 0 0
0 0 0 0 0 0 0 0
0 0 0 0 0 0 0 0
0 0 0 0 0 0 0 0
0 0 0 0 0 0 0 0
0 0 0 0 0 0 0 0
0 0 0 0 0 0 0 0
0 0 0 0 0 0 0 0
0 0 0 0 0 0 0 0
0 0 0 0 0 0 0 0
0 0 0 0 0 0 0 0
0 0 0 0 0 0 0 0
0 0 0 0 0 0 0 0
00000000: 0000 0000 0000 0000 0000 0000 0000 0000
00000010: 0000 0000 0000 0000 0000 0000 0000 0000
00000020: 0000 0000 0000 0000 0000 0000 0000 0000
00000030: 0000 0000 0000 0000 0000 0000 0000 0000
00000040: 0000 0000 0000 0000 0000 0000 0000 0000
00000050: 0000 0000 0000 0000 0000 0000 0000 0000
00000060: 0000 0000 0000 0000 0000 0000 0000 0000
00000070: 0000 0000 0000 0000 0000 0000 0000 0000
00000080: 0000 0000 0000 0000 0000 0000 0000 0000
00000090: 0000 0000 0000 0000 0000 0000 0000 0000
000000a0: 0000 0000 0000 0000 0000 0000 0000 0000
000000b0: 0000 0000 0000 0000 0000 0000 0000 0000
000000c0: 0000 0000 0000 0000 0000 0000 0000 0000
000000d0: 0000 0000 0000 0000 0000 0000 0000 0000
000000e0: 0000 0000 0000 0000 0000 0000 0000 0000
000000f0: 0000 0000 0000 0000 0000 0000 0000 0000

fuse_attr_133 i1 [80, 1, 1, 480]
0 0 0 0 0 0 0 0
0 0 0 0 0 0 0 0
0 0 0 0 0 0 0 0
0 0 0 0 0 0 0 0
0 0 0 0 0 0 0 0
0 0 0 0 0 0 0 0
0 0 0 0 0 0 0 0
0 0 0 0 0 0 0 0
0 0 0 0 0 0 0 0
0 0 0 0 0 0 0 0
0 0 0 0 0 0 0 0
0 0 0 0 0 0 0 0
0 0 0 0 0 0 0 0
0 0 0 0 0 0 0 0
0 0 0 0 0 0 0 0
0 0 0 0 0 0 0 0
0 0 0 0 0 0 0 0
0 0 0 0 0 0 0 0
0 0 0 0 0 0 0 0
0 0 0 0 0 0 0 0
0 0 0 0 0 0 0 0
0 0 0 0 0 0 0 0
0 0 0 0 0 0 0 0
0 0 0 0 0 0 0 0
0 0 0 0 0 0 0 0
0 0 0 0 0 0 0 0
0 0 0 0 0 0 0 0
0 0 0 0 0 0 0 0
0 0 0 0 0 0 0 0
0 0 0 0 0 0 0 0
0 0 0 0 0 0 0 0
0 0 0 0 0 0 0 0
00000000: 0000 0000 0000 0000 0000 0000 0000 0000
00000010: 0000 0000 0000 0000 0000 0000 0000 0000
00000020: 0000 0000 0000 0000 0000 0000 0000 0000
00000030: 0000 0000 0000 0000 0000 0000 0000 0000
00000040: 0000 0000 0000 0000 0000 0000 0000 0000
00000050: 0000 0000 0000 0000 0000 0000 0000 0000
00000060: 0000 0000 0000 0000 0000 0000 0000 0000
00000070: 0000 0000 0000 0000 0000 0000 0000 0000
00000080: 0000 0000 0000 0000 0000 0000 0000 0000
00000090: 0000 0000 0000 0000 0000 0000 0000 0000
000000a0: 0000 0000 0000 0000 0000 0000 0000 0000
000000b0: 0000 0000 0000 0000 0000 0000 0000 0000
000000c0: 0000 0000 0000 0000 0000 0000 0000 0000
000000d0: 0000 0000 0000 0000 0000 0000 0000 0000
000000e0: 0000 0000 0000 0000 0000 0000 0000 0000
000000f0: 0000 0000 0000 0000 0000 0000 0000 0000

fuse_attr_109 i1 [144, 1, 1, 24]
0 0 0 0 0 0 0 0
0 0 0 0 0 0 0 0
0 0 0 0 0 0 0 0
84 -94 108 14 -7 2 43 20
-105 25 -128 -8 -8 108 17 -38
17 3 -94 61 -57 74 24 49
0 0 0 0 0 0 0 0
0 0 0 0 0 0 0 0
0 0 0 0 0 0 0 0
30 -93 -22 -17 -3 -45 64 27
15 -128 -63 -63 41 26 -91 29
17 -97 13 -65 15 97 -58 14
26 85 74 -8 127 79 24 62
-31 70 2 -37 91 1 43 94
17 10 -25 -25 77 -16 -25 -74
-4 68 7 -82 -42 -75 20 -101
18 8 47 25 94 -5 -80 70
114 106 -124 -21 -22 -128 35 12
0 0 0 0 0 0 0 0
0 0 0 0 0 0 0 0
0 0 0 0 0 0 0 0
0 0 0 0 0 0 0 0
0 0 0 0 0 0 0 0
0 0 0 0 0 0 0 0
127 -2 108 -5 42 -8 30 -53
-64 -93 54 -33 -42 16 -70 -71
-61 84 -30 -58 -112 -30 -68 19
-55 86 -25 -37 -73 5 80 39
14 -29 -80 -88 -66 -11 -48 43
14 -14 103 5 -36 127 -42 21
6 14 -120 59 -61 -80 107 79
81 -128 57 78 38 -22 14 71
00000000: 0000 0000 0000 0000 0000 0000 0000 0000
00000010: 0000 0000 0000 0000 54a2 6c0e f902 2b14
00000020: 9719 80f8 f86c 11da 1103 a23d c74a 1831
00000030: 0000 0000 0000 0000 0000 0000 0000 0000
00000040: 0000 0000 0000 0000 1ea3 eaef fdd3 401b
00000050: 0f80 c1c1 291a a51d 119f 0dbf 0f61 c60e
00000060: 1a55 4af8 7f4f 183e e146 02db 5b01 2b5e
00000070: 110a e7e7 4df0 e7b6 fc44 07ae d6b5 149b
00000080: 1208 2f19 5efb b046 726a 84eb ea80 230c
00000090: 0000 0000 0000 0000 0000 0000 0000 0000
000000a0: 0000 0000 0000 0000 0000 0000 0000 0000
000000b0: 0000 0000 0000 0000 0000 0000 0000 0000
000000c0: 7ffe 6cfb 2af8 1ecb c0a3 36df d610 bab9
000000d0: c354 e2c6 90e2 bc13 c956 e7db b705 5027
000000e0: 0ee3 b0a8 bef5 d02b 0ef2 6705 dc7f d615
000000f0: 060e 883b c3b0 6b4f 5180 394e 26ea 0e47

fuse_attr_94 i1 [32, 3, 3, 3]
12 -11 -2 67 -49 -17 14 -16
-1 15 -15 0 127 -87 -41 97
-61 -37 -22 5 17 35 -38 5
41 -37 -1 0 0 0 0 0
0 0 0 0 0 0 0 0
0 0 0 0 0 0 0 0
0 0 0 0 0 0 13 7
-21 17 -29 5 -16 -32 54 -1
-2 3 -66 -39 112 -75 -33 116
-37 -6 59 -85 -33 127 -29 -35
55 29 26 9 16 6 -2 -51
-61 -27 -63 -41 -10 -20 8 -2
127 109 51 27 27 3 2 0
1 -68 -71 -25 0 0 0 0
0 0 0 0 0 0 0 0
0 0 0 0 0 0 0 0
0 0 0 0 0 0 0 25
-17 -2 11 -25 -21 24 -9 -74
85 -24 -47 90 -31 -84 92 -18
-97 103 -43 -110 127 -13 -106 126
4 -65 8 8 -1 -52 -63 -33
64 29 2 6 8 -2 127 120
57 -72 -26 -1 -15 -4 6 -81
-82 -31 13 16 1 -14 -3 12
-7 -5 -34 -25 -11 -65 -18 -8
27 50 7 -15 -44 -63 -128 43
11 51 65 57 104 -11 9 16
-14 -2 -2 -30 -6 46 57 4
-60 0 4 14 -116 -30 68 127
20 -63 11 2 2 -107 -22 51
79 12 -44 33 -17 -42 98 77
24 19 -5 -32 57 21 8 127
00000000: 0cf5 fe43 cfef 0ef0 ff0f f100 7fa9 d761
00000010: c3db ea05 1123 da05 29db ff00 0000 0000
00000020: 0000 0000 0000 0000 0000 0000 0000 0000
00000030: 0000 0000 0000 0d07 eb11 e305 f0e0 36ff
00000040: fe03 bed9 70b5 df74 dbfa 3bab df7f e3dd
00000050: 371d 1a09 1006 fecd c3e5 c1d7 f6ec 08fe
00000060: 7f6d 331b 1b03 0200 01bc b9e7 0000 0000
00000070: 0000 0000 0000 0000 0000 0000 0000 0000
00000080: 0000 0000 0000 0019 effe 0be7 eb18 f7b6
00000090: 55e8 d15a e1ac 5cee 9f67 d592 7ff3 967e
000000a0: 04bf 0808 ffcc c1df 401d 0206 08fe 7f78
000000b0: 39b8 e6ff f1fc 06af aee1 0d10 01f2 fd0c
000000c0: f9fb dee7 f5bf eef8 1b32 07f1 d4c1 802b
000000d0: 0b33 4139 68f5 0910 f2fe fee2 fa2e 3904
000000e0: c400 040e 8ce2 447f 14c1 0b02 0295 ea33
000000f0: 4f0c d421 efd6 624d 1813 fbe0 3915 087f

fuse_attr_99 i1 [96, 1, 1, 16]
127 -26 55 3 -30 -16 -34 100
77 -24 10 -35 -9 -42 -17 -14
-128 -104 -54 -104 14 -23 -15 2
-21 -25 -13 -77 51 1 10 -25
7 -22 -128 54 -84 30 -41 77
-25 32 46 -68 -87 -43 -17 9
24 39 -18 -42 -66 -127 44 -4
-111 29 -3 121 29 53 -58 55
122 -80 127 -27 -6 -36 -45 78
-21 -63 -7 52 -18 15 -29 45
118 89 -42 -29 -84 -25 -67 -128
4 43 -31 14 -92 -14 11 2
-128 -31 43 83 -26 -38 -8 33
18 22 42 68 3 -34 -39 -10
-17 12 15 -51 -42 64 -14 -10
-21 -19 127 41 52 7 -23 9
-43 -32 17 109 -63 58 104 -9
-52 -128 -20 -53 121 -66 -100 -15
-39 91 82 -87 -29 73 -18 0
121 9 100 69 102 92 -128 -20
-33 127 -33 -46 20 18 -44 -19
-104 17 -4 -90 -10 40 -49 88
25 2 54 -8 9 9 -37 61
22 -36 15 -128 -19 -49 15 26
-19 32 46 -25 -8 61 28 8
-25 -16 10 -128 -12 -41 4 -22
-9 121 127 16 123 -52 -7 -8
33 -123 -8 -109 -47 -33 -33 102
76 44 38 53 -63 -105 -51 127
-71 -60 50 78 -70 -126 68 44
83 127 -16 -7 -102 38 -35 -88
-53 39 -20 -44 6 -9 115 29
00000000: 7fe6 3703 e2f0 de64 4de8 0add f7d6 eff2
00000010: 8098 ca98 0ee9 f102 ebe7 f3b3 3301 0ae7
00000020: 07ea 8036 ac1e d74d e720 2ebc a9d5 ef09
00000030: 1827 eed6 be81 2cfc 911d fd79 1d35 c637
00000040: 7ab0 7fe5 fadc d34e ebc1 f934 ee0f e32d
00000050: 7659 d6e3 ace7 bd80 042b e10e a4f2 0b02
00000060: 80e1 2b53 e6da f821 1216 2a44 03de d9f6
00000070: ef0c 0fcd d640 f2f6 ebed 7f29 3407 e909
00000080: d5e0 116d c13a 68f7 cc80 eccb 79be 9cf1
00000090: d95b 52a9 e349 ee00 7909 6445 665c 80ec
000000a0: df7f dfd2 1412 d4ed 9811 fca6 f628 cf58
000000b0: 1902 36f8 0909 db3d 16dc 0f80 edcf 0f1a
000000c0: ed20 2ee7 f83d 1c08 e7f0 0a80 f4d7 04ea
000000d0: f779 7f10 7bcc f9f8 2185 f893 d1df df66
000000e0: 4c2c 2635 c197 cd7f b9c4 324e ba82 442c
000000f0: 537f f0f9 9a26 dda8 cb27 ecd4 06f7 731d

fuse_attr_128 i1 [80, 1, 1, 480]
0 0 0 0 0 0 0 0
0 0 0 0 0 0 0 0
0 0 0 0 0 0 0 0
0 0 0 0 0 0 0 0
0 0 0 0 0 0 0 0
0 0 0 0 0 0 0 0
0 0 0 0 0 0 0 0
0 0 0 0 0 0 0 0
0 0 0 0 0 0 0 0
0 0 0 0 0 0 0 0
0 0 0 0 0 0 0 0
0 0 0 0 0 0 0 0
0 0 0 0 0 0 0 0
0 0 0 0 0 0 0 0
0 0 0 0 0 0 0 0
0 0 0 0 0 0 0 0
0 0 0 0 0 0 0 0
0 0 0 0 0 0 0 0
0 0 0 0 0 0 0 0
0 0 0 0 0 0 0 0
0 0 0 0 0 0 0 0
0 0 0 0 0 0 0 0
0 0 0 0 0 0 0 0
0 0 0 0 0 0 0 0
0 0 0 0 0 0 0 0
0 0 0 0 0 0 0 0
0 0 0 0 0 0 0 0
0 0 0 0 0 0 0 0
0 0 0 0 0 0 0 0
0 0 0 0 0 0 0 0
0 0 0 0 0 0 0 0
0 0 0 0 0 0 0 0
00000000: 0000 0000 0000 0000 0000 0000 0000 0000
00000010: 0000 0000 0000 0000 0000 0000 0000 0000
00000020: 0000 0000 0000 0000 0000 0000 0000 0000
00000030: 0000 0000 0000 0000 0000 0000 0000 0000
00000040: 0000 0000 0000 0000 0000 0000 0000 0000
00000050: 0000 0000 0000 0000 0000 0000 0000 0000
00000060: 0000 0000 0000 0000 0000 0000 0000 0000
00000070: 0000 0000 0000 0000 0000 0000 0000 0000
00000080: 0000 0000 0000 0000 0000 0000 0000 0000
00000090: 0000 0000 0000 0000 0000 0000 0000 0000
000000a0: 0000 0000 0000 0000 0000 0000 0000 0000
000000b0: 0000 0000 0000 0000 0000 0000 0000 0000
000000c0: 0000 0000 0000 0000 0000 0000 0000 0000
000000d0: 0000 0000 0000 0000 0000 0000 0000 0000
000000e0: 0000 0000 0000 0000 0000 0000 0000 0000
000000f0: 0000 0000 0000 0000 0000 0000 0000 0000
