detection/models/fomo/COCO_Person/fomo_mobnetv2_0.35_x8_abl_coco_int8_sha1_f71baa4b43310a9d1fa9b128dca15d3bf9c2a696.tflite (tflite, 18792 bytes, 11 tensors)

fuse_attr_9 i1 [1, 3, 3, 8]
18 16 69 -50 46 66 -2 58
40 40 99 -128 74 96 8 91
35 23 31 -85 81 27 13 41
53 50 81 -25 83 111 50 81
127 127 127 -57 124 127 117 127
106 80 89 -43 127 112 73 57
33 45 22 -19 48 27 62 33
85 112 90 -71 67 104 127 43
63 67 84 -42 58 98 68 1
00000000: 1210 45ce 2e42 fe3a 2828 6380 4a60 085b
00000010: 2317 1fab 511b 0d29 3532 51e7 536f 3251
00000020: 7f7f 7fc7 7c7f 757f 6a50 59d5 7f70 4939
00000030: 212d 16ed 301b 3e21 5570 5ab9 4368 7f2b
00000040: 3f43 54d6 3a62 4401

fuse_attr_7 i1 [1, 3, 3, 16]
21 -51 -1 -9 28 -24 -17 -39
28 -6 20 2 -15 13 20 6
8 35 -33 -14 32 0 47 60
4 59 38 127 -116 120 43 -22
5 -18 19 4 -55 127 116 -46
30 -30 -15 -117 -15 77 20 -4
25 36 -14 -43 21 -6 12 -94
86 18 4 1 20 0 37 6
-128 127 -70 127 120 15 -54 127
-116 -128 120 96 127 -128 127 119
-9 -47 127 -42 -128 -46 -52 -81
127 4 127 -124 -25 -48 16 -127
3 -16 -17 -10 37 23 50 -5
-31 -9 -55 4 -7 -25 -5 1
-7 20 -28 -14 44 -32 -128 3
17 48 62 4 -15 20 -8 -14
23 -20 33 -11 -97 -64 -16 -6
-5 8 39 6 56 -36 33 -9
00000000: 15cd fff7 1ce8 efd9 1cfa 1402 f10d 1406
00000010: 0823 dff2 2000 2f3c 043b 267f 8c78 2bea
00000020: 05ee 1304 c97f 74d2 1ee2 f18b f14d 14fc
00000030: 1924 f2d5 15fa 0ca2 5612 0401 1400 2506
00000040: 807f ba7f 780f ca7f 8c80 7860 7f80 7f77
00000050: f7d1 7fd6 80d2 ccaf 7f04 7f84 e7d0 1081
00000060: 03f0 eff6 2517 32fb e1f7 c904 f9e7 fb01
00000070: f914 e4f2 2ce0 8003 1130 3e04 f114 f8f2
00000080: 17ec 21f5 9fc0 f0fa fb08 2706 38dc 21f7

fuse_attr_16 i1 [2, 1, 1, 48]
0 -18 -38 67 28 34 -21 39
0 0 35 37 0 36 44 0
32 38 0 0 0 0 0 35
-1 0 36 45 0 0 0 0
40 -13 0 0 -3 0 42 0
5 35 0 -39 0 15 43 127
0 105 122 -97 -76 -94 92 -102
0 0 -90 -94 0 -94 -62 0
-91 -89 0 0 0 0 0 -97
109 0 -90 -104 0 0 0 0
-96 90 0 0 115 0 -9 0
0 -83 0 127 0 -1 -105 -3
00000000: 00ee da43 1c22 eb27 0000 2325 0024 2c00
00000010: 2026 0000 0000 0023 ff00 242d 0000 0000
00000020: 28f3 0000 fd00 2a00 0523 00d9 000f 2b7f
00000030: 0069 7a9f b4a2 5c9a 0000 a6a2 00a2 c200
00000040: a5a7 0000 0000 009f 6d00 a698 0000 0000
00000050: a05a 0000 7300 f700 00ad 007f 00ff 97fd

fuse_attr_11 i1 [1, 3, 3, 8]
27 -13 -22 -77 -123 13 -29 21
72 -27 -56 -103 -114 71 -22 39
60 -31 -48 -128 127 74 -5 24
40 -8 -66 -41 -65 52 2 53
124 -128 -128 -3 -119 127 -128 127
115 -120 -89 26 126 84 -2 84
44 -17 -54 26 -60 50 -27 28
127 -85 -115 46 -75 79 -72 104
124 -81 -74 93 82 24 -19 83
00000000: 1bf3 eab3 850d e315 48e5 c899 8e47 ea27
00000010: 3ce1 d080 7f4a fb18 28f8 bed7 bf34 0235
00000020: 7c80 80fd 897f 807f 7388 a71a 7e54 fe54
00000030: 2cef ca1a c432 e51c 7fab 8d2e b54f b868
00000040: 7caf b65d 5218 ed53

fuse_attr_10 i1 [1, 3, 3, 8]
3 26 35 -128 -17 44 -16 87
-6 29 -128 -91 -7 -8 -37 -31
4 22 -49 -100 -78 -48 -21 67
24 -43 -24 6 -36 -39 -26 -7
-128 -127 117 -3 18 127 84 14
8 -47 -16 -19 75 -75 127 39
16 17 -38 -79 -86 -49 -8 43
-81 -64 30 -81 21 -63 76 8
5 8 23 -107 127 99 92 127
00000000: 031a 2380 ef2c f057 fa1d 80a5 f9f8 dbe1
00000010: 0416 cf9c b2d0 eb43 18d5 e806 dcd9 e6f9
00000020: 8081 75fd 127f 540e 08d1 f0ed 4bb5 7f27
00000030: 1011 dab1 aacf f82b afc0 1eaf 15c1 4c08
00000040: 0508 1795 7f63 5c7f

fuse_attr_15 i1 [48, 3, 3, 16]
0 0 0 0 0 0 0 0
0 0 0 0 0 0 0 0
0 0 0 0 0 0 0 0
0 0 0 0 0 0 0 0
0 0 0 0 0 0 0 0
0 0 0 0 0 0 0 0
0 0 0 0 0 0 0 0
0 0 0 0 0 0 0 0
0 0 0 0 0 0 0 0
0 0 0 0 0 0 0 0
0 0 0 0 0 0 0 0
0 0 0 0 0 0 0 0
0 0 0 0 0 0 0 0
0 0 0 0 0 0 0 0
0 0 0 0 0 0 0 0
0 0 0 0 0 0 0 0
0 0 0 0 0 0 0 0
0 0 0 0 0 0 0 0
22 -12 -42 40 -14 25 -8 -2
-5 -33 -6 15 24 -23 -76 -25
-18 -40 -25 -36 -16 15 31 5
-25 -5 17 -12 -42 -42 -3 16
-10 -25 -49 77 -12 25 6 23
-10 -16 -19 56 21 -13 -46 -47
-27 -8 36 5 50 45 -13 18
9 63 -40 -20 18 -42 105 7
-5 40 68 -29 13 -128 7 8
3 71 59 -60 -28 67 54 56
4 -9 53 -29 52 54 -9 9
16 14 -34 21 8 -32 25 7
-13 -28 -18 24 -27 21 18 45
-3 -23 -39 56 -11 -8 9 -43
00000000: 0000 0000 0000 0000 0000 0000 0000 0000
00000010: 0000 0000 0000 0000 0000 0000 0000 0000
00000020: 0000 0000 0000 0000 0000 0000 0000 0000
00000030: 0000 0000 0000 0000 0000 0000 0000 0000
00000040: 0000 0000 0000 0000 0000 0000 0000 0000
00000050: 0000 0000 0000 0000 0000 0000 0000 0000
00000060: 0000 0000 0000 0000 0000 0000 0000 0000
00000070: 0000 0000 0000 0000 0000 0000 0000 0000
00000080: 0000 0000 0000 0000 0000 0000 0000 0000
00000090: 16f4 d628 f219 f8fe fbdf fa0f 18e9 b4e7
000000a0: eed8 e7dc f00f 1f05 e7fb 11f4 d6d6 fd10
000000b0: f6e7 cf4d f419 0617 f6f0 ed38 15f3 d2d1
000000c0: e5f8 2405 322d f312 093f d8ec 12d6 6907
000000d0: fb28 44e3 0d80 0708 0347 3bc4 e443 3638
000000e0: 04f7 35e3 3436 f709 100e de15 08e0 1907
000000f0: f3e4 ee18 e515 122d fde9 d938 f5f8 09d5

fuse_attr_13 i1 [1, 3, 3, 16]
-71 23 -14 31 -19 -1 37 127
-1 127 0 127 120 54 -92 42
-79 -36 -89 -71 1 8 127 122
-14 3 0 28 -30 -22 -32 94
-49 -25 127 15 -14 -9 68 127
-1 -48 0 51 127 53 77 73
28 -26 -5 116 7 -4 41 11
-4 119 0 48 -83 46 -128 66
127 -128 -62 -74 127 -127 -37 -24
127 -101 127 7 -72 -18 41 127
33 -3 26 83 6 -9 46 3
-2 -67 0 67 -96 29 73 73
-2 -3 -7 75 -19 -12 48 30
-6 125 0 54 98 61 -80 25
14 -21 -1 92 9 13 -29 58
-113 -72 0 94 16 127 14 40
-6 3 38 127 -16 -22 50 104
-10 0 0 61 112 61 61 17
00000000: b917 f21f edff 257f ff7f 007f 7836 a42a
00000010: b1dc a7b9 0108 7f7a f203 001c e2ea e05e
00000020: cfe7 7f0f f2f7 447f ffd0 0033 7f35 4d49
00000030: 1ce6 fb74 07fc 290b fc77 0030 ad2e 8042
00000040: 7f80 c2b6 7f81 dbe8 7f9b 7f07 b8ee 297f
00000050: 21fd 1a53 06f7 2e03 febd 0043 a01d 4949
00000060: fefd f94b edf4 301e fa7d 0036 623d b019
00000070: 0eeb ff5c 090d e33a 8fb8 005e 107f 0e28
00000080: fa03 267f f0ea 3268 f600 003d 703d 3d11

fuse_attr_6 i1 [16, 3, 3, 3]
22 -50 31 38 -89 45 40 -99
57 20 -49 33 59 -128 67 44
-116 78 17 -17 -5 40 -71 28
-10 -16 28 28 0 -48 72 -37
-27 127 -36 -53 -78 34 17 -45
15 33 -9 44 14 -74 18 9
-37 39 11 -44 34 14 -51 9
50 50 -37 -31 -1 10 -7 -85
-11 127 72 -69 -50 -8 24 -3
-44 -10 84 28 -41 -17 2 22
-11 -47 33 46 -1 -19 26 -14
20 21 -55 127 -4 -27 -18 24
16 -25 25 66 -125 -89 71 20
-52 -11 18 -15 -6 37 54 -23
-33 48 48 -42 -41 -29 50 120
-49 -51 127 10 -94 -93 18 -7
24 -5 -25 89 -4 -57 -105 71
22 -93 45 -11 -17 -35 -29 48
60 17 -128 12 -25 8 -26 -33
93 -85 21 -6 0 -33 -9 19
-13 38 81 -16 55 40 56 28
9 60 -85 -37 -1 56 -45 73
-11 -52 127 -30 -70 34 37 -120
32 3 -92 120 -6 -12 -12 22
85 -35 -32 -6 -15 18 8 -28
19 127 -62 -46 -35 -30 51 24
-26 3 78 -42 -28 -45 -11 43
30 -30 1 44 -70 37 -3 -41
52 -18 -28 26 -36 -55 75 -66
-30 98 -40 11 20 -94 -36 95
-128 -28 106 15 6 -18 -16 40
-19 38 41 -72 35 -32 -11 127
00000000: 16ce 1f26 a72d 289d 3914 cf21 3b80 432c
00000010: 8c4e 11ef fb28 b91c f6f0 1c1c 00d0 48db
00000020: e57f dccb b222 11d3 0f21 f72c 0eb6 1209
00000030: db27 0bd4 220e cd09 3232 dbe1 ff0a f9ab
00000040: f57f 48bb cef8 18fd d4f6 541c d7ef 0216
00000050: f5d1 212e ffed 1af2 1415 c97f fce5 ee18
00000060: 10e7 1942 83a7 4714 ccf5 12f1 fa25 36e9
00000070: df30 30d6 d7e3 3278 cfcd 7f0a a2a3 12f9
00000080: 18fb e759 fcc7 9747 16a3 2df5 efdd e330
00000090: 3c11 800c e708 e6df 5dab 15fa 00df f713
000000a0: f326 51f0 3728 381c 093c abdb ff38 d349
000000b0: f5cc 7fe2 ba22 2588 2003 a478 faf4 f416
000000c0: 55dd e0fa f112 08e4 137f c2d2 dde2 3318
000000d0: e603 4ed6 e4d3 f52b 1ee2 012c ba25 fdd7
000000e0: 34ee e41a dcc9 4bbe e262 d80b 14a2 dc5f
000000f0: 80e4 6a0f 06ee f028 ed26 29b8 23e0 f57f

fuse_attr_8 i1 [8, 1, 1, 16]
1 18 -25 -24 -20 1 0 -19
18 0 -13 -20 75 127 4 -37
-53 -111 115 -99 125 26 36 68
79 -17 -128 112 -8 -44 -37 65
-25 -56 76 51 57 115 -127 31
71 -24 -49 -1 80 28 16 121
-32 103 7 20 -105 -128 39 51
-93 29 97 -76 -59 4 10 -100
5 -3 5 1 -2 6 -4 1
-128 -100 36 9 7 1 -37 21
-128 -29 -13 -3 9 1 -23 5
33 -95 -46 23 12 6 -113 37
1 -99 30 37 20 8 33 23
28 11 -68 49 62 3 -94 127
-53 -54 -73 72 -53 101 76 -128
6 -30 -16 -66 24 -22 -15 23
00000000: 0112 e7e8 ec01 00ed 1200 f3ec 4b7f 04db
00000010: cb91 739d 7d1a 2444 4fef 8070 f8d4 db41
00000020: e7c8 4c33 3973 811f 47e8 cfff 501c 1079
00000030: e067 0714 9780 2733 a31d 61b4 c504 0a9c
00000040: 05fd 0501 fe06 fc01 809c 2409 0701 db15
00000050: 80e3 f3fd 0901 e905 21a1 d217 0c06 8f25
00000060: 019d 1e25 1408 2117 1c0b bc31 3e03 a27f
00000070: cbca b748 cb65 4c80 06e2 f0be 18ea f117

fuse_attr_14 i1 [1, 3, 3, 16]
34 58 48 39 17 -3 -43 116
-68 -53 -9 -112 61 30 76 38
-40 93 127 20 41 -6 -127 -68
-60 -36 14 -128 100 93 127 92
96 51 101 8 28 0 -60 127
-61 -75 2 -45 50 35 79 55
111 68 25 -32 43 -10 41 53
-79 -35 -5 -92 72 20 40 19
28 127 118 62 127 -127 -104 -20
-127 -113 127 -76 127 -4 9 -128
127 77 101 22 38 -4 31 64
-73 -128 -8 0 71 15 -29 59
56 10 -12 127 30 -3 94 82
-42 -32 -12 -39 46 -57 86 89
88 67 43 -1 52 0 81 -83
-107 -49 15 -9 90 -128 49 -53
72 38 76 94 23 4 100 100
-40 -104 -5 -57 48 -67 6 30
00000000: 223a 3027 11fd d574 bccb f790 3d1e 4c26
00000010: d85d 7f14 29fa 81bc c4dc 0e80 645d 7f5c
00000020: 6033 6508 1c00 c47f c3b5 02d3 3223 4f37
00000030: 6f44 19e0 2bf6 2935 b1dd fba4 4814 2813
00000040: 1c7f 763e 7f81 98ec 818f 7fb4 7ffc 0980
00000050: 7f4d 6516 26fc 1f40 b780 f800 470f e33b
00000060: 380a f47f 1efd 5e52 d6e0 f4d9 2ec7 5659
00000070: 5843 2bff 3400 51ad 95cf 0ff7 5a80 31cb
00000080: 4826 4c5e 1704 6464 d898 fbc7 30bd 061e

fuse_attr_12 i1 [16, 1, 1, 8]
-127 127 -19 4 -8 70 -116 -81
-52 -15 -69 -2 -15 127 50 12
88 -128 27 -48 -35 -53 41 -89
-60 17 15 29 -127 16 126 -49
-128 -56 -25 -5 5 -52 -46 -11
-4 -128 22 13 -8 8 17 0
94 127 22 -112 70 16 54 10
-2 5 5 -127 -6 -1 -4 -7
-5 26 8 -2 -48 7 -128 -64
-40 93 -65 -8 -12 31 30 -128
-94 104 -56 -18 14 -11 -73 -128
43 61 -57 33 127 35 118 -8
-10 -3 -26 -128 41 37 30 -9
46 127 -28 -91 78 35 46 -40
-40 127 -56 42 57 72 -16 77
-100 83 -128 -28 -51 91 105 -94
00000000: 817f ed04 f846 8caf ccf1 bbfe f17f 320c
00000010: 5880 1bd0 ddcb 29a7 c411 0f1d 8110 7ecf
00000020: 80c8 e7fb 05cc d2f5 fc80 160d f808 1100
00000030: 5e7f 1690 4610 360a fe05 0581 faff fcf9
00000040: fb1a 08fe d007 80c0 d85d bff8 f41f 1e80
00000050: a268 c8ee 0ef5 b780 2b3d c721 7f23 76f8
00000060: f6fd e680 2925 1ef7 2e7f e4a5 4e23 2ed8
00000070: d87f c82a 3948 f04d 9c53 80e4 cd5b 69a2
